…
I0531 11:50:13.517421  2140 solver.cpp:77] Creating training net from train_net file: /home/work/qinhuan/mywork/license_plate/cascadeCNN_license_plate_detection/train_net/jobs/license_6c/train.prototxt
I0531 11:50:13.517870  2140 net.cpp:51] Initializing net from parameters: 
name: "license_6c_train"
state {
  phase: TRAIN
}
layer {
  name: "data"
  type: "Input"
  top: "data"
  input_param {
    shape {
      dim: 128
      dim: 3
      dim: 6
      dim: 18
    }
  }
}
layer {
  name: "label"
  type: "Input"
  top: "label"
  input_param {
    shape {
      dim: 128
    }
  }
}
layer {
  name: "conv1"
  type: "Convolution"
  bottom: "data"
  top: "conv1"
  param {
    lr_mult: 1
    decay_mult: 1
  }
  param {
    lr_mult: 2
    decay_mult: 0
  }
  convolution_param {
    num_output: 16
    kernel_size: 3
    weight_filler {
      type: "gaussian"
      std: 0.0001
    }
    bias_filler {
      type: "constant"
    }
  }
}
layer {
  name: "pool1"
  type: "Pooling"
  bottom: "conv1"
  top: "pool1"
  pooling_param {
    pool: MAX
    kernel_size: 3
    stride: 2
  }
}
layer {
  name: "relu1"
  type: "ReLU"
  bottom: "pool1"
  top: "pool1"
}
layer {
  name: "fc2"
  type: "InnerProduct"
  bottom: "pool1"
  top: "fc2"
  param {
    lr_mult: 1
    decay_mult: 1
  }
  param {
    lr_mult: 2
    decay_mult: 0
  }
  inner_product_param {
    num_output: 16
    weight_filler {
      type: "gaussian"
      std: 0.005
    }
    bias_filler {
      type: "constant"
    }
  }
}
layer {
  name: "relu2"
  type: "ReLU"
  bottom: "fc2"
  top: "fc2"
}
layer {
  name: "drop2"
  type: "Dropout"
  bottom: "fc2"
  top: "fc2"
  dropout_param {
    dropout_ratio: 0.5
  }
}
layer {
  name: "fc3"
  type: "InnerProduct"
  bottom: "fc2"
  top: "fc3"
  param {
    lr_mult: 1
    decay_mult: 100
  }
  param {
    lr_mult: 2
    decay_mult: 0
  }
  inner_product_param {
    num_output: 2
    weight_filler {
      type: "gaussian"
      std: 0.01
    }
    bias_filler {
      type: "constant"
      value: 0
    }
  }
}
layer {
  name: "loss"
  type: "SoftmaxWithLoss"
  bottom: "fc3"
  bottom: "label"
  top: "loss"
}
I0531 11:50:13.517943  2140 layer_factory.hpp:77] Creating layer data
I0531 11:50:13.517962  2140 net.cpp:84] Creating Layer data
I0531 11:50:13.517971  2140 net.cpp:380] data -> data
I0531 11:50:13.519337  2140 net.cpp:122] Setting up data
I0531 11:50:13.519361  2140 net.cpp:129] Top shape: 128 3 6 18 (41472)
I0531 11:50:13.519364  2140 net.cpp:137] Memory required for data: 165888
I0531 11:50:13.519369  2140 layer_factory.hpp:77] Creating layer label
I0531 11:50:13.519381  2140 net.cpp:84] Creating Layer label
I0531 11:50:13.519387  2140 net.cpp:380] label -> label
I0531 11:50:13.519415  2140 net.cpp:122] Setting up label
I0531 11:50:13.519423  2140 net.cpp:129] Top shape: 128 (128)
I0531 11:50:13.519425  2140 net.cpp:137] Memory required for data: 166400
I0531 11:50:13.519429  2140 layer_factory.hpp:77] Creating layer conv1
I0531 11:50:13.519446  2140 net.cpp:84] Creating Layer conv1
I0531 11:50:13.519451  2140 net.cpp:406] conv1 <- data
I0531 11:50:13.519460  2140 net.cpp:380] conv1 -> conv1
I0531 11:50:13.932603  2140 net.cpp:122] Setting up conv1
I0531 11:50:13.932653  2140 net.cpp:129] Top shape: 128 16 4 16 (131072)
I0531 11:50:13.932658  2140 net.cpp:137] Memory required for data: 690688
I0531 11:50:13.932680  2140 layer_factory.hpp:77] Creating layer pool1
I0531 11:50:13.932718  2140 net.cpp:84] Creating Layer pool1
I0531 11:50:13.932726  2140 net.cpp:406] pool1 <- conv1
I0531 11:50:13.932734  2140 net.cpp:380] pool1 -> pool1
I0531 11:50:13.932788  2140 net.cpp:122] Setting up pool1
I0531 11:50:13.932796  2140 net.cpp:129] Top shape: 128 16 2 8 (32768)
I0531 11:50:13.932799  2140 net.cpp:137] Memory required for data: 821760
I0531 11:50:13.932803  2140 layer_factory.hpp:77] Creating layer relu1
I0531 11:50:13.932812  2140 net.cpp:84] Creating Layer relu1
I0531 11:50:13.932816  2140 net.cpp:406] relu1 <- pool1
I0531 11:50:13.932822  2140 net.cpp:367] relu1 -> pool1 (in-place)
I0531 11:50:13.933015  2140 net.cpp:122] Setting up relu1
I0531 11:50:13.933024  2140 net.cpp:129] Top shape: 128 16 2 8 (32768)
I0531 11:50:13.933028  2140 net.cpp:137] Memory required for data: 952832
I0531 11:50:13.933032  2140 layer_factory.hpp:77] Creating layer fc2
I0531 11:50:13.933044  2140 net.cpp:84] Creating Layer fc2
I0531 11:50:13.933048  2140 net.cpp:406] fc2 <- pool1
I0531 11:50:13.933054  2140 net.cpp:380] fc2 -> fc2
I0531 11:50:13.934604  2140 net.cpp:122] Setting up fc2
I0531 11:50:13.934623  2140 net.cpp:129] Top shape: 128 16 (2048)
I0531 11:50:13.934628  2140 net.cpp:137] Memory required for data: 961024
I0531 11:50:13.934638  2140 layer_factory.hpp:77] Creating layer relu2
I0531 11:50:13.934649  2140 net.cpp:84] Creating Layer relu2
I0531 11:50:13.934654  2140 net.cpp:406] relu2 <- fc2
I0531 11:50:13.934661  2140 net.cpp:367] relu2 -> fc2 (in-place)
I0531 11:50:13.935994  2140 net.cpp:122] Setting up relu2
I0531 11:50:13.936012  2140 net.cpp:129] Top shape: 128 16 (2048)
I0531 11:50:13.936017  2140 net.cpp:137] Memory required for data: 969216
I0531 11:50:13.936020  2140 layer_factory.hpp:77] Creating layer drop2
I0531 11:50:13.936034  2140 net.cpp:84] Creating Layer drop2
I0531 11:50:13.936038  2140 net.cpp:406] drop2 <- fc2
I0531 11:50:13.936044  2140 net.cpp:367] drop2 -> fc2 (in-place)
I0531 11:50:13.936074  2140 net.cpp:122] Setting up drop2
I0531 11:50:13.936079  2140 net.cpp:129] Top shape: 128 16 (2048)
I0531 11:50:13.936082  2140 net.cpp:137] Memory required for data: 977408
I0531 11:50:13.936086  2140 layer_factory.hpp:77] Creating layer fc3
I0531 11:50:13.936097  2140 net.cpp:84] Creating Layer fc3
I0531 11:50:13.936101  2140 net.cpp:406] fc3 <- fc2
I0531 11:50:13.936110  2140 net.cpp:380] fc3 -> fc3
I0531 11:50:13.936234  2140 net.cpp:122] Setting up fc3
I0531 11:50:13.936242  2140 net.cpp:129] Top shape: 128 2 (256)
I0531 11:50:13.936245  2140 net.cpp:137] Memory required for data: 978432
I0531 11:50:13.936255  2140 layer_factory.hpp:77] Creating layer loss
I0531 11:50:13.936264  2140 net.cpp:84] Creating Layer loss
I0531 11:50:13.936269  2140 net.cpp:406] loss <- fc3
I0531 11:50:13.936273  2140 net.cpp:406] loss <- label
I0531 11:50:13.936280  2140 net.cpp:380] loss -> loss
I0531 11:50:13.936295  2140 layer_factory.hpp:77] Creating layer loss
…
I0531 11:50:13.936986  2140 solver.cpp:173] Creating test net (#0) specified by test_net file: /home/work/qinhuan/mywork/license_plate/cascadeCNN_license_plate_detection/train_net/jobs/license_6c/test.prototxt
I0531 11:50:13.937119  2140 net.cpp:51] Initializing net from parameters: 
name: "license_6c_test"
state {
  phase: TEST
}
layer {
  name: "data"
  type: "Data"
  top: "data"
  top: "label"
  transform_param {
    mean_file: "/home/work/qinhuan/mywork/license_plate/data/lmdb/license_train_6c_imagenet_mean.binaryproto"
  }
  data_param {
    source: "/home/work/qinhuan/mywork/license_plate/data/lmdb/license_val_6c_lmdb"
    batch_size: 50
    backend: LMDB
  }
}
layer {
  name: "conv1"
  type: "Convolution"
  bottom: "data"
  top: "conv1"
  param {
    lr_mult: 1
    decay_mult: 1
  }
  param {
    lr_mult: 2
    decay_mult: 0
  }
  convolution_param {
    num_output: 16
    kernel_size: 3
    weight_filler {
      type: "gaussian"
      std: 0.0001
    }
    bias_filler {
      type: "constant"
    }
  }
}
layer {
  name: "pool1"
  type: "Pooling"
  bottom: "conv1"
  top: "pool1"
  pooling_param {
    pool: MAX
    kernel_size: 3
    stride: 2
  }
}
layer {
  name: "relu1"
  type: "ReLU"
  bottom: "pool1"
  top: "pool1"
}
layer {
  name: "fc2"
  type: "InnerProduct"
  bottom: "pool1"
  top: "fc2"
  param {
    lr_mult: 1
    decay_mult: 1
  }
  param {
    lr_mult: 2
    decay_mult: 0
  }
  inner_product_param {
    num_output: 16
    weight_filler {
      type: "gaussian"
      std: 0.005
    }
    bias_filler {
      type: "constant"
    }
  }
}
layer {
  name: "relu2"
  type: "ReLU"
  bottom: "fc2"
  top: "fc2"
}
layer {
  name: "drop2"
  type: "Dropout"
  bottom: "fc2"
  top: "fc2"
  dropout_param {
    dropout_ratio: 0.5
  }
}
layer {
  name: "fc3"
  type: "InnerProduct"
  bottom: "fc2"
  top: "fc3"
  param {
    lr_mult: 1
    decay_mult: 100
  }
  param {
    lr_mult: 2
    decay_mult: 0
  }
  inner_product_param {
    num_output: 2
    weight_filler {
      type: "gaussian"
      std: 0.01
    }
    bias_filler {
      type: "constant"
      value: 0
    }
  }
}
layer {
  name: "accuracy"
  type: "Accuracy"
  bottom: "fc3"
  bottom: "label"
  top: "accuracy"
}
I0531 11:50:13.937170  2140 layer_factory.hpp:77] Creating layer data
I0531 11:50:13.937250  2140 db_lmdb.cpp:35] Opened lmdb /home/work/qinhuan/mywork/license_plate/data/lmdb/license_val_6c_lmdb
I0531 11:50:13.937278  2140 net.cpp:84] Creating Layer data
I0531 11:50:13.937283  2140 net.cpp:380] data -> data
I0531 11:50:13.937294  2140 net.cpp:380] data -> label
I0531 11:50:13.937304  2140 data_transformer.cpp:25] Loading mean file from: /home/work/qinhuan/mywork/license_plate/data/lmdb/license_train_6c_imagenet_mean.binaryproto
I0531 11:50:13.937472  2140 data_layer.cpp:45] output data size: 50,3,6,18
I0531 11:50:13.939206  2140 net.cpp:122] Setting up data
I0531 11:50:13.939225  2140 net.cpp:129] Top shape: 50 3 6 18 (16200)
I0531 11:50:13.939232  2140 net.cpp:129] Top shape: 50 (50)
I0531 11:50:13.939236  2140 net.cpp:137] Memory required for data: 65000
I0531 11:50:13.939241  2140 layer_factory.hpp:77] Creating layer conv1
I0531 11:50:13.939256  2140 net.cpp:84] Creating Layer conv1
I0531 11:50:13.939261  2140 net.cpp:406] conv1 <- data
I0531 11:50:13.939268  2140 net.cpp:380] conv1 -> conv1
I0531 11:50:13.941846  2140 net.cpp:122] Setting up conv1
I0531 11:50:13.941869  2140 net.cpp:129] Top shape: 50 16 4 16 (51200)
I0531 11:50:13.941874  2140 net.cpp:137] Memory required for data: 269800
I0531 11:50:13.941885  2140 layer_factory.hpp:77] Creating layer pool1
I0531 11:50:13.941895  2140 net.cpp:84] Creating Layer pool1
I0531 11:50:13.941898  2140 net.cpp:406] pool1 <- conv1
I0531 11:50:13.941907  2140 net.cpp:380] pool1 -> pool1
I0531 11:50:13.941951  2140 net.cpp:122] Setting up pool1
I0531 11:50:13.941958  2140 net.cpp:129] Top shape: 50 16 2 8 (12800)
I0531 11:50:13.941962  2140 net.cpp:137] Memory required for data: 321000
I0531 11:50:13.941965  2140 layer_factory.hpp:77] Creating layer relu1
I0531 11:50:13.941973  2140 net.cpp:84] Creating Layer relu1
I0531 11:50:13.941983  2140 net.cpp:406] relu1 <- pool1
I0531 11:50:13.941989  2140 net.cpp:367] relu1 -> pool1 (in-place)
I0531 11:50:13.942203  2140 net.cpp:122] Setting up relu1
I0531 11:50:13.942214  2140 net.cpp:129] Top shape: 50 16 2 8 (12800)
I0531 11:50:13.942217  2140 net.cpp:137] Memory required for data: 372200
I0531 11:50:13.942221  2140 layer_factory.hpp:77] Creating layer fc2
I0531 11:50:13.942232  2140 net.cpp:84] Creating Layer fc2
I0531 11:50:13.942236  2140 net.cpp:406] fc2 <- pool1
I0531 11:50:13.942245  2140 net.cpp:380] fc2 -> fc2
I0531 11:50:13.942512  2140 net.cpp:122] Setting up fc2
I0531 11:50:13.942523  2140 net.cpp:129] Top shape: 50 16 (800)
I0531 11:50:13.942530  2140 net.cpp:137] Memory required for data: 375400
I0531 11:50:13.942539  2140 layer_factory.hpp:77] Creating layer relu2
I0531 11:50:13.942546  2140 net.cpp:84] Creating Layer relu2
I0531 11:50:13.942550  2140 net.cpp:406] relu2 <- fc2
I0531 11:50:13.942559  2140 net.cpp:367] relu2 -> fc2 (in-place)
I0531 11:50:13.942806  2140 net.cpp:122] Setting up relu2
I0531 11:50:13.942822  2140 net.cpp:129] Top shape: 50 16 (800)
I0531 11:50:13.942827  2140 net.cpp:137] Memory required for data: 378600
I0531 11:50:13.942831  2140 layer_factory.hpp:77] Creating layer drop2
I0531 11:50:13.942839  2140 net.cpp:84] Creating Layer drop2
I0531 11:50:13.942843  2140 net.cpp:406] drop2 <- fc2
I0531 11:50:13.942849  2140 net.cpp:367] drop2 -> fc2 (in-place)
I0531 11:50:13.942881  2140 net.cpp:122] Setting up drop2
I0531 11:50:13.942888  2140 net.cpp:129] Top shape: 50 16 (800)
I0531 11:50:13.942890  2140 net.cpp:137] Memory required for data: 381800
I0531 11:50:13.942903  2140 layer_factory.hpp:77] Creating layer fc3
I0531 11:50:13.942912  2140 net.cpp:84] Creating Layer fc3
I0531 11:50:13.942921  2140 net.cpp:406] fc3 <- fc2
I0531 11:50:13.942927  2140 net.cpp:380] fc3 -> fc3
I0531 11:50:13.943048  2140 net.cpp:122] Setting up fc3
I0531 11:50:13.943056  2140 net.cpp:129] Top shape: 50 2 (100)
I0531 11:50:13.943060  2140 net.cpp:137] Memory required for data: 382200
I0531 11:50:13.943070  2140 layer_factory.hpp:77] Creating layer accuracy
I0531 11:50:13.943087  2140 net.cpp:84] Creating Layer accuracy
I0531 11:50:13.943094  2140 net.cpp:406] accuracy <- fc3
I0531 11:50:13.943100  2140 net.cpp:406] accuracy <- label
I0531 11:50:13.943106  2140 net.cpp:380] accuracy -> accuracy
I0531 11:50:13.943120  2140 net.cpp:122] Setting up accuracy
…
