…
I0512 16:54:55.322751 15615 solver.cpp:77] Creating training net from train_net file: /home/work/qinhuan/mywork/license_plate/cascadeCNN_license_plate_detection/train_net/jobs/license_24cal/train.prototxt
I0512 16:54:55.322940 15615 net.cpp:51] Initializing net from parameters: 
name: "license_24cal_train"
state {
  phase: TRAIN
}
layer {
  name: "data"
  type: "Data"
  top: "data"
  top: "label"
  transform_param {
    mirror: false
    mean_file: "/home/work/qinhuan/mywork/license_plate/data/lmdb/license_train_12cal_imagenet_mean.binaryproto"
  }
  data_param {
    source: "/home/work/qinhuan/mywork/license_plate/data/lmdb/license_train_12cal_lmdb"
    batch_size: 128
    backend: LMDB
  }
}
layer {
  name: "conv1_1"
  type: "Convolution"
  bottom: "data"
  top: "conv1_1"
  param {
    lr_mult: 1
  }
  param {
    lr_mult: 2
  }
  convolution_param {
    num_output: 32
    pad: 2
    kernel_size: 5
    weight_filler {
      type: "gaussian"
      std: 0.0001
    }
    bias_filler {
      type: "constant"
    }
  }
}
layer {
  name: "relu1_1"
  type: "ReLU"
  bottom: "conv1_1"
  top: "conv1_1"
}
layer {
  name: "pool1"
  type: "Pooling"
  bottom: "conv1_1"
  top: "pool1"
  pooling_param {
    pool: MAX
    kernel_size: 3
    stride: 2
    pad: 1
  }
}
layer {
  name: "fc2"
  type: "InnerProduct"
  bottom: "pool1"
  top: "fc2"
  param {
    lr_mult: 1
    decay_mult: 1
  }
  param {
    lr_mult: 2
    decay_mult: 0
  }
  inner_product_param {
    num_output: 64
    weight_filler {
      type: "gaussian"
      std: 0.005
    }
    bias_filler {
      type: "constant"
    }
  }
}
layer {
  name: "relu2"
  type: "ReLU"
  bottom: "fc2"
  top: "fc2"
}
layer {
  name: "drop2"
  type: "Dropout"
  bottom: "fc2"
  top: "fc2"
  dropout_param {
    dropout_ratio: 0.5
  }
}
layer {
  name: "fc3"
  type: "InnerProduct"
  bottom: "fc2"
  top: "fc3"
  param {
    lr_mult: 1
    decay_mult: 100
  }
  param {
    lr_mult: 2
    decay_mult: 0
  }
  inner_product_param {
    num_output: 45
    weight_filler {
      type: "gaussian"
      std: 0.01
    }
    bias_filler {
      type: "constant"
      value: 0
    }
  }
}
layer {
  name: "loss"
  type: "SoftmaxWithLoss"
  bottom: "fc3"
  bottom: "label"
  top: "loss"
}
I0512 16:54:55.322966 15615 layer_factory.hpp:77] Creating layer data
I0512 16:54:55.323001 15615 db_lmdb.cpp:35] Opened lmdb /home/work/qinhuan/mywork/license_plate/data/lmdb/license_train_12cal_lmdb
I0512 16:54:55.323012 15615 net.cpp:84] Creating Layer data
I0512 16:54:55.323016 15615 net.cpp:380] data -> data
I0512 16:54:55.323024 15615 net.cpp:380] data -> label
I0512 16:54:55.323029 15615 data_transformer.cpp:25] Loading mean file from: /home/work/qinhuan/mywork/license_plate/data/lmdb/license_train_12cal_imagenet_mean.binaryproto
I0512 16:54:55.324651 15615 data_layer.cpp:45] output data size: 128,3,12,36
I0512 16:54:55.329129 15615 net.cpp:122] Setting up data
I0512 16:54:55.329144 15615 net.cpp:129] Top shape: 128 3 12 36 (165888)
I0512 16:54:55.329147 15615 net.cpp:129] Top shape: 128 (128)
I0512 16:54:55.329150 15615 net.cpp:137] Memory required for data: 664064
I0512 16:54:55.329154 15615 layer_factory.hpp:77] Creating layer conv1_1
I0512 16:54:55.329164 15615 net.cpp:84] Creating Layer conv1_1
I0512 16:54:55.329169 15615 net.cpp:406] conv1_1 <- data
I0512 16:54:55.329174 15615 net.cpp:380] conv1_1 -> conv1_1
I0512 16:54:55.496796 15615 net.cpp:122] Setting up conv1_1
I0512 16:54:55.496817 15615 net.cpp:129] Top shape: 128 32 12 36 (1769472)
I0512 16:54:55.496821 15615 net.cpp:137] Memory required for data: 7741952
I0512 16:54:55.496830 15615 layer_factory.hpp:77] Creating layer relu1_1
I0512 16:54:55.496839 15615 net.cpp:84] Creating Layer relu1_1
I0512 16:54:55.496842 15615 net.cpp:406] relu1_1 <- conv1_1
I0512 16:54:55.496846 15615 net.cpp:367] relu1_1 -> conv1_1 (in-place)
I0512 16:54:55.496954 15615 net.cpp:122] Setting up relu1_1
I0512 16:54:55.496960 15615 net.cpp:129] Top shape: 128 32 12 36 (1769472)
I0512 16:54:55.496963 15615 net.cpp:137] Memory required for data: 14819840
I0512 16:54:55.496965 15615 layer_factory.hpp:77] Creating layer pool1
I0512 16:54:55.496970 15615 net.cpp:84] Creating Layer pool1
I0512 16:54:55.496973 15615 net.cpp:406] pool1 <- conv1_1
I0512 16:54:55.496978 15615 net.cpp:380] pool1 -> pool1
I0512 16:54:55.497016 15615 net.cpp:122] Setting up pool1
I0512 16:54:55.497020 15615 net.cpp:129] Top shape: 128 32 7 19 (544768)
I0512 16:54:55.497023 15615 net.cpp:137] Memory required for data: 16998912
I0512 16:54:55.497025 15615 layer_factory.hpp:77] Creating layer fc2
I0512 16:54:55.497030 15615 net.cpp:84] Creating Layer fc2
I0512 16:54:55.497033 15615 net.cpp:406] fc2 <- pool1
I0512 16:54:55.497037 15615 net.cpp:380] fc2 -> fc2
I0512 16:54:55.501576 15615 net.cpp:122] Setting up fc2
I0512 16:54:55.501583 15615 net.cpp:129] Top shape: 128 64 (8192)
I0512 16:54:55.501586 15615 net.cpp:137] Memory required for data: 17031680
I0512 16:54:55.501591 15615 layer_factory.hpp:77] Creating layer relu2
I0512 16:54:55.501595 15615 net.cpp:84] Creating Layer relu2
I0512 16:54:55.501597 15615 net.cpp:406] relu2 <- fc2
I0512 16:54:55.501601 15615 net.cpp:367] relu2 -> fc2 (in-place)
I0512 16:54:55.502110 15615 net.cpp:122] Setting up relu2
I0512 16:54:55.502118 15615 net.cpp:129] Top shape: 128 64 (8192)
I0512 16:54:55.502121 15615 net.cpp:137] Memory required for data: 17064448
I0512 16:54:55.502125 15615 layer_factory.hpp:77] Creating layer drop2
I0512 16:54:55.502128 15615 net.cpp:84] Creating Layer drop2
I0512 16:54:55.502131 15615 net.cpp:406] drop2 <- fc2
I0512 16:54:55.502137 15615 net.cpp:367] drop2 -> fc2 (in-place)
I0512 16:54:55.502154 15615 net.cpp:122] Setting up drop2
I0512 16:54:55.502159 15615 net.cpp:129] Top shape: 128 64 (8192)
I0512 16:54:55.502161 15615 net.cpp:137] Memory required for data: 17097216
I0512 16:54:55.502163 15615 layer_factory.hpp:77] Creating layer fc3
I0512 16:54:55.502167 15615 net.cpp:84] Creating Layer fc3
I0512 16:54:55.502171 15615 net.cpp:406] fc3 <- fc2
I0512 16:54:55.502173 15615 net.cpp:380] fc3 -> fc3
I0512 16:54:55.502322 15615 net.cpp:122] Setting up fc3
I0512 16:54:55.502327 15615 net.cpp:129] Top shape: 128 45 (5760)
I0512 16:54:55.502331 15615 net.cpp:137] Memory required for data: 17120256
I0512 16:54:55.502336 15615 layer_factory.hpp:77] Creating layer loss
I0512 16:54:55.502339 15615 net.cpp:84] Creating Layer loss
I0512 16:54:55.502342 15615 net.cpp:406] loss <- fc3
I0512 16:54:55.502346 15615 net.cpp:406] loss <- label
I0512 16:54:55.502348 15615 net.cpp:380] loss -> loss
I0512 16:54:55.502354 15615 layer_factory.hpp:77] Creating layer loss
…
I0512 16:54:55.503463 15615 solver.cpp:172] Creating test net (#0) specified by test_net file: /home/work/qinhuan/mywork/license_plate/cascadeCNN_license_plate_detection/train_net/jobs/license_24cal/test.prototxt
I0512 16:54:55.503521 15615 net.cpp:51] Initializing net from parameters: 
name: "license_24cal_test"
state {
  phase: TEST
}
layer {
  name: "data"
  type: "Data"
  top: "data"
  top: "label"
  transform_param {
    mean_file: "/home/work/qinhuan/mywork/license_plate/data/lmdb/license_train_12cal_imagenet_mean.binaryproto"
  }
  data_param {
    source: "/home/work/qinhuan/mywork/license_plate/data/lmdb/license_val_12cal_lmdb"
    batch_size: 50
    backend: LMDB
  }
}
layer {
  name: "conv1_1"
  type: "Convolution"
  bottom: "data"
  top: "conv1_1"
  param {
    lr_mult: 1
  }
  param {
    lr_mult: 2
  }
  convolution_param {
    num_output: 32
    pad: 2
    kernel_size: 5
    weight_filler {
      type: "gaussian"
      std: 0.0001
    }
    bias_filler {
      type: "constant"
    }
  }
}
layer {
  name: "relu1_1"
  type: "ReLU"
  bottom: "conv1_1"
  top: "conv1_1"
}
layer {
  name: "pool1"
  type: "Pooling"
  bottom: "conv1_1"
  top: "pool1"
  pooling_param {
    pool: MAX
    kernel_size: 3
    stride: 2
    pad: 1
  }
}
layer {
  name: "fc2"
  type: "InnerProduct"
  bottom: "pool1"
  top: "fc2"
  param {
    lr_mult: 1
    decay_mult: 1
  }
  param {
    lr_mult: 2
    decay_mult: 0
  }
  inner_product_param {
    num_output: 64
    weight_filler {
      type: "gaussian"
      std: 0.005
    }
    bias_filler {
      type: "constant"
    }
  }
}
layer {
  name: "relu2"
  type: "ReLU"
  bottom: "fc2"
  top: "fc2"
}
layer {
  name: "drop2"
  type: "Dropout"
  bottom: "fc2"
  top: "fc2"
  dropout_param {
    dropout_ratio: 0.5
  }
}
layer {
  name: "fc3"
  type: "InnerProduct"
  bottom: "fc2"
  top: "fc3"
  param {
    lr_mult: 1
    decay_mult: 100
  }
  param {
    lr_mult: 2
    decay_mult: 0
  }
  inner_product_param {
    num_output: 45
    weight_filler {
      type: "gaussian"
      std: 0.01
    }
    bias_filler {
      type: "constant"
      value: 0
    }
  }
}
layer {
  name: "accuracy"
  type: "Accuracy"
  bottom: "fc3"
  bottom: "label"
  top: "accuracy"
}
I0512 16:54:55.503546 15615 layer_factory.hpp:77] Creating layer data
I0512 16:54:55.503579 15615 db_lmdb.cpp:35] Opened lmdb /home/work/qinhuan/mywork/license_plate/data/lmdb/license_val_12cal_lmdb
I0512 16:54:55.503589 15615 net.cpp:84] Creating Layer data
I0512 16:54:55.503593 15615 net.cpp:380] data -> data
I0512 16:54:55.503599 15615 net.cpp:380] data -> label
I0512 16:54:55.503603 15615 data_transformer.cpp:25] Loading mean file from: /home/work/qinhuan/mywork/license_plate/data/lmdb/license_train_12cal_imagenet_mean.binaryproto
I0512 16:54:55.503727 15615 data_layer.cpp:45] output data size: 50,3,12,36
I0512 16:54:55.505869 15615 net.cpp:122] Setting up data
I0512 16:54:55.505880 15615 net.cpp:129] Top shape: 50 3 12 36 (64800)
I0512 16:54:55.505884 15615 net.cpp:129] Top shape: 50 (50)
I0512 16:54:55.505887 15615 net.cpp:137] Memory required for data: 259400
I0512 16:54:55.505889 15615 layer_factory.hpp:77] Creating layer conv1_1
I0512 16:54:55.505898 15615 net.cpp:84] Creating Layer conv1_1
I0512 16:54:55.505901 15615 net.cpp:406] conv1_1 <- data
I0512 16:54:55.505906 15615 net.cpp:380] conv1_1 -> conv1_1
I0512 16:54:55.507212 15615 net.cpp:122] Setting up conv1_1
I0512 16:54:55.507223 15615 net.cpp:129] Top shape: 50 32 12 36 (691200)
I0512 16:54:55.507227 15615 net.cpp:137] Memory required for data: 3024200
I0512 16:54:55.507235 15615 layer_factory.hpp:77] Creating layer relu1_1
I0512 16:54:55.507239 15615 net.cpp:84] Creating Layer relu1_1
I0512 16:54:55.507242 15615 net.cpp:406] relu1_1 <- conv1_1
I0512 16:54:55.507247 15615 net.cpp:367] relu1_1 -> conv1_1 (in-place)
I0512 16:54:55.507367 15615 net.cpp:122] Setting up relu1_1
I0512 16:54:55.507376 15615 net.cpp:129] Top shape: 50 32 12 36 (691200)
I0512 16:54:55.507380 15615 net.cpp:137] Memory required for data: 5789000
I0512 16:54:55.507382 15615 layer_factory.hpp:77] Creating layer pool1
I0512 16:54:55.507386 15615 net.cpp:84] Creating Layer pool1
I0512 16:54:55.507388 15615 net.cpp:406] pool1 <- conv1_1
I0512 16:54:55.507393 15615 net.cpp:380] pool1 -> pool1
I0512 16:54:55.507431 15615 net.cpp:122] Setting up pool1
I0512 16:54:55.507434 15615 net.cpp:129] Top shape: 50 32 7 19 (212800)
I0512 16:54:55.507437 15615 net.cpp:137] Memory required for data: 6640200
I0512 16:54:55.507439 15615 layer_factory.hpp:77] Creating layer fc2
I0512 16:54:55.507444 15615 net.cpp:84] Creating Layer fc2
I0512 16:54:55.507447 15615 net.cpp:406] fc2 <- pool1
I0512 16:54:55.507452 15615 net.cpp:380] fc2 -> fc2
I0512 16:54:55.512737 15615 net.cpp:122] Setting up fc2
I0512 16:54:55.512748 15615 net.cpp:129] Top shape: 50 64 (3200)
I0512 16:54:55.512751 15615 net.cpp:137] Memory required for data: 6653000
I0512 16:54:55.512758 15615 layer_factory.hpp:77] Creating layer relu2
I0512 16:54:55.512763 15615 net.cpp:84] Creating Layer relu2
I0512 16:54:55.512765 15615 net.cpp:406] relu2 <- fc2
I0512 16:54:55.512769 15615 net.cpp:367] relu2 -> fc2 (in-place)
I0512 16:54:55.512884 15615 net.cpp:122] Setting up relu2
I0512 16:54:55.512890 15615 net.cpp:129] Top shape: 50 64 (3200)
I0512 16:54:55.512892 15615 net.cpp:137] Memory required for data: 6665800
I0512 16:54:55.512895 15615 layer_factory.hpp:77] Creating layer drop2
I0512 16:54:55.512899 15615 net.cpp:84] Creating Layer drop2
I0512 16:54:55.512902 15615 net.cpp:406] drop2 <- fc2
I0512 16:54:55.512905 15615 net.cpp:367] drop2 -> fc2 (in-place)
I0512 16:54:55.512928 15615 net.cpp:122] Setting up drop2
I0512 16:54:55.512931 15615 net.cpp:129] Top shape: 50 64 (3200)
I0512 16:54:55.512934 15615 net.cpp:137] Memory required for data: 6678600
I0512 16:54:55.512936 15615 layer_factory.hpp:77] Creating layer fc3
I0512 16:54:55.512941 15615 net.cpp:84] Creating Layer fc3
I0512 16:54:55.512944 15615 net.cpp:406] fc3 <- fc2
I0512 16:54:55.512948 15615 net.cpp:380] fc3 -> fc3
I0512 16:54:55.513104 15615 net.cpp:122] Setting up fc3
I0512 16:54:55.513109 15615 net.cpp:129] Top shape: 50 45 (2250)
I0512 16:54:55.513111 15615 net.cpp:137] Memory required for data: 6687600
I0512 16:54:55.513118 15615 layer_factory.hpp:77] Creating layer accuracy
I0512 16:54:55.513123 15615 net.cpp:84] Creating Layer accuracy
I0512 16:54:55.513124 15615 net.cpp:406] accuracy <- fc3
I0512 16:54:55.513128 15615 net.cpp:406] accuracy <- label
I0512 16:54:55.513131 15615 net.cpp:380] accuracy -> accuracy
…
