…
I0515 23:42:22.874563 31817 solver.cpp:77] Creating training net from train_net file: /home/work/qinhuan/mywork/license_plate/cascadeCNN_license_plate_detection/train_net/jobs/license_48c_stepsize2000/train.prototxt
I0515 23:42:22.874867 31817 net.cpp:51] Initializing net from parameters: 
name: "license_48c_stepsize2000_train"
state {
  phase: TRAIN
}
layer {
  name: "data"
  type: "Input"
  top: "data"
  input_param {
    shape {
      dim: 128
      dim: 3
      dim: 24
      dim: 72
    }
  }
}
layer {
  name: "label"
  type: "Input"
  top: "label"
  input_param {
    shape {
      dim: 128
    }
  }
}
layer {
  name: "conv1_1"
  type: "Convolution"
  bottom: "data"
  top: "conv1_1"
  param {
    lr_mult: 1
    decay_mult: 1
  }
  param {
    lr_mult: 2
    decay_mult: 0
  }
  convolution_param {
    num_output: 64
    pad: 1
    kernel_size: 3
    weight_filler {
      type: "xavier"
    }
    bias_filler {
      type: "constant"
    }
  }
}
layer {
  name: "relu1_1"
  type: "ReLU"
  bottom: "conv1_1"
  top: "conv1_1"
}
layer {
  name: "conv1_2"
  type: "Convolution"
  bottom: "conv1_1"
  top: "conv1_2"
  param {
    lr_mult: 1
    decay_mult: 1
  }
  param {
    lr_mult: 2
    decay_mult: 0
  }
  convolution_param {
    num_output: 64
    pad: 1
    kernel_size: 3
    weight_filler {
      type: "xavier"
    }
    bias_filler {
      type: "constant"
    }
  }
}
layer {
  name: "relu1_2"
  type: "ReLU"
  bottom: "conv1_2"
  top: "conv1_2"
}
layer {
  name: "pool1"
  type: "Pooling"
  bottom: "conv1_2"
  top: "pool1"
  pooling_param {
    pool: MAX
    kernel_size: 3
    stride: 2
    pad: 1
  }
}
layer {
  name: "norm1"
  type: "LRN"
  bottom: "pool1"
  top: "norm1"
  lrn_param {
    local_size: 5
    alpha: 0.0001
    beta: 0.75
  }
}
layer {
  name: "conv2_1"
  type: "Convolution"
  bottom: "norm1"
  top: "conv2_1"
  param {
    lr_mult: 1
    decay_mult: 1
  }
  param {
    lr_mult: 2
    decay_mult: 0
  }
  convolution_param {
    num_output: 64
    pad: 1
    kernel_size: 3
    weight_filler {
      type: "xavier"
    }
    bias_filler {
      type: "constant"
    }
  }
}
layer {
  name: "relu2_1"
  type: "ReLU"
  bottom: "conv2_1"
  top: "conv2_1"
}
layer {
  name: "conv2_2"
  type: "Convolution"
  bottom: "conv2_1"
  top: "conv2_2"
  param {
    lr_mult: 1
    decay_mult: 1
  }
  param {
    lr_mult: 2
    decay_mult: 0
  }
  convolution_param {
    num_output: 64
    pad: 1
    kernel_size: 3
    weight_filler {
      type: "xavier"
    }
    bias_filler {
      type: "constant"
    }
  }
}
layer {
  name: "relu2_2"
  type: "ReLU"
  bottom: "conv2_2"
  top: "conv2_2"
}
layer {
  name: "pool2"
  type: "Pooling"
  bottom: "conv2_2"
  top: "pool2"
  pooling_param {
    pool: MAX
    kernel_size: 3
    stride: 2
    pad: 1
  }
}
layer {
  name: "norm2"
  type: "LRN"
  bottom: "pool2"
  top: "norm2"
  lrn_param {
    local_size: 5
    alpha: 0.0001
    beta: 0.75
  }
}
layer {
  name: "fc3"
  type: "InnerProduct"
  bottom: "norm2"
  top: "fc3"
  param {
    lr_mult: 1
    decay_mult: 1
  }
  param {
    lr_mult: 2
    decay_mult: 0
  }
  inner_product_param {
    num_output: 256
    weight_filler {
      type: "xavier"
    }
    bias_filler {
      type: "constant"
    }
  }
}
layer {
  name: "relu3"
  type: "ReLU"
  bottom: "fc3"
  top: "fc3"
}
layer {
  name: "drop3"
  type: "Dropout"
  bottom: "fc3"
  top: "fc3"
  dropout_param {
    dropout_ratio: 0.5
  }
}
layer {
  name: "fc4"
  type: "InnerProduct"
  bottom: "fc3"
  top: "fc4"
  param {
    lr_mult: 1
    decay_mult: 250
  }
  param {
    lr_mult: 2
    decay_mult: 0
  }
  inner_product_param {
    num_output: 2
    weight_filler {
      type: "xavier"
    }
    bias_filler {
      type: "constant"
      value: 0
    }
  }
}
layer {
  name: "loss"
  type: "SoftmaxWithLoss"
  bottom: "fc4"
  bottom: "label"
  top: "loss"
}
I0515 23:42:22.874914 31817 layer_factory.hpp:77] Creating layer data
I0515 23:42:22.874922 31817 net.cpp:84] Creating Layer data
I0515 23:42:22.874925 31817 net.cpp:380] data -> data
I0515 23:42:22.875707 31817 net.cpp:122] Setting up data
I0515 23:42:22.875716 31817 net.cpp:129] Top shape: 128 3 24 72 (663552)
I0515 23:42:22.875720 31817 net.cpp:137] Memory required for data: 2654208
I0515 23:42:22.875722 31817 layer_factory.hpp:77] Creating layer label
I0515 23:42:22.875727 31817 net.cpp:84] Creating Layer label
I0515 23:42:22.875731 31817 net.cpp:380] label -> label
I0515 23:42:22.875756 31817 net.cpp:122] Setting up label
I0515 23:42:22.875761 31817 net.cpp:129] Top shape: 128 (128)
I0515 23:42:22.875762 31817 net.cpp:137] Memory required for data: 2654720
I0515 23:42:22.875764 31817 layer_factory.hpp:77] Creating layer conv1_1
I0515 23:42:22.875771 31817 net.cpp:84] Creating Layer conv1_1
I0515 23:42:22.875773 31817 net.cpp:406] conv1_1 <- data
I0515 23:42:22.875778 31817 net.cpp:380] conv1_1 -> conv1_1
I0515 23:42:23.093377 31817 net.cpp:122] Setting up conv1_1
I0515 23:42:23.093400 31817 net.cpp:129] Top shape: 128 64 24 72 (14155776)
I0515 23:42:23.093402 31817 net.cpp:137] Memory required for data: 59277824
I0515 23:42:23.093412 31817 layer_factory.hpp:77] Creating layer relu1_1
I0515 23:42:23.093420 31817 net.cpp:84] Creating Layer relu1_1
I0515 23:42:23.093425 31817 net.cpp:406] relu1_1 <- conv1_1
I0515 23:42:23.093428 31817 net.cpp:367] relu1_1 -> conv1_1 (in-place)
I0515 23:42:23.093533 31817 net.cpp:122] Setting up relu1_1
I0515 23:42:23.093538 31817 net.cpp:129] Top shape: 128 64 24 72 (14155776)
I0515 23:42:23.093540 31817 net.cpp:137] Memory required for data: 115900928
I0515 23:42:23.093542 31817 layer_factory.hpp:77] Creating layer conv1_2
I0515 23:42:23.093552 31817 net.cpp:84] Creating Layer conv1_2
I0515 23:42:23.093555 31817 net.cpp:406] conv1_2 <- conv1_1
I0515 23:42:23.093560 31817 net.cpp:380] conv1_2 -> conv1_2
I0515 23:42:23.095343 31817 net.cpp:122] Setting up conv1_2
I0515 23:42:23.095355 31817 net.cpp:129] Top shape: 128 64 24 72 (14155776)
I0515 23:42:23.095357 31817 net.cpp:137] Memory required for data: 172524032
I0515 23:42:23.095363 31817 layer_factory.hpp:77] Creating layer relu1_2
I0515 23:42:23.095367 31817 net.cpp:84] Creating Layer relu1_2
I0515 23:42:23.095371 31817 net.cpp:406] relu1_2 <- conv1_2
I0515 23:42:23.095373 31817 net.cpp:367] relu1_2 -> conv1_2 (in-place)
I0515 23:42:23.095474 31817 net.cpp:122] Setting up relu1_2
I0515 23:42:23.095479 31817 net.cpp:129] Top shape: 128 64 24 72 (14155776)
I0515 23:42:23.095482 31817 net.cpp:137] Memory required for data: 229147136
I0515 23:42:23.095484 31817 layer_factory.hpp:77] Creating layer pool1
I0515 23:42:23.095489 31817 net.cpp:84] Creating Layer pool1
I0515 23:42:23.095491 31817 net.cpp:406] pool1 <- conv1_2
I0515 23:42:23.095495 31817 net.cpp:380] pool1 -> pool1
I0515 23:42:23.095532 31817 net.cpp:122] Setting up pool1
I0515 23:42:23.095537 31817 net.cpp:129] Top shape: 128 64 13 37 (3940352)
I0515 23:42:23.095541 31817 net.cpp:137] Memory required for data: 244908544
I0515 23:42:23.095542 31817 layer_factory.hpp:77] Creating layer norm1
I0515 23:42:23.095546 31817 net.cpp:84] Creating Layer norm1
I0515 23:42:23.095549 31817 net.cpp:406] norm1 <- pool1
I0515 23:42:23.095553 31817 net.cpp:380] norm1 -> norm1
I0515 23:42:23.096077 31817 net.cpp:122] Setting up norm1
I0515 23:42:23.096086 31817 net.cpp:129] Top shape: 128 64 13 37 (3940352)
I0515 23:42:23.096088 31817 net.cpp:137] Memory required for data: 260669952
I0515 23:42:23.096094 31817 layer_factory.hpp:77] Creating layer conv2_1
I0515 23:42:23.096103 31817 net.cpp:84] Creating Layer conv2_1
I0515 23:42:23.096107 31817 net.cpp:406] conv2_1 <- norm1
I0515 23:42:23.096110 31817 net.cpp:380] conv2_1 -> conv2_1
I0515 23:42:23.097822 31817 net.cpp:122] Setting up conv2_1
I0515 23:42:23.097832 31817 net.cpp:129] Top shape: 128 64 13 37 (3940352)
I0515 23:42:23.097836 31817 net.cpp:137] Memory required for data: 276431360
I0515 23:42:23.097841 31817 layer_factory.hpp:77] Creating layer relu2_1
I0515 23:42:23.097846 31817 net.cpp:84] Creating Layer relu2_1
I0515 23:42:23.097848 31817 net.cpp:406] relu2_1 <- conv2_1
I0515 23:42:23.097852 31817 net.cpp:367] relu2_1 -> conv2_1 (in-place)
I0515 23:42:23.097959 31817 net.cpp:122] Setting up relu2_1
I0515 23:42:23.097964 31817 net.cpp:129] Top shape: 128 64 13 37 (3940352)
I0515 23:42:23.097966 31817 net.cpp:137] Memory required for data: 292192768
I0515 23:42:23.097968 31817 layer_factory.hpp:77] Creating layer conv2_2
I0515 23:42:23.097975 31817 net.cpp:84] Creating Layer conv2_2
I0515 23:42:23.097978 31817 net.cpp:406] conv2_2 <- conv2_1
I0515 23:42:23.097983 31817 net.cpp:380] conv2_2 -> conv2_2
I0515 23:42:23.099433 31817 net.cpp:122] Setting up conv2_2
I0515 23:42:23.099442 31817 net.cpp:129] Top shape: 128 64 13 37 (3940352)
I0515 23:42:23.099445 31817 net.cpp:137] Memory required for data: 307954176
I0515 23:42:23.099449 31817 layer_factory.hpp:77] Creating layer relu2_2
I0515 23:42:23.099454 31817 net.cpp:84] Creating Layer relu2_2
I0515 23:42:23.099457 31817 net.cpp:406] relu2_2 <- conv2_2
I0515 23:42:23.099462 31817 net.cpp:367] relu2_2 -> conv2_2 (in-place)
I0515 23:42:23.099565 31817 net.cpp:122] Setting up relu2_2
I0515 23:42:23.099570 31817 net.cpp:129] Top shape: 128 64 13 37 (3940352)
I0515 23:42:23.099573 31817 net.cpp:137] Memory required for data: 323715584
I0515 23:42:23.099575 31817 layer_factory.hpp:77] Creating layer pool2
I0515 23:42:23.099580 31817 net.cpp:84] Creating Layer pool2
I0515 23:42:23.099581 31817 net.cpp:406] pool2 <- conv2_2
I0515 23:42:23.099586 31817 net.cpp:380] pool2 -> pool2
I0515 23:42:23.099623 31817 net.cpp:122] Setting up pool2
I0515 23:42:23.099628 31817 net.cpp:129] Top shape: 128 64 7 19 (1089536)
I0515 23:42:23.099632 31817 net.cpp:137] Memory required for data: 328073728
I0515 23:42:23.099633 31817 layer_factory.hpp:77] Creating layer norm2
I0515 23:42:23.099639 31817 net.cpp:84] Creating Layer norm2
I0515 23:42:23.099642 31817 net.cpp:406] norm2 <- pool2
I0515 23:42:23.099645 31817 net.cpp:380] norm2 -> norm2
I0515 23:42:23.099768 31817 net.cpp:122] Setting up norm2
I0515 23:42:23.099774 31817 net.cpp:129] Top shape: 128 64 7 19 (1089536)
I0515 23:42:23.099776 31817 net.cpp:137] Memory required for data: 332431872
I0515 23:42:23.099779 31817 layer_factory.hpp:77] Creating layer fc3
I0515 23:42:23.099783 31817 net.cpp:84] Creating Layer fc3
I0515 23:42:23.099786 31817 net.cpp:406] fc3 <- norm2
I0515 23:42:23.099791 31817 net.cpp:380] fc3 -> fc3
I0515 23:42:23.111131 31817 net.cpp:122] Setting up fc3
I0515 23:42:23.111155 31817 net.cpp:129] Top shape: 128 256 (32768)
I0515 23:42:23.111158 31817 net.cpp:137] Memory required for data: 332562944
I0515 23:42:23.111167 31817 layer_factory.hpp:77] Creating layer relu3
I0515 23:42:23.111176 31817 net.cpp:84] Creating Layer relu3
I0515 23:42:23.111179 31817 net.cpp:406] relu3 <- fc3
I0515 23:42:23.111183 31817 net.cpp:367] relu3 -> fc3 (in-place)
I0515 23:42:23.111778 31817 net.cpp:122] Setting up relu3
I0515 23:42:23.111788 31817 net.cpp:129] Top shape: 128 256 (32768)
I0515 23:42:23.111790 31817 net.cpp:137] Memory required for data: 332694016
I0515 23:42:23.111793 31817 layer_factory.hpp:77] Creating layer drop3
I0515 23:42:23.111800 31817 net.cpp:84] Creating Layer drop3
I0515 23:42:23.111802 31817 net.cpp:406] drop3 <- fc3
I0515 23:42:23.111806 31817 net.cpp:367] drop3 -> fc3 (in-place)
I0515 23:42:23.111825 31817 net.cpp:122] Setting up drop3
I0515 23:42:23.111829 31817 net.cpp:129] Top shape: 128 256 (32768)
I0515 23:42:23.111832 31817 net.cpp:137] Memory required for data: 332825088
I0515 23:42:23.111838 31817 layer_factory.hpp:77] Creating layer fc4
I0515 23:42:23.111845 31817 net.cpp:84] Creating Layer fc4
I0515 23:42:23.111846 31817 net.cpp:406] fc4 <- fc3
I0515 23:42:23.111851 31817 net.cpp:380] fc4 -> fc4
I0515 23:42:23.111961 31817 net.cpp:122] Setting up fc4
I0515 23:42:23.111966 31817 net.cpp:129] Top shape: 128 2 (256)
I0515 23:42:23.111968 31817 net.cpp:137] Memory required for data: 332826112
I0515 23:42:23.111973 31817 layer_factory.hpp:77] Creating layer loss
I0515 23:42:23.111976 31817 net.cpp:84] Creating Layer loss
I0515 23:42:23.111979 31817 net.cpp:406] loss <- fc4
I0515 23:42:23.111982 31817 net.cpp:406] loss <- label
I0515 23:42:23.111985 31817 net.cpp:380] loss -> loss
I0515 23:42:23.111990 31817 layer_factory.hpp:77] Creating layer loss
…
I0515 23:42:23.112479 31817 solver.cpp:172] Creating test net (#0) specified by test_net file: /home/work/qinhuan/mywork/license_plate/cascadeCNN_license_plate_detection/train_net/jobs/license_48c_stepsize2000/test.prototxt
I0515 23:42:23.112567 31817 net.cpp:51] Initializing net from parameters: 
name: "license_48c_stepsize2000_test"
state {
  phase: TEST
}
layer {
  name: "data"
  type: "Data"
  top: "data"
  top: "label"
  transform_param {
    mean_file: "/home/work/qinhuan/mywork/license_plate/data/lmdb/license_train_48c_imagenet_mean.binaryproto"
  }
  data_param {
    source: "/home/work/qinhuan/mywork/license_plate/data/lmdb/license_val_48c_lmdb"
    batch_size: 50
    backend: LMDB
  }
}
layer {
  name: "conv1_1"
  type: "Convolution"
  bottom: "data"
  top: "conv1_1"
  param {
    lr_mult: 1
    decay_mult: 1
  }
  param {
    lr_mult: 2
    decay_mult: 0
  }
  convolution_param {
    num_output: 64
    pad: 1
    kernel_size: 3
    weight_filler {
      type: "xavier"
    }
    bias_filler {
      type: "constant"
    }
  }
}
layer {
  name: "relu1_1"
  type: "ReLU"
  bottom: "conv1_1"
  top: "conv1_1"
}
layer {
  name: "conv1_2"
  type: "Convolution"
  bottom: "conv1_1"
  top: "conv1_2"
  param {
    lr_mult: 1
    decay_mult: 1
  }
  param {
    lr_mult: 2
    decay_mult: 0
  }
  convolution_param {
    num_output: 64
    pad: 1
    kernel_size: 3
    weight_filler {
      type: "xavier"
    }
    bias_filler {
      type: "constant"
    }
  }
}
layer {
  name: "relu1_2"
  type: "ReLU"
  bottom: "conv1_2"
  top: "conv1_2"
}
layer {
  name: "pool1"
  type: "Pooling"
  bottom: "conv1_2"
  top: "pool1"
  pooling_param {
    pool: MAX
    kernel_size: 3
    stride: 2
    pad: 1
  }
}
layer {
  name: "norm1"
  type: "LRN"
  bottom: "pool1"
  top: "norm1"
  lrn_param {
    local_size: 5
    alpha: 0.0001
    beta: 0.75
  }
}
layer {
  name: "conv2_1"
  type: "Convolution"
  bottom: "norm1"
  top: "conv2_1"
  param {
    lr_mult: 1
    decay_mult: 1
  }
  param {
    lr_mult: 2
    decay_mult: 0
  }
  convolution_param {
    num_output: 64
    pad: 1
    kernel_size: 3
    weight_filler {
      type: "xavier"
    }
    bias_filler {
      type: "constant"
    }
  }
}
layer {
  name: "relu2_1"
  type: "ReLU"
  bottom: "conv2_1"
  top: "conv2_1"
}
layer {
  name: "conv2_2"
  type: "Convolution"
  bottom: "conv2_1"
  top: "conv2_2"
  param {
    lr_mult: 1
    decay_mult: 1
  }
  param {
    lr_mult: 2
    decay_mult: 0
  }
  convolution_param {
    num_output: 64
    pad: 1
    kernel_size: 3
    weight_filler {
      type: "xavier"
    }
    bias_filler {
      type: "constant"
    }
  }
}
layer {
  name: "relu2_2"
  type: "ReLU"
  bottom: "conv2_2"
  top: "conv2_2"
}
layer {
  name: "pool2"
  type: "Pooling"
  bottom: "conv2_2"
  top: "pool2"
  pooling_param {
    pool: MAX
    kernel_size: 3
    stride: 2
    pad: 1
  }
}
layer {
  name: "norm2"
  type: "LRN"
  bottom: "pool2"
  top: "norm2"
  lrn_param {
    local_size: 5
    alpha: 0.0001
    beta: 0.75
  }
}
layer {
  name: "fc3"
  type: "InnerProduct"
  bottom: "norm2"
  top: "fc3"
  param {
    lr_mult: 1
    decay_mult: 1
  }
  param {
    lr_mult: 2
    decay_mult: 0
  }
  inner_product_param {
    num_output: 256
    weight_filler {
      type: "xavier"
    }
    bias_filler {
      type: "constant"
    }
  }
}
layer {
  name: "relu3"
  type: "ReLU"
  bottom: "fc3"
  top: "fc3"
}
layer {
  name: "drop3"
  type: "Dropout"
  bottom: "fc3"
  top: "fc3"
  dropout_param {
    dropout_ratio: 0.5
  }
}
layer {
  name: "fc4"
  type: "InnerProduct"
  bottom: "fc3"
  top: "fc4"
  param {
    lr_mult: 1
    decay_mult: 250
  }
  param {
    lr_mult: 2
    decay_mult: 0
  }
  inner_product_param {
    num_output: 2
    weight_filler {
      type: "xavier"
    }
    bias_filler {
      type: "constant"
      value: 0
    }
  }
}
layer {
  name: "accuracy"
  type: "Accuracy"
  bottom: "fc4"
  bottom: "label"
  top: "accuracy"
}
I0515 23:42:23.112609 31817 layer_factory.hpp:77] Creating layer data
I0515 23:42:23.112643 31817 db_lmdb.cpp:35] Opened lmdb /home/work/qinhuan/mywork/license_plate/data/lmdb/license_val_48c_lmdb
I0515 23:42:23.112653 31817 net.cpp:84] Creating Layer data
I0515 23:42:23.112655 31817 net.cpp:380] data -> data
I0515 23:42:23.112661 31817 net.cpp:380] data -> label
I0515 23:42:23.112666 31817 data_transformer.cpp:25] Loading mean file from: /home/work/qinhuan/mywork/license_plate/data/lmdb/license_train_48c_imagenet_mean.binaryproto
I0515 23:42:23.113565 31817 data_layer.cpp:45] output data size: 50,3,24,72
I0515 23:42:23.118840 31817 net.cpp:122] Setting up data
I0515 23:42:23.118854 31817 net.cpp:129] Top shape: 50 3 24 72 (259200)
I0515 23:42:23.118858 31817 net.cpp:129] Top shape: 50 (50)
I0515 23:42:23.118860 31817 net.cpp:137] Memory required for data: 1037000
I0515 23:42:23.118865 31817 layer_factory.hpp:77] Creating layer conv1_1
I0515 23:42:23.118881 31817 net.cpp:84] Creating Layer conv1_1
I0515 23:42:23.118885 31817 net.cpp:406] conv1_1 <- data
I0515 23:42:23.118891 31817 net.cpp:380] conv1_1 -> conv1_1
I0515 23:42:23.120136 31817 net.cpp:122] Setting up conv1_1
I0515 23:42:23.120146 31817 net.cpp:129] Top shape: 50 64 24 72 (5529600)
I0515 23:42:23.120149 31817 net.cpp:137] Memory required for data: 23155400
I0515 23:42:23.120156 31817 layer_factory.hpp:77] Creating layer relu1_1
I0515 23:42:23.120162 31817 net.cpp:84] Creating Layer relu1_1
I0515 23:42:23.120164 31817 net.cpp:406] relu1_1 <- conv1_1
I0515 23:42:23.120167 31817 net.cpp:367] relu1_1 -> conv1_1 (in-place)
I0515 23:42:23.120961 31817 net.cpp:122] Setting up relu1_1
I0515 23:42:23.120968 31817 net.cpp:129] Top shape: 50 64 24 72 (5529600)
I0515 23:42:23.120972 31817 net.cpp:137] Memory required for data: 45273800
I0515 23:42:23.120975 31817 layer_factory.hpp:77] Creating layer conv1_2
I0515 23:42:23.120981 31817 net.cpp:84] Creating Layer conv1_2
I0515 23:42:23.120985 31817 net.cpp:406] conv1_2 <- conv1_1
I0515 23:42:23.120988 31817 net.cpp:380] conv1_2 -> conv1_2
I0515 23:42:23.122601 31817 net.cpp:122] Setting up conv1_2
I0515 23:42:23.122611 31817 net.cpp:129] Top shape: 50 64 24 72 (5529600)
I0515 23:42:23.122614 31817 net.cpp:137] Memory required for data: 67392200
I0515 23:42:23.122620 31817 layer_factory.hpp:77] Creating layer relu1_2
I0515 23:42:23.122625 31817 net.cpp:84] Creating Layer relu1_2
I0515 23:42:23.122628 31817 net.cpp:406] relu1_2 <- conv1_2
I0515 23:42:23.122632 31817 net.cpp:367] relu1_2 -> conv1_2 (in-place)
I0515 23:42:23.123363 31817 net.cpp:122] Setting up relu1_2
I0515 23:42:23.123370 31817 net.cpp:129] Top shape: 50 64 24 72 (5529600)
I0515 23:42:23.123373 31817 net.cpp:137] Memory required for data: 89510600
I0515 23:42:23.123375 31817 layer_factory.hpp:77] Creating layer pool1
I0515 23:42:23.123381 31817 net.cpp:84] Creating Layer pool1
I0515 23:42:23.123389 31817 net.cpp:406] pool1 <- conv1_2
I0515 23:42:23.123392 31817 net.cpp:380] pool1 -> pool1
I0515 23:42:23.123435 31817 net.cpp:122] Setting up pool1
I0515 23:42:23.123440 31817 net.cpp:129] Top shape: 50 64 13 37 (1539200)
I0515 23:42:23.123442 31817 net.cpp:137] Memory required for data: 95667400
I0515 23:42:23.123445 31817 layer_factory.hpp:77] Creating layer norm1
I0515 23:42:23.123450 31817 net.cpp:84] Creating Layer norm1
I0515 23:42:23.123452 31817 net.cpp:406] norm1 <- pool1
I0515 23:42:23.123456 31817 net.cpp:380] norm1 -> norm1
I0515 23:42:23.124023 31817 net.cpp:122] Setting up norm1
I0515 23:42:23.124032 31817 net.cpp:129] Top shape: 50 64 13 37 (1539200)
I0515 23:42:23.124035 31817 net.cpp:137] Memory required for data: 101824200
I0515 23:42:23.124038 31817 layer_factory.hpp:77] Creating layer conv2_1
I0515 23:42:23.124044 31817 net.cpp:84] Creating Layer conv2_1
I0515 23:42:23.124047 31817 net.cpp:406] conv2_1 <- norm1
I0515 23:42:23.124053 31817 net.cpp:380] conv2_1 -> conv2_1
I0515 23:42:23.125381 31817 net.cpp:122] Setting up conv2_1
I0515 23:42:23.125391 31817 net.cpp:129] Top shape: 50 64 13 37 (1539200)
I0515 23:42:23.125393 31817 net.cpp:137] Memory required for data: 107981000
I0515 23:42:23.125401 31817 layer_factory.hpp:77] Creating layer relu2_1
I0515 23:42:23.125406 31817 net.cpp:84] Creating Layer relu2_1
I0515 23:42:23.125408 31817 net.cpp:406] relu2_1 <- conv2_1
I0515 23:42:23.125411 31817 net.cpp:367] relu2_1 -> conv2_1 (in-place)
I0515 23:42:23.125952 31817 net.cpp:122] Setting up relu2_1
I0515 23:42:23.125960 31817 net.cpp:129] Top shape: 50 64 13 37 (1539200)
I0515 23:42:23.125963 31817 net.cpp:137] Memory required for data: 114137800
I0515 23:42:23.125965 31817 layer_factory.hpp:77] Creating layer conv2_2
I0515 23:42:23.125972 31817 net.cpp:84] Creating Layer conv2_2
I0515 23:42:23.125975 31817 net.cpp:406] conv2_2 <- conv2_1
I0515 23:42:23.125980 31817 net.cpp:380] conv2_2 -> conv2_2
I0515 23:42:23.128204 31817 net.cpp:122] Setting up conv2_2
I0515 23:42:23.128214 31817 net.cpp:129] Top shape: 50 64 13 37 (1539200)
I0515 23:42:23.128217 31817 net.cpp:137] Memory required for data: 120294600
I0515 23:42:23.128222 31817 layer_factory.hpp:77] Creating layer relu2_2
I0515 23:42:23.128226 31817 net.cpp:84] Creating Layer relu2_2
I0515 23:42:23.128229 31817 net.cpp:406] relu2_2 <- conv2_2
I0515 23:42:23.128234 31817 net.cpp:367] relu2_2 -> conv2_2 (in-place)
I0515 23:42:23.128351 31817 net.cpp:122] Setting up relu2_2
I0515 23:42:23.128358 31817 net.cpp:129] Top shape: 50 64 13 37 (1539200)
I0515 23:42:23.128361 31817 net.cpp:137] Memory required for data: 126451400
I0515 23:42:23.128363 31817 layer_factory.hpp:77] Creating layer pool2
I0515 23:42:23.128368 31817 net.cpp:84] Creating Layer pool2
I0515 23:42:23.128373 31817 net.cpp:406] pool2 <- conv2_2
I0515 23:42:23.128377 31817 net.cpp:380] pool2 -> pool2
I0515 23:42:23.128417 31817 net.cpp:122] Setting up pool2
I0515 23:42:23.128422 31817 net.cpp:129] Top shape: 50 64 7 19 (425600)
I0515 23:42:23.128425 31817 net.cpp:137] Memory required for data: 128153800
I0515 23:42:23.128427 31817 layer_factory.hpp:77] Creating layer norm2
I0515 23:42:23.128432 31817 net.cpp:84] Creating Layer norm2
I0515 23:42:23.128435 31817 net.cpp:406] norm2 <- pool2
I0515 23:42:23.128438 31817 net.cpp:380] norm2 -> norm2
I0515 23:42:23.128573 31817 net.cpp:122] Setting up norm2
I0515 23:42:23.128579 31817 net.cpp:129] Top shape: 50 64 7 19 (425600)
I0515 23:42:23.128582 31817 net.cpp:137] Memory required for data: 129856200
I0515 23:42:23.128584 31817 layer_factory.hpp:77] Creating layer fc3
I0515 23:42:23.128590 31817 net.cpp:84] Creating Layer fc3
I0515 23:42:23.128593 31817 net.cpp:406] fc3 <- norm2
I0515 23:42:23.128598 31817 net.cpp:380] fc3 -> fc3
I0515 23:42:23.138495 31817 net.cpp:122] Setting up fc3
I0515 23:42:23.138520 31817 net.cpp:129] Top shape: 50 256 (12800)
I0515 23:42:23.138522 31817 net.cpp:137] Memory required for data: 129907400
I0515 23:42:23.138531 31817 layer_factory.hpp:77] Creating layer relu3
I0515 23:42:23.138538 31817 net.cpp:84] Creating Layer relu3
I0515 23:42:23.138541 31817 net.cpp:406] relu3 <- fc3
I0515 23:42:23.138546 31817 net.cpp:367] relu3 -> fc3 (in-place)
I0515 23:42:23.138694 31817 net.cpp:122] Setting up relu3
I0515 23:42:23.138700 31817 net.cpp:129] Top shape: 50 256 (12800)
I0515 23:42:23.138702 31817 net.cpp:137] Memory required for data: 129958600
I0515 23:42:23.138705 31817 layer_factory.hpp:77] Creating layer drop3
I0515 23:42:23.138710 31817 net.cpp:84] Creating Layer drop3
I0515 23:42:23.138712 31817 net.cpp:406] drop3 <- fc3
I0515 23:42:23.138715 31817 net.cpp:367] drop3 -> fc3 (in-place)
I0515 23:42:23.138743 31817 net.cpp:122] Setting up drop3
I0515 23:42:23.138747 31817 net.cpp:129] Top shape: 50 256 (12800)
I0515 23:42:23.138749 31817 net.cpp:137] Memory required for data: 130009800
I0515 23:42:23.138752 31817 layer_factory.hpp:77] Creating layer fc4
I0515 23:42:23.138759 31817 net.cpp:84] Creating Layer fc4
I0515 23:42:23.138761 31817 net.cpp:406] fc4 <- fc3
I0515 23:42:23.138766 31817 net.cpp:380] fc4 -> fc4
I0515 23:42:23.138878 31817 net.cpp:122] Setting up fc4
I0515 23:42:23.138882 31817 net.cpp:129] Top shape: 50 2 (100)
I0515 23:42:23.138885 31817 net.cpp:137] Memory required for data: 130010200
I0515 23:42:23.138890 31817 layer_factory.hpp:77] Creating layer accuracy
I0515 23:42:23.138893 31817 net.cpp:84] Creating Layer accuracy
I0515 23:42:23.138895 31817 net.cpp:406] accuracy <- fc4
I0515 23:42:23.138898 31817 net.cpp:406] accuracy <- label
I0515 23:42:23.138901 31817 net.cpp:380] accuracy -> accuracy
…
