…
I0519 17:22:33.525637  7326 solver.cpp:77] Creating training net from train_net file: /home/work/qinhuan/mywork/license_plate/cascadeCNN_license_plate_detection/train_net/jobs/license_48c_COCO/train.prototxt
I0519 17:22:33.525944  7326 net.cpp:51] Initializing net from parameters: 
name: "license_48c_COCO_train"
state {
  phase: TRAIN
}
layer {
  name: "data"
  type: "Input"
  top: "data"
  input_param {
    shape {
      dim: 128
      dim: 3
      dim: 24
      dim: 72
    }
  }
}
layer {
  name: "label"
  type: "Input"
  top: "label"
  input_param {
    shape {
      dim: 128
    }
  }
}
layer {
  name: "conv1_1"
  type: "Convolution"
  bottom: "data"
  top: "conv1_1"
  param {
    lr_mult: 1
    decay_mult: 1
  }
  param {
    lr_mult: 2
    decay_mult: 0
  }
  convolution_param {
    num_output: 64
    pad: 1
    kernel_size: 3
    weight_filler {
      type: "xavier"
    }
    bias_filler {
      type: "constant"
    }
  }
}
layer {
  name: "relu1_1"
  type: "ReLU"
  bottom: "conv1_1"
  top: "conv1_1"
}
layer {
  name: "conv1_2"
  type: "Convolution"
  bottom: "conv1_1"
  top: "conv1_2"
  param {
    lr_mult: 1
    decay_mult: 1
  }
  param {
    lr_mult: 2
    decay_mult: 0
  }
  convolution_param {
    num_output: 64
    pad: 1
    kernel_size: 3
    weight_filler {
      type: "xavier"
    }
    bias_filler {
      type: "constant"
    }
  }
}
layer {
  name: "relu1_2"
  type: "ReLU"
  bottom: "conv1_2"
  top: "conv1_2"
}
layer {
  name: "pool1"
  type: "Pooling"
  bottom: "conv1_2"
  top: "pool1"
  pooling_param {
    pool: MAX
    kernel_size: 3
    stride: 2
    pad: 1
  }
}
layer {
  name: "norm1"
  type: "LRN"
  bottom: "pool1"
  top: "norm1"
  lrn_param {
    local_size: 5
    alpha: 0.0001
    beta: 0.75
  }
}
layer {
  name: "conv2_1"
  type: "Convolution"
  bottom: "norm1"
  top: "conv2_1"
  param {
    lr_mult: 1
    decay_mult: 1
  }
  param {
    lr_mult: 2
    decay_mult: 0
  }
  convolution_param {
    num_output: 64
    pad: 1
    kernel_size: 3
    weight_filler {
      type: "xavier"
    }
    bias_filler {
      type: "constant"
    }
  }
}
layer {
  name: "relu2_1"
  type: "ReLU"
  bottom: "conv2_1"
  top: "conv2_1"
}
layer {
  name: "conv2_2"
  type: "Convolution"
  bottom: "conv2_1"
  top: "conv2_2"
  param {
    lr_mult: 1
    decay_mult: 1
  }
  param {
    lr_mult: 2
    decay_mult: 0
  }
  convolution_param {
    num_output: 64
    pad: 1
    kernel_size: 3
    weight_filler {
      type: "xavier"
    }
    bias_filler {
      type: "constant"
    }
  }
}
layer {
  name: "relu2_2"
  type: "ReLU"
  bottom: "conv2_2"
  top: "conv2_2"
}
layer {
  name: "pool2"
  type: "Pooling"
  bottom: "conv2_2"
  top: "pool2"
  pooling_param {
    pool: MAX
    kernel_size: 3
    stride: 2
    pad: 1
  }
}
layer {
  name: "norm2"
  type: "LRN"
  bottom: "pool2"
  top: "norm2"
  lrn_param {
    local_size: 5
    alpha: 0.0001
    beta: 0.75
  }
}
layer {
  name: "fc3"
  type: "InnerProduct"
  bottom: "norm2"
  top: "fc3"
  param {
    lr_mult: 1
    decay_mult: 1
  }
  param {
    lr_mult: 2
    decay_mult: 0
  }
  inner_product_param {
    num_output: 256
    weight_filler {
      type: "xavier"
    }
    bias_filler {
      type: "constant"
    }
  }
}
layer {
  name: "relu3"
  type: "ReLU"
  bottom: "fc3"
  top: "fc3"
}
layer {
  name: "drop3"
  type: "Dropout"
  bottom: "fc3"
  top: "fc3"
  dropout_param {
    dropout_ratio: 0.5
  }
}
layer {
  name: "fc4"
  type: "InnerProduct"
  bottom: "fc3"
  top: "fc4"
  param {
    lr_mult: 1
    decay_mult: 250
  }
  param {
    lr_mult: 2
    decay_mult: 0
  }
  inner_product_param {
    num_output: 2
    weight_filler {
      type: "xavier"
    }
    bias_filler {
      type: "constant"
      value: 0
    }
  }
}
layer {
  name: "loss"
  type: "SoftmaxWithLoss"
  bottom: "fc4"
  bottom: "label"
  top: "loss"
}
I0519 17:22:33.525991  7326 layer_factory.hpp:77] Creating layer data
I0519 17:22:33.525998  7326 net.cpp:84] Creating Layer data
I0519 17:22:33.526001  7326 net.cpp:380] data -> data
I0519 17:22:33.526777  7326 net.cpp:122] Setting up data
I0519 17:22:33.526785  7326 net.cpp:129] Top shape: 128 3 24 72 (663552)
I0519 17:22:33.526788  7326 net.cpp:137] Memory required for data: 2654208
I0519 17:22:33.526792  7326 layer_factory.hpp:77] Creating layer label
I0519 17:22:33.526796  7326 net.cpp:84] Creating Layer label
I0519 17:22:33.526801  7326 net.cpp:380] label -> label
I0519 17:22:33.526823  7326 net.cpp:122] Setting up label
I0519 17:22:33.526828  7326 net.cpp:129] Top shape: 128 (128)
I0519 17:22:33.526830  7326 net.cpp:137] Memory required for data: 2654720
I0519 17:22:33.526832  7326 layer_factory.hpp:77] Creating layer conv1_1
I0519 17:22:33.526839  7326 net.cpp:84] Creating Layer conv1_1
I0519 17:22:33.526842  7326 net.cpp:406] conv1_1 <- data
I0519 17:22:33.526846  7326 net.cpp:380] conv1_1 -> conv1_1
I0519 17:22:33.702368  7326 net.cpp:122] Setting up conv1_1
I0519 17:22:33.702391  7326 net.cpp:129] Top shape: 128 64 24 72 (14155776)
I0519 17:22:33.702394  7326 net.cpp:137] Memory required for data: 59277824
I0519 17:22:33.702404  7326 layer_factory.hpp:77] Creating layer relu1_1
I0519 17:22:33.702412  7326 net.cpp:84] Creating Layer relu1_1
I0519 17:22:33.702415  7326 net.cpp:406] relu1_1 <- conv1_1
I0519 17:22:33.702419  7326 net.cpp:367] relu1_1 -> conv1_1 (in-place)
I0519 17:22:33.702517  7326 net.cpp:122] Setting up relu1_1
I0519 17:22:33.702523  7326 net.cpp:129] Top shape: 128 64 24 72 (14155776)
I0519 17:22:33.702525  7326 net.cpp:137] Memory required for data: 115900928
I0519 17:22:33.702528  7326 layer_factory.hpp:77] Creating layer conv1_2
I0519 17:22:33.702535  7326 net.cpp:84] Creating Layer conv1_2
I0519 17:22:33.702538  7326 net.cpp:406] conv1_2 <- conv1_1
I0519 17:22:33.702543  7326 net.cpp:380] conv1_2 -> conv1_2
I0519 17:22:33.704248  7326 net.cpp:122] Setting up conv1_2
I0519 17:22:33.704258  7326 net.cpp:129] Top shape: 128 64 24 72 (14155776)
I0519 17:22:33.704262  7326 net.cpp:137] Memory required for data: 172524032
I0519 17:22:33.704267  7326 layer_factory.hpp:77] Creating layer relu1_2
I0519 17:22:33.704272  7326 net.cpp:84] Creating Layer relu1_2
I0519 17:22:33.704274  7326 net.cpp:406] relu1_2 <- conv1_2
I0519 17:22:33.704278  7326 net.cpp:367] relu1_2 -> conv1_2 (in-place)
I0519 17:22:33.704375  7326 net.cpp:122] Setting up relu1_2
I0519 17:22:33.704381  7326 net.cpp:129] Top shape: 128 64 24 72 (14155776)
I0519 17:22:33.704383  7326 net.cpp:137] Memory required for data: 229147136
I0519 17:22:33.704386  7326 layer_factory.hpp:77] Creating layer pool1
I0519 17:22:33.704391  7326 net.cpp:84] Creating Layer pool1
I0519 17:22:33.704393  7326 net.cpp:406] pool1 <- conv1_2
I0519 17:22:33.704397  7326 net.cpp:380] pool1 -> pool1
I0519 17:22:33.704430  7326 net.cpp:122] Setting up pool1
I0519 17:22:33.704435  7326 net.cpp:129] Top shape: 128 64 13 37 (3940352)
I0519 17:22:33.704437  7326 net.cpp:137] Memory required for data: 244908544
I0519 17:22:33.704440  7326 layer_factory.hpp:77] Creating layer norm1
I0519 17:22:33.704444  7326 net.cpp:84] Creating Layer norm1
I0519 17:22:33.704447  7326 net.cpp:406] norm1 <- pool1
I0519 17:22:33.704450  7326 net.cpp:380] norm1 -> norm1
I0519 17:22:33.704967  7326 net.cpp:122] Setting up norm1
I0519 17:22:33.704974  7326 net.cpp:129] Top shape: 128 64 13 37 (3940352)
I0519 17:22:33.704978  7326 net.cpp:137] Memory required for data: 260669952
I0519 17:22:33.704980  7326 layer_factory.hpp:77] Creating layer conv2_1
I0519 17:22:33.704991  7326 net.cpp:84] Creating Layer conv2_1
I0519 17:22:33.704994  7326 net.cpp:406] conv2_1 <- norm1
I0519 17:22:33.704999  7326 net.cpp:380] conv2_1 -> conv2_1
I0519 17:22:33.706672  7326 net.cpp:122] Setting up conv2_1
I0519 17:22:33.706681  7326 net.cpp:129] Top shape: 128 64 13 37 (3940352)
I0519 17:22:33.706684  7326 net.cpp:137] Memory required for data: 276431360
I0519 17:22:33.706691  7326 layer_factory.hpp:77] Creating layer relu2_1
I0519 17:22:33.706694  7326 net.cpp:84] Creating Layer relu2_1
I0519 17:22:33.706697  7326 net.cpp:406] relu2_1 <- conv2_1
I0519 17:22:33.706701  7326 net.cpp:367] relu2_1 -> conv2_1 (in-place)
I0519 17:22:33.706806  7326 net.cpp:122] Setting up relu2_1
I0519 17:22:33.706811  7326 net.cpp:129] Top shape: 128 64 13 37 (3940352)
I0519 17:22:33.706815  7326 net.cpp:137] Memory required for data: 292192768
I0519 17:22:33.706817  7326 layer_factory.hpp:77] Creating layer conv2_2
I0519 17:22:33.706823  7326 net.cpp:84] Creating Layer conv2_2
I0519 17:22:33.706826  7326 net.cpp:406] conv2_2 <- conv2_1
I0519 17:22:33.706830  7326 net.cpp:380] conv2_2 -> conv2_2
I0519 17:22:33.708278  7326 net.cpp:122] Setting up conv2_2
I0519 17:22:33.708290  7326 net.cpp:129] Top shape: 128 64 13 37 (3940352)
I0519 17:22:33.708293  7326 net.cpp:137] Memory required for data: 307954176
I0519 17:22:33.708298  7326 layer_factory.hpp:77] Creating layer relu2_2
I0519 17:22:33.708303  7326 net.cpp:84] Creating Layer relu2_2
I0519 17:22:33.708307  7326 net.cpp:406] relu2_2 <- conv2_2
I0519 17:22:33.708309  7326 net.cpp:367] relu2_2 -> conv2_2 (in-place)
I0519 17:22:33.708413  7326 net.cpp:122] Setting up relu2_2
I0519 17:22:33.708418  7326 net.cpp:129] Top shape: 128 64 13 37 (3940352)
I0519 17:22:33.708421  7326 net.cpp:137] Memory required for data: 323715584
I0519 17:22:33.708423  7326 layer_factory.hpp:77] Creating layer pool2
I0519 17:22:33.708428  7326 net.cpp:84] Creating Layer pool2
I0519 17:22:33.708431  7326 net.cpp:406] pool2 <- conv2_2
I0519 17:22:33.708436  7326 net.cpp:380] pool2 -> pool2
I0519 17:22:33.708472  7326 net.cpp:122] Setting up pool2
I0519 17:22:33.708477  7326 net.cpp:129] Top shape: 128 64 7 19 (1089536)
I0519 17:22:33.708480  7326 net.cpp:137] Memory required for data: 328073728
I0519 17:22:33.708482  7326 layer_factory.hpp:77] Creating layer norm2
I0519 17:22:33.708488  7326 net.cpp:84] Creating Layer norm2
I0519 17:22:33.708492  7326 net.cpp:406] norm2 <- pool2
I0519 17:22:33.708495  7326 net.cpp:380] norm2 -> norm2
I0519 17:22:33.708616  7326 net.cpp:122] Setting up norm2
I0519 17:22:33.708621  7326 net.cpp:129] Top shape: 128 64 7 19 (1089536)
I0519 17:22:33.708623  7326 net.cpp:137] Memory required for data: 332431872
I0519 17:22:33.708626  7326 layer_factory.hpp:77] Creating layer fc3
I0519 17:22:33.708631  7326 net.cpp:84] Creating Layer fc3
I0519 17:22:33.708634  7326 net.cpp:406] fc3 <- norm2
I0519 17:22:33.708637  7326 net.cpp:380] fc3 -> fc3
I0519 17:22:33.717170  7326 net.cpp:122] Setting up fc3
I0519 17:22:33.717195  7326 net.cpp:129] Top shape: 128 256 (32768)
I0519 17:22:33.717200  7326 net.cpp:137] Memory required for data: 332562944
I0519 17:22:33.717209  7326 layer_factory.hpp:77] Creating layer relu3
I0519 17:22:33.717216  7326 net.cpp:84] Creating Layer relu3
I0519 17:22:33.717219  7326 net.cpp:406] relu3 <- fc3
I0519 17:22:33.717223  7326 net.cpp:367] relu3 -> fc3 (in-place)
I0519 17:22:33.717814  7326 net.cpp:122] Setting up relu3
I0519 17:22:33.717823  7326 net.cpp:129] Top shape: 128 256 (32768)
I0519 17:22:33.717826  7326 net.cpp:137] Memory required for data: 332694016
I0519 17:22:33.717829  7326 layer_factory.hpp:77] Creating layer drop3
I0519 17:22:33.717836  7326 net.cpp:84] Creating Layer drop3
I0519 17:22:33.717839  7326 net.cpp:406] drop3 <- fc3
I0519 17:22:33.717844  7326 net.cpp:367] drop3 -> fc3 (in-place)
I0519 17:22:33.717864  7326 net.cpp:122] Setting up drop3
I0519 17:22:33.717869  7326 net.cpp:129] Top shape: 128 256 (32768)
I0519 17:22:33.717870  7326 net.cpp:137] Memory required for data: 332825088
I0519 17:22:33.717877  7326 layer_factory.hpp:77] Creating layer fc4
I0519 17:22:33.717882  7326 net.cpp:84] Creating Layer fc4
I0519 17:22:33.717885  7326 net.cpp:406] fc4 <- fc3
I0519 17:22:33.717890  7326 net.cpp:380] fc4 -> fc4
I0519 17:22:33.717999  7326 net.cpp:122] Setting up fc4
I0519 17:22:33.718004  7326 net.cpp:129] Top shape: 128 2 (256)
I0519 17:22:33.718006  7326 net.cpp:137] Memory required for data: 332826112
I0519 17:22:33.718010  7326 layer_factory.hpp:77] Creating layer loss
I0519 17:22:33.718014  7326 net.cpp:84] Creating Layer loss
I0519 17:22:33.718017  7326 net.cpp:406] loss <- fc4
I0519 17:22:33.718020  7326 net.cpp:406] loss <- label
I0519 17:22:33.718024  7326 net.cpp:380] loss -> loss
I0519 17:22:33.718029  7326 layer_factory.hpp:77] Creating layer loss
…
I0519 17:22:33.718516  7326 solver.cpp:172] Creating test net (#0) specified by test_net file: /home/work/qinhuan/mywork/license_plate/cascadeCNN_license_plate_detection/train_net/jobs/license_48c_COCO/test.prototxt
I0519 17:22:33.718606  7326 net.cpp:51] Initializing net from parameters: 
name: "license_48c_COCO_test"
state {
  phase: TEST
}
layer {
  name: "data"
  type: "Data"
  top: "data"
  top: "label"
  transform_param {
    mean_file: "/home/work/qinhuan/mywork/license_plate/data/lmdb/license_train_48c_imagenet_mean.binaryproto"
  }
  data_param {
    source: "/home/work/qinhuan/mywork/license_plate/data/lmdb/license_val_48c_lmdb"
    batch_size: 50
    backend: LMDB
  }
}
layer {
  name: "conv1_1"
  type: "Convolution"
  bottom: "data"
  top: "conv1_1"
  param {
    lr_mult: 1
    decay_mult: 1
  }
  param {
    lr_mult: 2
    decay_mult: 0
  }
  convolution_param {
    num_output: 64
    pad: 1
    kernel_size: 3
    weight_filler {
      type: "xavier"
    }
    bias_filler {
      type: "constant"
    }
  }
}
layer {
  name: "relu1_1"
  type: "ReLU"
  bottom: "conv1_1"
  top: "conv1_1"
}
layer {
  name: "conv1_2"
  type: "Convolution"
  bottom: "conv1_1"
  top: "conv1_2"
  param {
    lr_mult: 1
    decay_mult: 1
  }
  param {
    lr_mult: 2
    decay_mult: 0
  }
  convolution_param {
    num_output: 64
    pad: 1
    kernel_size: 3
    weight_filler {
      type: "xavier"
    }
    bias_filler {
      type: "constant"
    }
  }
}
layer {
  name: "relu1_2"
  type: "ReLU"
  bottom: "conv1_2"
  top: "conv1_2"
}
layer {
  name: "pool1"
  type: "Pooling"
  bottom: "conv1_2"
  top: "pool1"
  pooling_param {
    pool: MAX
    kernel_size: 3
    stride: 2
    pad: 1
  }
}
layer {
  name: "norm1"
  type: "LRN"
  bottom: "pool1"
  top: "norm1"
  lrn_param {
    local_size: 5
    alpha: 0.0001
    beta: 0.75
  }
}
layer {
  name: "conv2_1"
  type: "Convolution"
  bottom: "norm1"
  top: "conv2_1"
  param {
    lr_mult: 1
    decay_mult: 1
  }
  param {
    lr_mult: 2
    decay_mult: 0
  }
  convolution_param {
    num_output: 64
    pad: 1
    kernel_size: 3
    weight_filler {
      type: "xavier"
    }
    bias_filler {
      type: "constant"
    }
  }
}
layer {
  name: "relu2_1"
  type: "ReLU"
  bottom: "conv2_1"
  top: "conv2_1"
}
layer {
  name: "conv2_2"
  type: "Convolution"
  bottom: "conv2_1"
  top: "conv2_2"
  param {
    lr_mult: 1
    decay_mult: 1
  }
  param {
    lr_mult: 2
    decay_mult: 0
  }
  convolution_param {
    num_output: 64
    pad: 1
    kernel_size: 3
    weight_filler {
      type: "xavier"
    }
    bias_filler {
      type: "constant"
    }
  }
}
layer {
  name: "relu2_2"
  type: "ReLU"
  bottom: "conv2_2"
  top: "conv2_2"
}
layer {
  name: "pool2"
  type: "Pooling"
  bottom: "conv2_2"
  top: "pool2"
  pooling_param {
    pool: MAX
    kernel_size: 3
    stride: 2
    pad: 1
  }
}
layer {
  name: "norm2"
  type: "LRN"
  bottom: "pool2"
  top: "norm2"
  lrn_param {
    local_size: 5
    alpha: 0.0001
    beta: 0.75
  }
}
layer {
  name: "fc3"
  type: "InnerProduct"
  bottom: "norm2"
  top: "fc3"
  param {
    lr_mult: 1
    decay_mult: 1
  }
  param {
    lr_mult: 2
    decay_mult: 0
  }
  inner_product_param {
    num_output: 256
    weight_filler {
      type: "xavier"
    }
    bias_filler {
      type: "constant"
    }
  }
}
layer {
  name: "relu3"
  type: "ReLU"
  bottom: "fc3"
  top: "fc3"
}
layer {
  name: "drop3"
  type: "Dropout"
  bottom: "fc3"
  top: "fc3"
  dropout_param {
    dropout_ratio: 0.5
  }
}
layer {
  name: "fc4"
  type: "InnerProduct"
  bottom: "fc3"
  top: "fc4"
  param {
    lr_mult: 1
    decay_mult: 250
  }
  param {
    lr_mult: 2
    decay_mult: 0
  }
  inner_product_param {
    num_output: 2
    weight_filler {
      type: "xavier"
    }
    bias_filler {
      type: "constant"
      value: 0
    }
  }
}
layer {
  name: "accuracy"
  type: "Accuracy"
  bottom: "fc4"
  bottom: "label"
  top: "accuracy"
}
I0519 17:22:33.718648  7326 layer_factory.hpp:77] Creating layer data
I0519 17:22:33.718678  7326 db_lmdb.cpp:35] Opened lmdb /home/work/qinhuan/mywork/license_plate/data/lmdb/license_val_48c_lmdb
I0519 17:22:33.718691  7326 net.cpp:84] Creating Layer data
I0519 17:22:33.718694  7326 net.cpp:380] data -> data
I0519 17:22:33.718699  7326 net.cpp:380] data -> label
I0519 17:22:33.718704  7326 data_transformer.cpp:25] Loading mean file from: /home/work/qinhuan/mywork/license_plate/data/lmdb/license_train_48c_imagenet_mean.binaryproto
I0519 17:22:33.719552  7326 data_layer.cpp:45] output data size: 50,3,24,72
I0519 17:22:33.724736  7326 net.cpp:122] Setting up data
I0519 17:22:33.724747  7326 net.cpp:129] Top shape: 50 3 24 72 (259200)
I0519 17:22:33.724751  7326 net.cpp:129] Top shape: 50 (50)
I0519 17:22:33.724753  7326 net.cpp:137] Memory required for data: 1037000
I0519 17:22:33.724756  7326 layer_factory.hpp:77] Creating layer conv1_1
I0519 17:22:33.724766  7326 net.cpp:84] Creating Layer conv1_1
I0519 17:22:33.724768  7326 net.cpp:406] conv1_1 <- data
I0519 17:22:33.724774  7326 net.cpp:380] conv1_1 -> conv1_1
I0519 17:22:33.726577  7326 net.cpp:122] Setting up conv1_1
I0519 17:22:33.726588  7326 net.cpp:129] Top shape: 50 64 24 72 (5529600)
I0519 17:22:33.726591  7326 net.cpp:137] Memory required for data: 23155400
I0519 17:22:33.726598  7326 layer_factory.hpp:77] Creating layer relu1_1
I0519 17:22:33.726603  7326 net.cpp:84] Creating Layer relu1_1
I0519 17:22:33.726608  7326 net.cpp:406] relu1_1 <- conv1_1
I0519 17:22:33.726611  7326 net.cpp:367] relu1_1 -> conv1_1 (in-place)
I0519 17:22:33.726718  7326 net.cpp:122] Setting up relu1_1
I0519 17:22:33.726725  7326 net.cpp:129] Top shape: 50 64 24 72 (5529600)
I0519 17:22:33.726728  7326 net.cpp:137] Memory required for data: 45273800
I0519 17:22:33.726732  7326 layer_factory.hpp:77] Creating layer conv1_2
I0519 17:22:33.726737  7326 net.cpp:84] Creating Layer conv1_2
I0519 17:22:33.726740  7326 net.cpp:406] conv1_2 <- conv1_1
I0519 17:22:33.726745  7326 net.cpp:380] conv1_2 -> conv1_2
I0519 17:22:33.729081  7326 net.cpp:122] Setting up conv1_2
I0519 17:22:33.729092  7326 net.cpp:129] Top shape: 50 64 24 72 (5529600)
I0519 17:22:33.729095  7326 net.cpp:137] Memory required for data: 67392200
I0519 17:22:33.729102  7326 layer_factory.hpp:77] Creating layer relu1_2
I0519 17:22:33.729107  7326 net.cpp:84] Creating Layer relu1_2
I0519 17:22:33.729110  7326 net.cpp:406] relu1_2 <- conv1_2
I0519 17:22:33.729115  7326 net.cpp:367] relu1_2 -> conv1_2 (in-place)
I0519 17:22:33.729224  7326 net.cpp:122] Setting up relu1_2
I0519 17:22:33.729230  7326 net.cpp:129] Top shape: 50 64 24 72 (5529600)
I0519 17:22:33.729233  7326 net.cpp:137] Memory required for data: 89510600
I0519 17:22:33.729235  7326 layer_factory.hpp:77] Creating layer pool1
I0519 17:22:33.729240  7326 net.cpp:84] Creating Layer pool1
I0519 17:22:33.729243  7326 net.cpp:406] pool1 <- conv1_2
I0519 17:22:33.729246  7326 net.cpp:380] pool1 -> pool1
I0519 17:22:33.729287  7326 net.cpp:122] Setting up pool1
I0519 17:22:33.729292  7326 net.cpp:129] Top shape: 50 64 13 37 (1539200)
I0519 17:22:33.729295  7326 net.cpp:137] Memory required for data: 95667400
I0519 17:22:33.729296  7326 layer_factory.hpp:77] Creating layer norm1
I0519 17:22:33.729301  7326 net.cpp:84] Creating Layer norm1
I0519 17:22:33.729305  7326 net.cpp:406] norm1 <- pool1
I0519 17:22:33.729307  7326 net.cpp:380] norm1 -> norm1
I0519 17:22:33.730595  7326 net.cpp:122] Setting up norm1
I0519 17:22:33.730607  7326 net.cpp:129] Top shape: 50 64 13 37 (1539200)
I0519 17:22:33.730610  7326 net.cpp:137] Memory required for data: 101824200
I0519 17:22:33.730613  7326 layer_factory.hpp:77] Creating layer conv2_1
I0519 17:22:33.730619  7326 net.cpp:84] Creating Layer conv2_1
I0519 17:22:33.730624  7326 net.cpp:406] conv2_1 <- norm1
I0519 17:22:33.730630  7326 net.cpp:380] conv2_1 -> conv2_1
I0519 17:22:33.731315  7326 net.cpp:122] Setting up conv2_1
I0519 17:22:33.731323  7326 net.cpp:129] Top shape: 50 64 13 37 (1539200)
I0519 17:22:33.731326  7326 net.cpp:137] Memory required for data: 107981000
I0519 17:22:33.731333  7326 layer_factory.hpp:77] Creating layer relu2_1
I0519 17:22:33.731338  7326 net.cpp:84] Creating Layer relu2_1
I0519 17:22:33.731340  7326 net.cpp:406] relu2_1 <- conv2_1
I0519 17:22:33.731344  7326 net.cpp:367] relu2_1 -> conv2_1 (in-place)
I0519 17:22:33.732614  7326 net.cpp:122] Setting up relu2_1
I0519 17:22:33.732623  7326 net.cpp:129] Top shape: 50 64 13 37 (1539200)
I0519 17:22:33.732627  7326 net.cpp:137] Memory required for data: 114137800
I0519 17:22:33.732635  7326 layer_factory.hpp:77] Creating layer conv2_2
I0519 17:22:33.732641  7326 net.cpp:84] Creating Layer conv2_2
I0519 17:22:33.732647  7326 net.cpp:406] conv2_2 <- conv2_1
I0519 17:22:33.732652  7326 net.cpp:380] conv2_2 -> conv2_2
I0519 17:22:33.734292  7326 net.cpp:122] Setting up conv2_2
I0519 17:22:33.734302  7326 net.cpp:129] Top shape: 50 64 13 37 (1539200)
I0519 17:22:33.734304  7326 net.cpp:137] Memory required for data: 120294600
I0519 17:22:33.734309  7326 layer_factory.hpp:77] Creating layer relu2_2
I0519 17:22:33.734313  7326 net.cpp:84] Creating Layer relu2_2
I0519 17:22:33.734316  7326 net.cpp:406] relu2_2 <- conv2_2
I0519 17:22:33.734320  7326 net.cpp:367] relu2_2 -> conv2_2 (in-place)
I0519 17:22:33.734428  7326 net.cpp:122] Setting up relu2_2
I0519 17:22:33.734434  7326 net.cpp:129] Top shape: 50 64 13 37 (1539200)
I0519 17:22:33.734436  7326 net.cpp:137] Memory required for data: 126451400
I0519 17:22:33.734439  7326 layer_factory.hpp:77] Creating layer pool2
I0519 17:22:33.734443  7326 net.cpp:84] Creating Layer pool2
I0519 17:22:33.734446  7326 net.cpp:406] pool2 <- conv2_2
I0519 17:22:33.734452  7326 net.cpp:380] pool2 -> pool2
I0519 17:22:33.734491  7326 net.cpp:122] Setting up pool2
I0519 17:22:33.734498  7326 net.cpp:129] Top shape: 50 64 7 19 (425600)
I0519 17:22:33.734499  7326 net.cpp:137] Memory required for data: 128153800
I0519 17:22:33.734503  7326 layer_factory.hpp:77] Creating layer norm2
I0519 17:22:33.734506  7326 net.cpp:84] Creating Layer norm2
I0519 17:22:33.734508  7326 net.cpp:406] norm2 <- pool2
I0519 17:22:33.734513  7326 net.cpp:380] norm2 -> norm2
I0519 17:22:33.734643  7326 net.cpp:122] Setting up norm2
I0519 17:22:33.734648  7326 net.cpp:129] Top shape: 50 64 7 19 (425600)
I0519 17:22:33.734652  7326 net.cpp:137] Memory required for data: 129856200
I0519 17:22:33.734653  7326 layer_factory.hpp:77] Creating layer fc3
I0519 17:22:33.734658  7326 net.cpp:84] Creating Layer fc3
I0519 17:22:33.734661  7326 net.cpp:406] fc3 <- norm2
I0519 17:22:33.734665  7326 net.cpp:380] fc3 -> fc3
I0519 17:22:33.743082  7326 net.cpp:122] Setting up fc3
I0519 17:22:33.743103  7326 net.cpp:129] Top shape: 50 256 (12800)
I0519 17:22:33.743106  7326 net.cpp:137] Memory required for data: 129907400
I0519 17:22:33.743115  7326 layer_factory.hpp:77] Creating layer relu3
I0519 17:22:33.743122  7326 net.cpp:84] Creating Layer relu3
I0519 17:22:33.743125  7326 net.cpp:406] relu3 <- fc3
I0519 17:22:33.743129  7326 net.cpp:367] relu3 -> fc3 (in-place)
I0519 17:22:33.743273  7326 net.cpp:122] Setting up relu3
I0519 17:22:33.743278  7326 net.cpp:129] Top shape: 50 256 (12800)
I0519 17:22:33.743281  7326 net.cpp:137] Memory required for data: 129958600
I0519 17:22:33.743284  7326 layer_factory.hpp:77] Creating layer drop3
I0519 17:22:33.743288  7326 net.cpp:84] Creating Layer drop3
I0519 17:22:33.743291  7326 net.cpp:406] drop3 <- fc3
I0519 17:22:33.743295  7326 net.cpp:367] drop3 -> fc3 (in-place)
I0519 17:22:33.743322  7326 net.cpp:122] Setting up drop3
I0519 17:22:33.743326  7326 net.cpp:129] Top shape: 50 256 (12800)
I0519 17:22:33.743329  7326 net.cpp:137] Memory required for data: 130009800
I0519 17:22:33.743331  7326 layer_factory.hpp:77] Creating layer fc4
I0519 17:22:33.743337  7326 net.cpp:84] Creating Layer fc4
I0519 17:22:33.743340  7326 net.cpp:406] fc4 <- fc3
I0519 17:22:33.743345  7326 net.cpp:380] fc4 -> fc4
I0519 17:22:33.743454  7326 net.cpp:122] Setting up fc4
I0519 17:22:33.743459  7326 net.cpp:129] Top shape: 50 2 (100)
I0519 17:22:33.743461  7326 net.cpp:137] Memory required for data: 130010200
I0519 17:22:33.743465  7326 layer_factory.hpp:77] Creating layer accuracy
I0519 17:22:33.743469  7326 net.cpp:84] Creating Layer accuracy
I0519 17:22:33.743471  7326 net.cpp:406] accuracy <- fc4
I0519 17:22:33.743474  7326 net.cpp:406] accuracy <- label
I0519 17:22:33.743479  7326 net.cpp:380] accuracy -> accuracy
…
