…
I0520 18:33:07.792069 11440 solver.cpp:77] Creating training net from train_net file: /home/work/qinhuan/mywork/license_plate/cascadeCNN_license_plate_detection/train_net/jobs/license_48c_qh/train.prototxt
I0520 18:33:07.792387 11440 net.cpp:51] Initializing net from parameters: 
name: "license_48c_qh_train"
state {
  phase: TRAIN
}
layer {
  name: "data"
  type: "Input"
  top: "data"
  input_param {
    shape {
      dim: 128
      dim: 3
      dim: 24
      dim: 72
    }
  }
}
layer {
  name: "label"
  type: "Input"
  top: "label"
  input_param {
    shape {
      dim: 128
    }
  }
}
layer {
  name: "conv1_1"
  type: "Convolution"
  bottom: "data"
  top: "conv1_1"
  param {
    lr_mult: 1
    decay_mult: 1
  }
  param {
    lr_mult: 2
    decay_mult: 0
  }
  convolution_param {
    num_output: 64
    pad: 1
    kernel_size: 3
    weight_filler {
      type: "xavier"
    }
    bias_filler {
      type: "constant"
    }
  }
}
layer {
  name: "relu1_1"
  type: "ReLU"
  bottom: "conv1_1"
  top: "conv1_1"
}
layer {
  name: "conv1_2"
  type: "Convolution"
  bottom: "conv1_1"
  top: "conv1_2"
  param {
    lr_mult: 1
    decay_mult: 1
  }
  param {
    lr_mult: 2
    decay_mult: 0
  }
  convolution_param {
    num_output: 64
    pad: 1
    kernel_size: 3
    weight_filler {
      type: "xavier"
    }
    bias_filler {
      type: "constant"
    }
  }
}
layer {
  name: "relu1_2"
  type: "ReLU"
  bottom: "conv1_2"
  top: "conv1_2"
}
layer {
  name: "pool1"
  type: "Pooling"
  bottom: "conv1_2"
  top: "pool1"
  pooling_param {
    pool: MAX
    kernel_size: 3
    stride: 2
    pad: 1
  }
}
layer {
  name: "norm1"
  type: "LRN"
  bottom: "pool1"
  top: "norm1"
  lrn_param {
    local_size: 5
    alpha: 0.0001
    beta: 0.75
  }
}
layer {
  name: "conv2_1"
  type: "Convolution"
  bottom: "norm1"
  top: "conv2_1"
  param {
    lr_mult: 1
    decay_mult: 1
  }
  param {
    lr_mult: 2
    decay_mult: 0
  }
  convolution_param {
    num_output: 64
    pad: 1
    kernel_size: 3
    weight_filler {
      type: "xavier"
    }
    bias_filler {
      type: "constant"
    }
  }
}
layer {
  name: "relu2_1"
  type: "ReLU"
  bottom: "conv2_1"
  top: "conv2_1"
}
layer {
  name: "conv2_2"
  type: "Convolution"
  bottom: "conv2_1"
  top: "conv2_2"
  param {
    lr_mult: 1
    decay_mult: 1
  }
  param {
    lr_mult: 2
    decay_mult: 0
  }
  convolution_param {
    num_output: 64
    pad: 1
    kernel_size: 3
    weight_filler {
      type: "xavier"
    }
    bias_filler {
      type: "constant"
    }
  }
}
layer {
  name: "relu2_2"
  type: "ReLU"
  bottom: "conv2_2"
  top: "conv2_2"
}
layer {
  name: "pool2"
  type: "Pooling"
  bottom: "conv2_2"
  top: "pool2"
  pooling_param {
    pool: MAX
    kernel_size: 3
    stride: 2
    pad: 1
  }
}
layer {
  name: "norm2"
  type: "LRN"
  bottom: "pool2"
  top: "norm2"
  lrn_param {
    local_size: 5
    alpha: 0.0001
    beta: 0.75
  }
}
layer {
  name: "fc3"
  type: "InnerProduct"
  bottom: "norm2"
  top: "fc3"
  param {
    lr_mult: 1
    decay_mult: 1
  }
  param {
    lr_mult: 2
    decay_mult: 0
  }
  inner_product_param {
    num_output: 256
    weight_filler {
      type: "xavier"
    }
    bias_filler {
      type: "constant"
    }
  }
}
layer {
  name: "relu3"
  type: "ReLU"
  bottom: "fc3"
  top: "fc3"
}
layer {
  name: "drop3"
  type: "Dropout"
  bottom: "fc3"
  top: "fc3"
  dropout_param {
    dropout_ratio: 0.5
  }
}
layer {
  name: "fc4"
  type: "InnerProduct"
  bottom: "fc3"
  top: "fc4"
  param {
    lr_mult: 1
    decay_mult: 250
  }
  param {
    lr_mult: 2
    decay_mult: 0
  }
  inner_product_param {
    num_output: 2
    weight_filler {
      type: "xavier"
    }
    bias_filler {
      type: "constant"
      value: 0
    }
  }
}
layer {
  name: "loss"
  type: "SoftmaxWithLoss"
  bottom: "fc4"
  bottom: "label"
  top: "loss"
}
I0520 18:33:07.792434 11440 layer_factory.hpp:77] Creating layer data
I0520 18:33:07.792441 11440 net.cpp:84] Creating Layer data
I0520 18:33:07.792444 11440 net.cpp:380] data -> data
I0520 18:33:07.793206 11440 net.cpp:122] Setting up data
I0520 18:33:07.793216 11440 net.cpp:129] Top shape: 128 3 24 72 (663552)
I0520 18:33:07.793220 11440 net.cpp:137] Memory required for data: 2654208
I0520 18:33:07.793222 11440 layer_factory.hpp:77] Creating layer label
I0520 18:33:07.793231 11440 net.cpp:84] Creating Layer label
I0520 18:33:07.793234 11440 net.cpp:380] label -> label
I0520 18:33:07.793256 11440 net.cpp:122] Setting up label
I0520 18:33:07.793262 11440 net.cpp:129] Top shape: 128 (128)
I0520 18:33:07.793263 11440 net.cpp:137] Memory required for data: 2654720
I0520 18:33:07.793267 11440 layer_factory.hpp:77] Creating layer conv1_1
I0520 18:33:07.793272 11440 net.cpp:84] Creating Layer conv1_1
I0520 18:33:07.793275 11440 net.cpp:406] conv1_1 <- data
I0520 18:33:07.793279 11440 net.cpp:380] conv1_1 -> conv1_1
I0520 18:33:07.974308 11440 net.cpp:122] Setting up conv1_1
I0520 18:33:07.974330 11440 net.cpp:129] Top shape: 128 64 24 72 (14155776)
I0520 18:33:07.974334 11440 net.cpp:137] Memory required for data: 59277824
I0520 18:33:07.974344 11440 layer_factory.hpp:77] Creating layer relu1_1
I0520 18:33:07.974352 11440 net.cpp:84] Creating Layer relu1_1
I0520 18:33:07.974355 11440 net.cpp:406] relu1_1 <- conv1_1
I0520 18:33:07.974360 11440 net.cpp:367] relu1_1 -> conv1_1 (in-place)
I0520 18:33:07.974458 11440 net.cpp:122] Setting up relu1_1
I0520 18:33:07.974465 11440 net.cpp:129] Top shape: 128 64 24 72 (14155776)
I0520 18:33:07.974469 11440 net.cpp:137] Memory required for data: 115900928
I0520 18:33:07.974474 11440 layer_factory.hpp:77] Creating layer conv1_2
I0520 18:33:07.974484 11440 net.cpp:84] Creating Layer conv1_2
I0520 18:33:07.974488 11440 net.cpp:406] conv1_2 <- conv1_1
I0520 18:33:07.974491 11440 net.cpp:380] conv1_2 -> conv1_2
I0520 18:33:07.976231 11440 net.cpp:122] Setting up conv1_2
I0520 18:33:07.976241 11440 net.cpp:129] Top shape: 128 64 24 72 (14155776)
I0520 18:33:07.976245 11440 net.cpp:137] Memory required for data: 172524032
I0520 18:33:07.976251 11440 layer_factory.hpp:77] Creating layer relu1_2
I0520 18:33:07.976256 11440 net.cpp:84] Creating Layer relu1_2
I0520 18:33:07.976259 11440 net.cpp:406] relu1_2 <- conv1_2
I0520 18:33:07.976263 11440 net.cpp:367] relu1_2 -> conv1_2 (in-place)
I0520 18:33:07.976357 11440 net.cpp:122] Setting up relu1_2
I0520 18:33:07.976363 11440 net.cpp:129] Top shape: 128 64 24 72 (14155776)
I0520 18:33:07.976366 11440 net.cpp:137] Memory required for data: 229147136
I0520 18:33:07.976369 11440 layer_factory.hpp:77] Creating layer pool1
I0520 18:33:07.976373 11440 net.cpp:84] Creating Layer pool1
I0520 18:33:07.976377 11440 net.cpp:406] pool1 <- conv1_2
I0520 18:33:07.976379 11440 net.cpp:380] pool1 -> pool1
I0520 18:33:07.976413 11440 net.cpp:122] Setting up pool1
I0520 18:33:07.976418 11440 net.cpp:129] Top shape: 128 64 13 37 (3940352)
I0520 18:33:07.976420 11440 net.cpp:137] Memory required for data: 244908544
I0520 18:33:07.976423 11440 layer_factory.hpp:77] Creating layer norm1
I0520 18:33:07.976426 11440 net.cpp:84] Creating Layer norm1
I0520 18:33:07.976429 11440 net.cpp:406] norm1 <- pool1
I0520 18:33:07.976433 11440 net.cpp:380] norm1 -> norm1
I0520 18:33:07.976948 11440 net.cpp:122] Setting up norm1
I0520 18:33:07.976955 11440 net.cpp:129] Top shape: 128 64 13 37 (3940352)
I0520 18:33:07.976958 11440 net.cpp:137] Memory required for data: 260669952
I0520 18:33:07.976961 11440 layer_factory.hpp:77] Creating layer conv2_1
I0520 18:33:07.976972 11440 net.cpp:84] Creating Layer conv2_1
I0520 18:33:07.976975 11440 net.cpp:406] conv2_1 <- norm1
I0520 18:33:07.976980 11440 net.cpp:380] conv2_1 -> conv2_1
I0520 18:33:07.978621 11440 net.cpp:122] Setting up conv2_1
I0520 18:33:07.978629 11440 net.cpp:129] Top shape: 128 64 13 37 (3940352)
I0520 18:33:07.978633 11440 net.cpp:137] Memory required for data: 276431360
I0520 18:33:07.978639 11440 layer_factory.hpp:77] Creating layer relu2_1
I0520 18:33:07.978643 11440 net.cpp:84] Creating Layer relu2_1
I0520 18:33:07.978646 11440 net.cpp:406] relu2_1 <- conv2_1
I0520 18:33:07.978651 11440 net.cpp:367] relu2_1 -> conv2_1 (in-place)
I0520 18:33:07.978746 11440 net.cpp:122] Setting up relu2_1
I0520 18:33:07.978751 11440 net.cpp:129] Top shape: 128 64 13 37 (3940352)
I0520 18:33:07.978754 11440 net.cpp:137] Memory required for data: 292192768
I0520 18:33:07.978757 11440 layer_factory.hpp:77] Creating layer conv2_2
I0520 18:33:07.978762 11440 net.cpp:84] Creating Layer conv2_2
I0520 18:33:07.978765 11440 net.cpp:406] conv2_2 <- conv2_1
I0520 18:33:07.978770 11440 net.cpp:380] conv2_2 -> conv2_2
I0520 18:33:07.980162 11440 net.cpp:122] Setting up conv2_2
I0520 18:33:07.980171 11440 net.cpp:129] Top shape: 128 64 13 37 (3940352)
I0520 18:33:07.980175 11440 net.cpp:137] Memory required for data: 307954176
I0520 18:33:07.980180 11440 layer_factory.hpp:77] Creating layer relu2_2
I0520 18:33:07.980183 11440 net.cpp:84] Creating Layer relu2_2
I0520 18:33:07.980186 11440 net.cpp:406] relu2_2 <- conv2_2
I0520 18:33:07.980190 11440 net.cpp:367] relu2_2 -> conv2_2 (in-place)
I0520 18:33:07.980288 11440 net.cpp:122] Setting up relu2_2
I0520 18:33:07.980294 11440 net.cpp:129] Top shape: 128 64 13 37 (3940352)
I0520 18:33:07.980298 11440 net.cpp:137] Memory required for data: 323715584
I0520 18:33:07.980300 11440 layer_factory.hpp:77] Creating layer pool2
I0520 18:33:07.980304 11440 net.cpp:84] Creating Layer pool2
I0520 18:33:07.980306 11440 net.cpp:406] pool2 <- conv2_2
I0520 18:33:07.980310 11440 net.cpp:380] pool2 -> pool2
I0520 18:33:07.980346 11440 net.cpp:122] Setting up pool2
I0520 18:33:07.980351 11440 net.cpp:129] Top shape: 128 64 7 19 (1089536)
I0520 18:33:07.980355 11440 net.cpp:137] Memory required for data: 328073728
I0520 18:33:07.980356 11440 layer_factory.hpp:77] Creating layer norm2
I0520 18:33:07.980360 11440 net.cpp:84] Creating Layer norm2
I0520 18:33:07.980363 11440 net.cpp:406] norm2 <- pool2
I0520 18:33:07.980366 11440 net.cpp:380] norm2 -> norm2
I0520 18:33:07.980476 11440 net.cpp:122] Setting up norm2
I0520 18:33:07.980482 11440 net.cpp:129] Top shape: 128 64 7 19 (1089536)
I0520 18:33:07.980485 11440 net.cpp:137] Memory required for data: 332431872
I0520 18:33:07.980487 11440 layer_factory.hpp:77] Creating layer fc3
I0520 18:33:07.980491 11440 net.cpp:84] Creating Layer fc3
I0520 18:33:07.980494 11440 net.cpp:406] fc3 <- norm2
I0520 18:33:07.980499 11440 net.cpp:380] fc3 -> fc3
I0520 18:33:07.988836 11440 net.cpp:122] Setting up fc3
I0520 18:33:07.988854 11440 net.cpp:129] Top shape: 128 256 (32768)
I0520 18:33:07.988857 11440 net.cpp:137] Memory required for data: 332562944
I0520 18:33:07.988867 11440 layer_factory.hpp:77] Creating layer relu3
I0520 18:33:07.988873 11440 net.cpp:84] Creating Layer relu3
I0520 18:33:07.988876 11440 net.cpp:406] relu3 <- fc3
I0520 18:33:07.988881 11440 net.cpp:367] relu3 -> fc3 (in-place)
I0520 18:33:07.989454 11440 net.cpp:122] Setting up relu3
I0520 18:33:07.989461 11440 net.cpp:129] Top shape: 128 256 (32768)
I0520 18:33:07.989464 11440 net.cpp:137] Memory required for data: 332694016
I0520 18:33:07.989467 11440 layer_factory.hpp:77] Creating layer drop3
I0520 18:33:07.989473 11440 net.cpp:84] Creating Layer drop3
I0520 18:33:07.989476 11440 net.cpp:406] drop3 <- fc3
I0520 18:33:07.989480 11440 net.cpp:367] drop3 -> fc3 (in-place)
I0520 18:33:07.989500 11440 net.cpp:122] Setting up drop3
I0520 18:33:07.989503 11440 net.cpp:129] Top shape: 128 256 (32768)
I0520 18:33:07.989506 11440 net.cpp:137] Memory required for data: 332825088
I0520 18:33:07.989512 11440 layer_factory.hpp:77] Creating layer fc4
I0520 18:33:07.989517 11440 net.cpp:84] Creating Layer fc4
I0520 18:33:07.989521 11440 net.cpp:406] fc4 <- fc3
I0520 18:33:07.989523 11440 net.cpp:380] fc4 -> fc4
I0520 18:33:07.989622 11440 net.cpp:122] Setting up fc4
I0520 18:33:07.989626 11440 net.cpp:129] Top shape: 128 2 (256)
I0520 18:33:07.989629 11440 net.cpp:137] Memory required for data: 332826112
I0520 18:33:07.989634 11440 layer_factory.hpp:77] Creating layer loss
I0520 18:33:07.989637 11440 net.cpp:84] Creating Layer loss
I0520 18:33:07.989639 11440 net.cpp:406] loss <- fc4
I0520 18:33:07.989642 11440 net.cpp:406] loss <- label
I0520 18:33:07.989646 11440 net.cpp:380] loss -> loss
I0520 18:33:07.989651 11440 layer_factory.hpp:77] Creating layer loss
…
I0520 18:33:07.990118 11440 solver.cpp:172] Creating test net (#0) specified by test_net file: /home/work/qinhuan/mywork/license_plate/cascadeCNN_license_plate_detection/train_net/jobs/license_48c_qh/test.prototxt
I0520 18:33:07.990206 11440 net.cpp:51] Initializing net from parameters: 
name: "license_48c_qh_test"
state {
  phase: TEST
}
layer {
  name: "data"
  type: "Data"
  top: "data"
  top: "label"
  transform_param {
    mean_file: "/home/work/qinhuan/mywork/license_plate/data/lmdb/license_train_48c_imagenet_mean.binaryproto"
  }
  data_param {
    source: "/home/work/qinhuan/mywork/license_plate/data/lmdb/license_val_48c_lmdb"
    batch_size: 50
    backend: LMDB
  }
}
layer {
  name: "conv1_1"
  type: "Convolution"
  bottom: "data"
  top: "conv1_1"
  param {
    lr_mult: 1
    decay_mult: 1
  }
  param {
    lr_mult: 2
    decay_mult: 0
  }
  convolution_param {
    num_output: 64
    pad: 1
    kernel_size: 3
    weight_filler {
      type: "xavier"
    }
    bias_filler {
      type: "constant"
    }
  }
}
layer {
  name: "relu1_1"
  type: "ReLU"
  bottom: "conv1_1"
  top: "conv1_1"
}
layer {
  name: "conv1_2"
  type: "Convolution"
  bottom: "conv1_1"
  top: "conv1_2"
  param {
    lr_mult: 1
    decay_mult: 1
  }
  param {
    lr_mult: 2
    decay_mult: 0
  }
  convolution_param {
    num_output: 64
    pad: 1
    kernel_size: 3
    weight_filler {
      type: "xavier"
    }
    bias_filler {
      type: "constant"
    }
  }
}
layer {
  name: "relu1_2"
  type: "ReLU"
  bottom: "conv1_2"
  top: "conv1_2"
}
layer {
  name: "pool1"
  type: "Pooling"
  bottom: "conv1_2"
  top: "pool1"
  pooling_param {
    pool: MAX
    kernel_size: 3
    stride: 2
    pad: 1
  }
}
layer {
  name: "norm1"
  type: "LRN"
  bottom: "pool1"
  top: "norm1"
  lrn_param {
    local_size: 5
    alpha: 0.0001
    beta: 0.75
  }
}
layer {
  name: "conv2_1"
  type: "Convolution"
  bottom: "norm1"
  top: "conv2_1"
  param {
    lr_mult: 1
    decay_mult: 1
  }
  param {
    lr_mult: 2
    decay_mult: 0
  }
  convolution_param {
    num_output: 64
    pad: 1
    kernel_size: 3
    weight_filler {
      type: "xavier"
    }
    bias_filler {
      type: "constant"
    }
  }
}
layer {
  name: "relu2_1"
  type: "ReLU"
  bottom: "conv2_1"
  top: "conv2_1"
}
layer {
  name: "conv2_2"
  type: "Convolution"
  bottom: "conv2_1"
  top: "conv2_2"
  param {
    lr_mult: 1
    decay_mult: 1
  }
  param {
    lr_mult: 2
    decay_mult: 0
  }
  convolution_param {
    num_output: 64
    pad: 1
    kernel_size: 3
    weight_filler {
      type: "xavier"
    }
    bias_filler {
      type: "constant"
    }
  }
}
layer {
  name: "relu2_2"
  type: "ReLU"
  bottom: "conv2_2"
  top: "conv2_2"
}
layer {
  name: "pool2"
  type: "Pooling"
  bottom: "conv2_2"
  top: "pool2"
  pooling_param {
    pool: MAX
    kernel_size: 3
    stride: 2
    pad: 1
  }
}
layer {
  name: "norm2"
  type: "LRN"
  bottom: "pool2"
  top: "norm2"
  lrn_param {
    local_size: 5
    alpha: 0.0001
    beta: 0.75
  }
}
layer {
  name: "fc3"
  type: "InnerProduct"
  bottom: "norm2"
  top: "fc3"
  param {
    lr_mult: 1
    decay_mult: 1
  }
  param {
    lr_mult: 2
    decay_mult: 0
  }
  inner_product_param {
    num_output: 256
    weight_filler {
      type: "xavier"
    }
    bias_filler {
      type: "constant"
    }
  }
}
layer {
  name: "relu3"
  type: "ReLU"
  bottom: "fc3"
  top: "fc3"
}
layer {
  name: "drop3"
  type: "Dropout"
  bottom: "fc3"
  top: "fc3"
  dropout_param {
    dropout_ratio: 0.5
  }
}
layer {
  name: "fc4"
  type: "InnerProduct"
  bottom: "fc3"
  top: "fc4"
  param {
    lr_mult: 1
    decay_mult: 250
  }
  param {
    lr_mult: 2
    decay_mult: 0
  }
  inner_product_param {
    num_output: 2
    weight_filler {
      type: "xavier"
    }
    bias_filler {
      type: "constant"
      value: 0
    }
  }
}
layer {
  name: "accuracy"
  type: "Accuracy"
  bottom: "fc4"
  bottom: "label"
  top: "accuracy"
}
I0520 18:33:07.990242 11440 layer_factory.hpp:77] Creating layer data
I0520 18:33:07.990278 11440 db_lmdb.cpp:35] Opened lmdb /home/work/qinhuan/mywork/license_plate/data/lmdb/license_val_48c_lmdb
I0520 18:33:07.990289 11440 net.cpp:84] Creating Layer data
I0520 18:33:07.990293 11440 net.cpp:380] data -> data
I0520 18:33:07.990298 11440 net.cpp:380] data -> label
I0520 18:33:07.990303 11440 data_transformer.cpp:25] Loading mean file from: /home/work/qinhuan/mywork/license_plate/data/lmdb/license_train_48c_imagenet_mean.binaryproto
I0520 18:33:07.991134 11440 data_layer.cpp:45] output data size: 50,3,24,72
I0520 18:33:07.996321 11440 net.cpp:122] Setting up data
I0520 18:33:07.996335 11440 net.cpp:129] Top shape: 50 3 24 72 (259200)
I0520 18:33:07.996340 11440 net.cpp:129] Top shape: 50 (50)
I0520 18:33:07.996341 11440 net.cpp:137] Memory required for data: 1037000
I0520 18:33:07.996345 11440 layer_factory.hpp:77] Creating layer conv1_1
I0520 18:33:07.996353 11440 net.cpp:84] Creating Layer conv1_1
I0520 18:33:07.996356 11440 net.cpp:406] conv1_1 <- data
I0520 18:33:07.996361 11440 net.cpp:380] conv1_1 -> conv1_1
I0520 18:33:07.997496 11440 net.cpp:122] Setting up conv1_1
I0520 18:33:07.997505 11440 net.cpp:129] Top shape: 50 64 24 72 (5529600)
I0520 18:33:07.997509 11440 net.cpp:137] Memory required for data: 23155400
I0520 18:33:07.997515 11440 layer_factory.hpp:77] Creating layer relu1_1
I0520 18:33:07.997520 11440 net.cpp:84] Creating Layer relu1_1
I0520 18:33:07.997524 11440 net.cpp:406] relu1_1 <- conv1_1
I0520 18:33:07.997526 11440 net.cpp:367] relu1_1 -> conv1_1 (in-place)
I0520 18:33:07.997619 11440 net.cpp:122] Setting up relu1_1
I0520 18:33:07.997628 11440 net.cpp:129] Top shape: 50 64 24 72 (5529600)
I0520 18:33:07.997632 11440 net.cpp:137] Memory required for data: 45273800
I0520 18:33:07.997633 11440 layer_factory.hpp:77] Creating layer conv1_2
I0520 18:33:07.997640 11440 net.cpp:84] Creating Layer conv1_2
I0520 18:33:07.997643 11440 net.cpp:406] conv1_2 <- conv1_1
I0520 18:33:07.997648 11440 net.cpp:380] conv1_2 -> conv1_2
I0520 18:33:07.999857 11440 net.cpp:122] Setting up conv1_2
I0520 18:33:07.999869 11440 net.cpp:129] Top shape: 50 64 24 72 (5529600)
I0520 18:33:07.999872 11440 net.cpp:137] Memory required for data: 67392200
I0520 18:33:07.999878 11440 layer_factory.hpp:77] Creating layer relu1_2
I0520 18:33:07.999883 11440 net.cpp:84] Creating Layer relu1_2
I0520 18:33:07.999886 11440 net.cpp:406] relu1_2 <- conv1_2
I0520 18:33:07.999891 11440 net.cpp:367] relu1_2 -> conv1_2 (in-place)
I0520 18:33:08.000612 11440 net.cpp:122] Setting up relu1_2
I0520 18:33:08.000622 11440 net.cpp:129] Top shape: 50 64 24 72 (5529600)
I0520 18:33:08.000624 11440 net.cpp:137] Memory required for data: 89510600
I0520 18:33:08.000627 11440 layer_factory.hpp:77] Creating layer pool1
I0520 18:33:08.000633 11440 net.cpp:84] Creating Layer pool1
I0520 18:33:08.000634 11440 net.cpp:406] pool1 <- conv1_2
I0520 18:33:08.000638 11440 net.cpp:380] pool1 -> pool1
I0520 18:33:08.000679 11440 net.cpp:122] Setting up pool1
I0520 18:33:08.000682 11440 net.cpp:129] Top shape: 50 64 13 37 (1539200)
I0520 18:33:08.000685 11440 net.cpp:137] Memory required for data: 95667400
I0520 18:33:08.000689 11440 layer_factory.hpp:77] Creating layer norm1
I0520 18:33:08.000692 11440 net.cpp:84] Creating Layer norm1
I0520 18:33:08.000695 11440 net.cpp:406] norm1 <- pool1
I0520 18:33:08.000699 11440 net.cpp:380] norm1 -> norm1
I0520 18:33:08.001258 11440 net.cpp:122] Setting up norm1
I0520 18:33:08.001266 11440 net.cpp:129] Top shape: 50 64 13 37 (1539200)
I0520 18:33:08.001269 11440 net.cpp:137] Memory required for data: 101824200
I0520 18:33:08.001272 11440 layer_factory.hpp:77] Creating layer conv2_1
I0520 18:33:08.001279 11440 net.cpp:84] Creating Layer conv2_1
I0520 18:33:08.001282 11440 net.cpp:406] conv2_1 <- norm1
I0520 18:33:08.001286 11440 net.cpp:380] conv2_1 -> conv2_1
I0520 18:33:08.002573 11440 net.cpp:122] Setting up conv2_1
I0520 18:33:08.002580 11440 net.cpp:129] Top shape: 50 64 13 37 (1539200)
I0520 18:33:08.002583 11440 net.cpp:137] Memory required for data: 107981000
I0520 18:33:08.002589 11440 layer_factory.hpp:77] Creating layer relu2_1
I0520 18:33:08.002594 11440 net.cpp:84] Creating Layer relu2_1
I0520 18:33:08.002600 11440 net.cpp:406] relu2_1 <- conv2_1
I0520 18:33:08.002604 11440 net.cpp:367] relu2_1 -> conv2_1 (in-place)
I0520 18:33:08.003132 11440 net.cpp:122] Setting up relu2_1
I0520 18:33:08.003140 11440 net.cpp:129] Top shape: 50 64 13 37 (1539200)
I0520 18:33:08.003144 11440 net.cpp:137] Memory required for data: 114137800
I0520 18:33:08.003146 11440 layer_factory.hpp:77] Creating layer conv2_2
I0520 18:33:08.003152 11440 net.cpp:84] Creating Layer conv2_2
I0520 18:33:08.003155 11440 net.cpp:406] conv2_2 <- conv2_1
I0520 18:33:08.003160 11440 net.cpp:380] conv2_2 -> conv2_2
I0520 18:33:08.005353 11440 net.cpp:122] Setting up conv2_2
I0520 18:33:08.005364 11440 net.cpp:129] Top shape: 50 64 13 37 (1539200)
I0520 18:33:08.005367 11440 net.cpp:137] Memory required for data: 120294600
I0520 18:33:08.005373 11440 layer_factory.hpp:77] Creating layer relu2_2
I0520 18:33:08.005376 11440 net.cpp:84] Creating Layer relu2_2
I0520 18:33:08.005379 11440 net.cpp:406] relu2_2 <- conv2_2
I0520 18:33:08.005384 11440 net.cpp:367] relu2_2 -> conv2_2 (in-place)
I0520 18:33:08.005494 11440 net.cpp:122] Setting up relu2_2
I0520 18:33:08.005501 11440 net.cpp:129] Top shape: 50 64 13 37 (1539200)
I0520 18:33:08.005502 11440 net.cpp:137] Memory required for data: 126451400
I0520 18:33:08.005506 11440 layer_factory.hpp:77] Creating layer pool2
I0520 18:33:08.005509 11440 net.cpp:84] Creating Layer pool2
I0520 18:33:08.005512 11440 net.cpp:406] pool2 <- conv2_2
I0520 18:33:08.005518 11440 net.cpp:380] pool2 -> pool2
I0520 18:33:08.005560 11440 net.cpp:122] Setting up pool2
I0520 18:33:08.005565 11440 net.cpp:129] Top shape: 50 64 7 19 (425600)
I0520 18:33:08.005568 11440 net.cpp:137] Memory required for data: 128153800
I0520 18:33:08.005569 11440 layer_factory.hpp:77] Creating layer norm2
I0520 18:33:08.005574 11440 net.cpp:84] Creating Layer norm2
I0520 18:33:08.005578 11440 net.cpp:406] norm2 <- pool2
I0520 18:33:08.005580 11440 net.cpp:380] norm2 -> norm2
I0520 18:33:08.005710 11440 net.cpp:122] Setting up norm2
I0520 18:33:08.005715 11440 net.cpp:129] Top shape: 50 64 7 19 (425600)
I0520 18:33:08.005718 11440 net.cpp:137] Memory required for data: 129856200
I0520 18:33:08.005720 11440 layer_factory.hpp:77] Creating layer fc3
I0520 18:33:08.005725 11440 net.cpp:84] Creating Layer fc3
I0520 18:33:08.005728 11440 net.cpp:406] fc3 <- norm2
I0520 18:33:08.005733 11440 net.cpp:380] fc3 -> fc3
I0520 18:33:08.014129 11440 net.cpp:122] Setting up fc3
I0520 18:33:08.014153 11440 net.cpp:129] Top shape: 50 256 (12800)
I0520 18:33:08.014155 11440 net.cpp:137] Memory required for data: 129907400
I0520 18:33:08.014165 11440 layer_factory.hpp:77] Creating layer relu3
I0520 18:33:08.014173 11440 net.cpp:84] Creating Layer relu3
I0520 18:33:08.014176 11440 net.cpp:406] relu3 <- fc3
I0520 18:33:08.014180 11440 net.cpp:367] relu3 -> fc3 (in-place)
I0520 18:33:08.014322 11440 net.cpp:122] Setting up relu3
I0520 18:33:08.014327 11440 net.cpp:129] Top shape: 50 256 (12800)
I0520 18:33:08.014329 11440 net.cpp:137] Memory required for data: 129958600
I0520 18:33:08.014333 11440 layer_factory.hpp:77] Creating layer drop3
I0520 18:33:08.014338 11440 net.cpp:84] Creating Layer drop3
I0520 18:33:08.014339 11440 net.cpp:406] drop3 <- fc3
I0520 18:33:08.014344 11440 net.cpp:367] drop3 -> fc3 (in-place)
I0520 18:33:08.014369 11440 net.cpp:122] Setting up drop3
I0520 18:33:08.014374 11440 net.cpp:129] Top shape: 50 256 (12800)
I0520 18:33:08.014375 11440 net.cpp:137] Memory required for data: 130009800
I0520 18:33:08.014379 11440 layer_factory.hpp:77] Creating layer fc4
I0520 18:33:08.014385 11440 net.cpp:84] Creating Layer fc4
I0520 18:33:08.014387 11440 net.cpp:406] fc4 <- fc3
I0520 18:33:08.014391 11440 net.cpp:380] fc4 -> fc4
I0520 18:33:08.014503 11440 net.cpp:122] Setting up fc4
I0520 18:33:08.014508 11440 net.cpp:129] Top shape: 50 2 (100)
I0520 18:33:08.014510 11440 net.cpp:137] Memory required for data: 130010200
I0520 18:33:08.014515 11440 layer_factory.hpp:77] Creating layer accuracy
I0520 18:33:08.014519 11440 net.cpp:84] Creating Layer accuracy
I0520 18:33:08.014523 11440 net.cpp:406] accuracy <- fc4
I0520 18:33:08.014525 11440 net.cpp:406] accuracy <- label
I0520 18:33:08.014528 11440 net.cpp:380] accuracy -> accuracy
…
