…
I0515 10:14:28.164798 28477 solver.cpp:77] Creating training net from train_net file: /home/work/qinhuan/mywork/license_plate/cascadeCNN_license_plate_detection/train_net/jobs/license_48cal/train.prototxt
I0515 10:14:28.165050 28477 net.cpp:51] Initializing net from parameters: 
name: "license_48cal_train"
state {
  phase: TRAIN
}
layer {
  name: "data"
  type: "Data"
  top: "data"
  top: "label"
  transform_param {
    mirror: false
    mean_file: "/home/work/qinhuan/mywork/license_plate/data/lmdb/license_train_24cal_imagenet_mean.binaryproto"
  }
  data_param {
    source: "/home/work/qinhuan/mywork/license_plate/data/lmdb/license_train_24cal_lmdb"
    batch_size: 128
    backend: LMDB
  }
}
layer {
  name: "conv1"
  type: "Convolution"
  bottom: "data"
  top: "conv1"
  param {
    lr_mult: 1
  }
  param {
    lr_mult: 2
  }
  convolution_param {
    num_output: 64
    pad: 2
    kernel_size: 5
    weight_filler {
      type: "gaussian"
      std: 0.0001
    }
    bias_filler {
      type: "constant"
    }
  }
}
layer {
  name: "relu1"
  type: "ReLU"
  bottom: "conv1"
  top: "conv1"
}
layer {
  name: "pool1"
  type: "Pooling"
  bottom: "conv1"
  top: "pool1"
  pooling_param {
    pool: MAX
    kernel_size: 3
    stride: 2
    pad: 1
  }
}
layer {
  name: "norm1"
  type: "LRN"
  bottom: "pool1"
  top: "norm1"
  lrn_param {
    local_size: 5
    alpha: 5e-05
    beta: 0.75
    norm_region: WITHIN_CHANNEL
  }
}
layer {
  name: "conv2"
  type: "Convolution"
  bottom: "norm1"
  top: "conv2"
  param {
    lr_mult: 1
  }
  param {
    lr_mult: 2
  }
  convolution_param {
    num_output: 64
    pad: 2
    kernel_size: 5
    weight_filler {
      type: "gaussian"
      std: 0.01
    }
    bias_filler {
      type: "constant"
    }
  }
}
layer {
  name: "relu2"
  type: "ReLU"
  bottom: "conv2"
  top: "conv2"
}
layer {
  name: "pool2"
  type: "Pooling"
  bottom: "conv2"
  top: "pool2"
  pooling_param {
    pool: MAX
    kernel_size: 3
    stride: 2
    pad: 1
  }
}
layer {
  name: "norm2"
  type: "LRN"
  bottom: "pool2"
  top: "norm2"
  lrn_param {
    local_size: 5
    alpha: 5e-05
    beta: 0.75
    norm_region: WITHIN_CHANNEL
  }
}
layer {
  name: "fc3"
  type: "InnerProduct"
  bottom: "norm2"
  top: "fc3"
  param {
    lr_mult: 1
    decay_mult: 1
  }
  param {
    lr_mult: 2
    decay_mult: 0
  }
  inner_product_param {
    num_output: 256
    weight_filler {
      type: "gaussian"
      std: 0.005
    }
    bias_filler {
      type: "constant"
    }
  }
}
layer {
  name: "relu3"
  type: "ReLU"
  bottom: "fc3"
  top: "fc3"
}
layer {
  name: "drop3"
  type: "Dropout"
  bottom: "fc3"
  top: "fc3"
  dropout_param {
    dropout_ratio: 0.5
  }
}
layer {
  name: "fc4"
  type: "InnerProduct"
  bottom: "fc3"
  top: "fc4"
  param {
    lr_mult: 1
    decay_mult: 250
  }
  param {
    lr_mult: 2
    decay_mult: 0
  }
  inner_product_param {
    num_output: 45
    weight_filler {
      type: "gaussian"
      std: 0.01
    }
    bias_filler {
      type: "constant"
      value: 0
    }
  }
}
layer {
  name: "loss"
  type: "SoftmaxWithLoss"
  bottom: "fc4"
  bottom: "label"
  top: "loss"
}
I0515 10:14:28.165086 28477 layer_factory.hpp:77] Creating layer data
I0515 10:14:28.165120 28477 db_lmdb.cpp:35] Opened lmdb /home/work/qinhuan/mywork/license_plate/data/lmdb/license_train_24cal_lmdb
I0515 10:14:28.165135 28477 net.cpp:84] Creating Layer data
I0515 10:14:28.165141 28477 net.cpp:380] data -> data
I0515 10:14:28.165148 28477 net.cpp:380] data -> label
I0515 10:14:28.165154 28477 data_transformer.cpp:25] Loading mean file from: /home/work/qinhuan/mywork/license_plate/data/lmdb/license_train_24cal_imagenet_mean.binaryproto
I0515 10:14:28.166733 28477 data_layer.cpp:45] output data size: 128,3,24,72
I0515 10:14:28.175550 28477 net.cpp:122] Setting up data
I0515 10:14:28.175570 28477 net.cpp:129] Top shape: 128 3 24 72 (663552)
I0515 10:14:28.175575 28477 net.cpp:129] Top shape: 128 (128)
I0515 10:14:28.175577 28477 net.cpp:137] Memory required for data: 2654720
I0515 10:14:28.175582 28477 layer_factory.hpp:77] Creating layer conv1
I0515 10:14:28.175597 28477 net.cpp:84] Creating Layer conv1
I0515 10:14:28.175601 28477 net.cpp:406] conv1 <- data
I0515 10:14:28.175606 28477 net.cpp:380] conv1 -> conv1
I0515 10:14:28.359062 28477 net.cpp:122] Setting up conv1
I0515 10:14:28.359084 28477 net.cpp:129] Top shape: 128 64 24 72 (14155776)
I0515 10:14:28.359087 28477 net.cpp:137] Memory required for data: 59277824
I0515 10:14:28.359098 28477 layer_factory.hpp:77] Creating layer relu1
I0515 10:14:28.359107 28477 net.cpp:84] Creating Layer relu1
I0515 10:14:28.359109 28477 net.cpp:406] relu1 <- conv1
I0515 10:14:28.359113 28477 net.cpp:367] relu1 -> conv1 (in-place)
I0515 10:14:28.359220 28477 net.cpp:122] Setting up relu1
I0515 10:14:28.359225 28477 net.cpp:129] Top shape: 128 64 24 72 (14155776)
I0515 10:14:28.359228 28477 net.cpp:137] Memory required for data: 115900928
I0515 10:14:28.359230 28477 layer_factory.hpp:77] Creating layer pool1
I0515 10:14:28.359236 28477 net.cpp:84] Creating Layer pool1
I0515 10:14:28.359238 28477 net.cpp:406] pool1 <- conv1
I0515 10:14:28.359241 28477 net.cpp:380] pool1 -> pool1
I0515 10:14:28.359280 28477 net.cpp:122] Setting up pool1
I0515 10:14:28.359285 28477 net.cpp:129] Top shape: 128 64 13 37 (3940352)
I0515 10:14:28.359287 28477 net.cpp:137] Memory required for data: 131662336
I0515 10:14:28.359290 28477 layer_factory.hpp:77] Creating layer norm1
I0515 10:14:28.359295 28477 net.cpp:84] Creating Layer norm1
I0515 10:14:28.359298 28477 net.cpp:406] norm1 <- pool1
I0515 10:14:28.359302 28477 net.cpp:380] norm1 -> norm1
I0515 10:14:28.360630 28477 net.cpp:122] Setting up norm1
I0515 10:14:28.360640 28477 net.cpp:129] Top shape: 128 64 13 37 (3940352)
I0515 10:14:28.360642 28477 net.cpp:137] Memory required for data: 147423744
I0515 10:14:28.360646 28477 layer_factory.hpp:77] Creating layer conv2
I0515 10:14:28.360652 28477 net.cpp:84] Creating Layer conv2
I0515 10:14:28.360656 28477 net.cpp:406] conv2 <- norm1
I0515 10:14:28.360659 28477 net.cpp:380] conv2 -> conv2
I0515 10:14:28.364934 28477 net.cpp:122] Setting up conv2
I0515 10:14:28.364945 28477 net.cpp:129] Top shape: 128 64 13 37 (3940352)
I0515 10:14:28.364948 28477 net.cpp:137] Memory required for data: 163185152
I0515 10:14:28.364955 28477 layer_factory.hpp:77] Creating layer relu2
I0515 10:14:28.364960 28477 net.cpp:84] Creating Layer relu2
I0515 10:14:28.364964 28477 net.cpp:406] relu2 <- conv2
I0515 10:14:28.364967 28477 net.cpp:367] relu2 -> conv2 (in-place)
I0515 10:14:28.365080 28477 net.cpp:122] Setting up relu2
I0515 10:14:28.365087 28477 net.cpp:129] Top shape: 128 64 13 37 (3940352)
I0515 10:14:28.365088 28477 net.cpp:137] Memory required for data: 178946560
I0515 10:14:28.365092 28477 layer_factory.hpp:77] Creating layer pool2
I0515 10:14:28.365095 28477 net.cpp:84] Creating Layer pool2
I0515 10:14:28.365097 28477 net.cpp:406] pool2 <- conv2
I0515 10:14:28.365101 28477 net.cpp:380] pool2 -> pool2
I0515 10:14:28.365139 28477 net.cpp:122] Setting up pool2
I0515 10:14:28.365144 28477 net.cpp:129] Top shape: 128 64 7 19 (1089536)
I0515 10:14:28.365146 28477 net.cpp:137] Memory required for data: 183304704
I0515 10:14:28.365149 28477 layer_factory.hpp:77] Creating layer norm2
I0515 10:14:28.365154 28477 net.cpp:84] Creating Layer norm2
I0515 10:14:28.365156 28477 net.cpp:406] norm2 <- pool2
I0515 10:14:28.365160 28477 net.cpp:380] norm2 -> norm2
I0515 10:14:28.366107 28477 net.cpp:122] Setting up norm2
I0515 10:14:28.366119 28477 net.cpp:129] Top shape: 128 64 7 19 (1089536)
I0515 10:14:28.366123 28477 net.cpp:137] Memory required for data: 187662848
I0515 10:14:28.366125 28477 layer_factory.hpp:77] Creating layer fc3
I0515 10:14:28.366130 28477 net.cpp:84] Creating Layer fc3
I0515 10:14:28.366133 28477 net.cpp:406] fc3 <- norm2
I0515 10:14:28.366138 28477 net.cpp:380] fc3 -> fc3
I0515 10:14:28.403560 28477 net.cpp:122] Setting up fc3
I0515 10:14:28.403584 28477 net.cpp:129] Top shape: 128 256 (32768)
I0515 10:14:28.403587 28477 net.cpp:137] Memory required for data: 187793920
I0515 10:14:28.403596 28477 layer_factory.hpp:77] Creating layer relu3
I0515 10:14:28.403604 28477 net.cpp:84] Creating Layer relu3
I0515 10:14:28.403607 28477 net.cpp:406] relu3 <- fc3
I0515 10:14:28.403612 28477 net.cpp:367] relu3 -> fc3 (in-place)
I0515 10:14:28.403764 28477 net.cpp:122] Setting up relu3
I0515 10:14:28.403769 28477 net.cpp:129] Top shape: 128 256 (32768)
I0515 10:14:28.403771 28477 net.cpp:137] Memory required for data: 187924992
I0515 10:14:28.403774 28477 layer_factory.hpp:77] Creating layer drop3
I0515 10:14:28.403779 28477 net.cpp:84] Creating Layer drop3
I0515 10:14:28.403780 28477 net.cpp:406] drop3 <- fc3
I0515 10:14:28.403784 28477 net.cpp:367] drop3 -> fc3 (in-place)
I0515 10:14:28.403805 28477 net.cpp:122] Setting up drop3
I0515 10:14:28.403810 28477 net.cpp:129] Top shape: 128 256 (32768)
I0515 10:14:28.403811 28477 net.cpp:137] Memory required for data: 188056064
I0515 10:14:28.403813 28477 layer_factory.hpp:77] Creating layer fc4
I0515 10:14:28.403820 28477 net.cpp:84] Creating Layer fc4
I0515 10:14:28.403822 28477 net.cpp:406] fc4 <- fc3
I0515 10:14:28.403825 28477 net.cpp:380] fc4 -> fc4
I0515 10:14:28.404129 28477 net.cpp:122] Setting up fc4
I0515 10:14:28.404132 28477 net.cpp:129] Top shape: 128 45 (5760)
I0515 10:14:28.404135 28477 net.cpp:137] Memory required for data: 188079104
I0515 10:14:28.404139 28477 layer_factory.hpp:77] Creating layer loss
I0515 10:14:28.404144 28477 net.cpp:84] Creating Layer loss
I0515 10:14:28.404146 28477 net.cpp:406] loss <- fc4
I0515 10:14:28.404150 28477 net.cpp:406] loss <- label
I0515 10:14:28.404152 28477 net.cpp:380] loss -> loss
I0515 10:14:28.404158 28477 layer_factory.hpp:77] Creating layer loss
…
I0515 10:14:28.405097 28477 solver.cpp:172] Creating test net (#0) specified by test_net file: /home/work/qinhuan/mywork/license_plate/cascadeCNN_license_plate_detection/train_net/jobs/license_48cal/test.prototxt
I0515 10:14:28.405175 28477 net.cpp:51] Initializing net from parameters: 
name: "license_48cal_test"
state {
  phase: TEST
}
layer {
  name: "data"
  type: "Data"
  top: "data"
  top: "label"
  transform_param {
    mean_file: "/home/work/qinhuan/mywork/license_plate/data/lmdb/license_train_24cal_imagenet_mean.binaryproto"
  }
  data_param {
    source: "/home/work/qinhuan/mywork/license_plate/data/lmdb/license_val_24cal_lmdb"
    batch_size: 50
    backend: LMDB
  }
}
layer {
  name: "conv1"
  type: "Convolution"
  bottom: "data"
  top: "conv1"
  param {
    lr_mult: 1
  }
  param {
    lr_mult: 2
  }
  convolution_param {
    num_output: 64
    pad: 2
    kernel_size: 5
    weight_filler {
      type: "gaussian"
      std: 0.0001
    }
    bias_filler {
      type: "constant"
    }
  }
}
layer {
  name: "relu1"
  type: "ReLU"
  bottom: "conv1"
  top: "conv1"
}
layer {
  name: "pool1"
  type: "Pooling"
  bottom: "conv1"
  top: "pool1"
  pooling_param {
    pool: MAX
    kernel_size: 3
    stride: 2
    pad: 1
  }
}
layer {
  name: "norm1"
  type: "LRN"
  bottom: "pool1"
  top: "norm1"
  lrn_param {
    local_size: 5
    alpha: 5e-05
    beta: 0.75
    norm_region: WITHIN_CHANNEL
  }
}
layer {
  name: "conv2"
  type: "Convolution"
  bottom: "norm1"
  top: "conv2"
  param {
    lr_mult: 1
  }
  param {
    lr_mult: 2
  }
  convolution_param {
    num_output: 64
    pad: 2
    kernel_size: 5
    weight_filler {
      type: "gaussian"
      std: 0.01
    }
    bias_filler {
      type: "constant"
    }
  }
}
layer {
  name: "relu2"
  type: "ReLU"
  bottom: "conv2"
  top: "conv2"
}
layer {
  name: "pool2"
  type: "Pooling"
  bottom: "conv2"
  top: "pool2"
  pooling_param {
    pool: MAX
    kernel_size: 3
    stride: 2
    pad: 1
  }
}
layer {
  name: "norm2"
  type: "LRN"
  bottom: "pool2"
  top: "norm2"
  lrn_param {
    local_size: 5
    alpha: 5e-05
    beta: 0.75
    norm_region: WITHIN_CHANNEL
  }
}
layer {
  name: "fc3"
  type: "InnerProduct"
  bottom: "norm2"
  top: "fc3"
  param {
    lr_mult: 1
    decay_mult: 1
  }
  param {
    lr_mult: 2
    decay_mult: 0
  }
  inner_product_param {
    num_output: 256
    weight_filler {
      type: "gaussian"
      std: 0.005
    }
    bias_filler {
      type: "constant"
    }
  }
}
layer {
  name: "relu3"
  type: "ReLU"
  bottom: "fc3"
  top: "fc3"
}
layer {
  name: "drop3"
  type: "Dropout"
  bottom: "fc3"
  top: "fc3"
  dropout_param {
    dropout_ratio: 0.5
  }
}
layer {
  name: "fc4"
  type: "InnerProduct"
  bottom: "fc3"
  top: "fc4"
  param {
    lr_mult: 1
    decay_mult: 250
  }
  param {
    lr_mult: 2
    decay_mult: 0
  }
  inner_product_param {
    num_output: 45
    weight_filler {
      type: "gaussian"
      std: 0.01
    }
    bias_filler {
      type: "constant"
      value: 0
    }
  }
}
layer {
  name: "accuracy"
  type: "Accuracy"
  bottom: "fc4"
  bottom: "label"
  top: "accuracy"
}
I0515 10:14:28.405211 28477 layer_factory.hpp:77] Creating layer data
I0515 10:14:28.405243 28477 db_lmdb.cpp:35] Opened lmdb /home/work/qinhuan/mywork/license_plate/data/lmdb/license_val_24cal_lmdb
I0515 10:14:28.405256 28477 net.cpp:84] Creating Layer data
I0515 10:14:28.405259 28477 net.cpp:380] data -> data
I0515 10:14:28.405264 28477 net.cpp:380] data -> label
I0515 10:14:28.405269 28477 data_transformer.cpp:25] Loading mean file from: /home/work/qinhuan/mywork/license_plate/data/lmdb/license_train_24cal_imagenet_mean.binaryproto
I0515 10:14:28.405411 28477 data_layer.cpp:45] output data size: 50,3,24,72
I0515 10:14:28.408594 28477 net.cpp:122] Setting up data
I0515 10:14:28.408612 28477 net.cpp:129] Top shape: 50 3 24 72 (259200)
I0515 10:14:28.408617 28477 net.cpp:129] Top shape: 50 (50)
I0515 10:14:28.408618 28477 net.cpp:137] Memory required for data: 1037000
I0515 10:14:28.408623 28477 layer_factory.hpp:77] Creating layer conv1
I0515 10:14:28.408635 28477 net.cpp:84] Creating Layer conv1
I0515 10:14:28.408638 28477 net.cpp:406] conv1 <- data
I0515 10:14:28.408646 28477 net.cpp:380] conv1 -> conv1
I0515 10:14:28.409404 28477 net.cpp:122] Setting up conv1
I0515 10:14:28.409413 28477 net.cpp:129] Top shape: 50 64 24 72 (5529600)
I0515 10:14:28.409416 28477 net.cpp:137] Memory required for data: 23155400
I0515 10:14:28.409427 28477 layer_factory.hpp:77] Creating layer relu1
I0515 10:14:28.409432 28477 net.cpp:84] Creating Layer relu1
I0515 10:14:28.409435 28477 net.cpp:406] relu1 <- conv1
I0515 10:14:28.409440 28477 net.cpp:367] relu1 -> conv1 (in-place)
I0515 10:14:28.410344 28477 net.cpp:122] Setting up relu1
I0515 10:14:28.410354 28477 net.cpp:129] Top shape: 50 64 24 72 (5529600)
I0515 10:14:28.410358 28477 net.cpp:137] Memory required for data: 45273800
I0515 10:14:28.410362 28477 layer_factory.hpp:77] Creating layer pool1
I0515 10:14:28.410367 28477 net.cpp:84] Creating Layer pool1
I0515 10:14:28.410370 28477 net.cpp:406] pool1 <- conv1
I0515 10:14:28.410373 28477 net.cpp:380] pool1 -> pool1
I0515 10:14:28.410416 28477 net.cpp:122] Setting up pool1
I0515 10:14:28.410421 28477 net.cpp:129] Top shape: 50 64 13 37 (1539200)
I0515 10:14:28.410424 28477 net.cpp:137] Memory required for data: 51430600
I0515 10:14:28.410426 28477 layer_factory.hpp:77] Creating layer norm1
I0515 10:14:28.410432 28477 net.cpp:84] Creating Layer norm1
I0515 10:14:28.410435 28477 net.cpp:406] norm1 <- pool1
I0515 10:14:28.410439 28477 net.cpp:380] norm1 -> norm1
I0515 10:14:28.411427 28477 net.cpp:122] Setting up norm1
I0515 10:14:28.411435 28477 net.cpp:129] Top shape: 50 64 13 37 (1539200)
I0515 10:14:28.411438 28477 net.cpp:137] Memory required for data: 57587400
I0515 10:14:28.411440 28477 layer_factory.hpp:77] Creating layer conv2
I0515 10:14:28.411448 28477 net.cpp:84] Creating Layer conv2
I0515 10:14:28.411451 28477 net.cpp:406] conv2 <- norm1
I0515 10:14:28.411455 28477 net.cpp:380] conv2 -> conv2
I0515 10:14:28.414209 28477 net.cpp:122] Setting up conv2
I0515 10:14:28.414222 28477 net.cpp:129] Top shape: 50 64 13 37 (1539200)
I0515 10:14:28.414225 28477 net.cpp:137] Memory required for data: 63744200
I0515 10:14:28.414233 28477 layer_factory.hpp:77] Creating layer relu2
I0515 10:14:28.414238 28477 net.cpp:84] Creating Layer relu2
I0515 10:14:28.414242 28477 net.cpp:406] relu2 <- conv2
I0515 10:14:28.414245 28477 net.cpp:367] relu2 -> conv2 (in-place)
I0515 10:14:28.414355 28477 net.cpp:122] Setting up relu2
I0515 10:14:28.414361 28477 net.cpp:129] Top shape: 50 64 13 37 (1539200)
I0515 10:14:28.414363 28477 net.cpp:137] Memory required for data: 69901000
I0515 10:14:28.414366 28477 layer_factory.hpp:77] Creating layer pool2
I0515 10:14:28.414371 28477 net.cpp:84] Creating Layer pool2
I0515 10:14:28.414373 28477 net.cpp:406] pool2 <- conv2
I0515 10:14:28.414377 28477 net.cpp:380] pool2 -> pool2
I0515 10:14:28.414417 28477 net.cpp:122] Setting up pool2
I0515 10:14:28.414423 28477 net.cpp:129] Top shape: 50 64 7 19 (425600)
I0515 10:14:28.414425 28477 net.cpp:137] Memory required for data: 71603400
I0515 10:14:28.414428 28477 layer_factory.hpp:77] Creating layer norm2
I0515 10:14:28.414434 28477 net.cpp:84] Creating Layer norm2
I0515 10:14:28.414436 28477 net.cpp:406] norm2 <- pool2
I0515 10:14:28.414440 28477 net.cpp:380] norm2 -> norm2
I0515 10:14:28.415745 28477 net.cpp:122] Setting up norm2
I0515 10:14:28.415755 28477 net.cpp:129] Top shape: 50 64 7 19 (425600)
I0515 10:14:28.415758 28477 net.cpp:137] Memory required for data: 73305800
I0515 10:14:28.415761 28477 layer_factory.hpp:77] Creating layer fc3
I0515 10:14:28.415767 28477 net.cpp:84] Creating Layer fc3
I0515 10:14:28.415771 28477 net.cpp:406] fc3 <- norm2
I0515 10:14:28.415774 28477 net.cpp:380] fc3 -> fc3
I0515 10:14:28.453284 28477 net.cpp:122] Setting up fc3
I0515 10:14:28.453308 28477 net.cpp:129] Top shape: 50 256 (12800)
I0515 10:14:28.453312 28477 net.cpp:137] Memory required for data: 73357000
I0515 10:14:28.453321 28477 layer_factory.hpp:77] Creating layer relu3
I0515 10:14:28.453328 28477 net.cpp:84] Creating Layer relu3
I0515 10:14:28.453332 28477 net.cpp:406] relu3 <- fc3
I0515 10:14:28.453337 28477 net.cpp:367] relu3 -> fc3 (in-place)
I0515 10:14:28.453961 28477 net.cpp:122] Setting up relu3
I0515 10:14:28.453970 28477 net.cpp:129] Top shape: 50 256 (12800)
I0515 10:14:28.453974 28477 net.cpp:137] Memory required for data: 73408200
I0515 10:14:28.453980 28477 layer_factory.hpp:77] Creating layer drop3
I0515 10:14:28.453986 28477 net.cpp:84] Creating Layer drop3
I0515 10:14:28.453989 28477 net.cpp:406] drop3 <- fc3
I0515 10:14:28.453994 28477 net.cpp:367] drop3 -> fc3 (in-place)
I0515 10:14:28.454023 28477 net.cpp:122] Setting up drop3
I0515 10:14:28.454028 28477 net.cpp:129] Top shape: 50 256 (12800)
I0515 10:14:28.454031 28477 net.cpp:137] Memory required for data: 73459400
I0515 10:14:28.454033 28477 layer_factory.hpp:77] Creating layer fc4
I0515 10:14:28.454038 28477 net.cpp:84] Creating Layer fc4
I0515 10:14:28.454041 28477 net.cpp:406] fc4 <- fc3
I0515 10:14:28.454046 28477 net.cpp:380] fc4 -> fc4
I0515 10:14:28.454355 28477 net.cpp:122] Setting up fc4
I0515 10:14:28.454360 28477 net.cpp:129] Top shape: 50 45 (2250)
I0515 10:14:28.454361 28477 net.cpp:137] Memory required for data: 73468400
I0515 10:14:28.454365 28477 layer_factory.hpp:77] Creating layer accuracy
I0515 10:14:28.454370 28477 net.cpp:84] Creating Layer accuracy
I0515 10:14:28.454372 28477 net.cpp:406] accuracy <- fc4
I0515 10:14:28.454375 28477 net.cpp:406] accuracy <- label
I0515 10:14:28.454378 28477 net.cpp:380] accuracy -> accuracy
…
