…
I0524 10:41:48.849593 21627 solver.cpp:77] Creating training net from train_net file: /home/work/qinhuan/mywork/license_plate/cascadeCNN_license_plate_detection/train_net/jobs/license_48c_lmdb/train.prototxt
I0524 10:41:48.849910 21627 net.cpp:51] Initializing net from parameters: 
name: "license_48c_lmdb_train"
state {
  phase: TRAIN
}
layer {
  name: "data"
  type: "Data"
  top: "data"
  top: "label"
  transform_param {
    mirror: false
    mean_file: "/home/work/qinhuan/mywork/license_plate/data/lmdb/license_train_48c_imagenet_mean.binaryproto"
  }
  data_param {
    source: "/home/work/qinhuan/mywork/license_plate/data/lmdb/license_train_48c_lmdb"
    batch_size: 128
    backend: LMDB
  }
}
layer {
  name: "conv1_1"
  type: "Convolution"
  bottom: "data"
  top: "conv1_1"
  param {
    lr_mult: 1
    decay_mult: 1
  }
  param {
    lr_mult: 2
    decay_mult: 0
  }
  convolution_param {
    num_output: 64
    pad: 1
    kernel_size: 3
    weight_filler {
      type: "xavier"
    }
    bias_filler {
      type: "constant"
    }
  }
}
layer {
  name: "relu1_1"
  type: "ReLU"
  bottom: "conv1_1"
  top: "conv1_1"
}
layer {
  name: "conv1_2"
  type: "Convolution"
  bottom: "conv1_1"
  top: "conv1_2"
  param {
    lr_mult: 1
    decay_mult: 1
  }
  param {
    lr_mult: 2
    decay_mult: 0
  }
  convolution_param {
    num_output: 64
    pad: 1
    kernel_size: 3
    weight_filler {
      type: "xavier"
    }
    bias_filler {
      type: "constant"
    }
  }
}
layer {
  name: "relu1_2"
  type: "ReLU"
  bottom: "conv1_2"
  top: "conv1_2"
}
layer {
  name: "pool1"
  type: "Pooling"
  bottom: "conv1_2"
  top: "pool1"
  pooling_param {
    pool: MAX
    kernel_size: 3
    stride: 2
    pad: 1
  }
}
layer {
  name: "norm1"
  type: "LRN"
  bottom: "pool1"
  top: "norm1"
  lrn_param {
    local_size: 5
    alpha: 0.0001
    beta: 0.75
  }
}
layer {
  name: "conv2_1"
  type: "Convolution"
  bottom: "norm1"
  top: "conv2_1"
  param {
    lr_mult: 1
    decay_mult: 1
  }
  param {
    lr_mult: 2
    decay_mult: 0
  }
  convolution_param {
    num_output: 64
    pad: 1
    kernel_size: 3
    weight_filler {
      type: "xavier"
    }
    bias_filler {
      type: "constant"
    }
  }
}
layer {
  name: "relu2_1"
  type: "ReLU"
  bottom: "conv2_1"
  top: "conv2_1"
}
layer {
  name: "conv2_2"
  type: "Convolution"
  bottom: "conv2_1"
  top: "conv2_2"
  param {
    lr_mult: 1
    decay_mult: 1
  }
  param {
    lr_mult: 2
    decay_mult: 0
  }
  convolution_param {
    num_output: 64
    pad: 1
    kernel_size: 3
    weight_filler {
      type: "xavier"
    }
    bias_filler {
      type: "constant"
    }
  }
}
layer {
  name: "relu2_2"
  type: "ReLU"
  bottom: "conv2_2"
  top: "conv2_2"
}
layer {
  name: "pool2"
  type: "Pooling"
  bottom: "conv2_2"
  top: "pool2"
  pooling_param {
    pool: MAX
    kernel_size: 3
    stride: 2
    pad: 1
  }
}
layer {
  name: "norm2"
  type: "LRN"
  bottom: "pool2"
  top: "norm2"
  lrn_param {
    local_size: 5
    alpha: 0.0001
    beta: 0.75
  }
}
layer {
  name: "fc3"
  type: "InnerProduct"
  bottom: "norm2"
  top: "fc3"
  param {
    lr_mult: 1
    decay_mult: 1
  }
  param {
    lr_mult: 2
    decay_mult: 0
  }
  inner_product_param {
    num_output: 256
    weight_filler {
      type: "xavier"
    }
    bias_filler {
      type: "constant"
    }
  }
}
layer {
  name: "relu3"
  type: "ReLU"
  bottom: "fc3"
  top: "fc3"
}
layer {
  name: "drop3"
  type: "Dropout"
  bottom: "fc3"
  top: "fc3"
  dropout_param {
    dropout_ratio: 0.5
  }
}
layer {
  name: "fc4"
  type: "InnerProduct"
  bottom: "fc3"
  top: "fc4"
  param {
    lr_mult: 1
    decay_mult: 250
  }
  param {
    lr_mult: 2
    decay_mult: 0
  }
  inner_product_param {
    num_output: 2
    weight_filler {
      type: "xavier"
    }
    bias_filler {
      type: "constant"
      value: 0
    }
  }
}
layer {
  name: "loss"
  type: "SoftmaxWithLoss"
  bottom: "fc4"
  bottom: "label"
  top: "loss"
}
I0524 10:41:48.849957 21627 layer_factory.hpp:77] Creating layer data
I0524 10:41:48.849992 21627 db_lmdb.cpp:35] Opened lmdb /home/work/qinhuan/mywork/license_plate/data/lmdb/license_train_48c_lmdb
I0524 10:41:48.850004 21627 net.cpp:84] Creating Layer data
I0524 10:41:48.850008 21627 net.cpp:380] data -> data
I0524 10:41:48.850015 21627 net.cpp:380] data -> label
I0524 10:41:48.850023 21627 data_transformer.cpp:25] Loading mean file from: /home/work/qinhuan/mywork/license_plate/data/lmdb/license_train_48c_imagenet_mean.binaryproto
I0524 10:41:48.851740 21627 data_layer.cpp:45] output data size: 128,3,24,72
I0524 10:41:48.865752 21627 net.cpp:122] Setting up data
I0524 10:41:48.865775 21627 net.cpp:129] Top shape: 128 3 24 72 (663552)
I0524 10:41:48.865779 21627 net.cpp:129] Top shape: 128 (128)
I0524 10:41:48.865782 21627 net.cpp:137] Memory required for data: 2654720
I0524 10:41:48.865787 21627 layer_factory.hpp:77] Creating layer conv1_1
I0524 10:41:48.865802 21627 net.cpp:84] Creating Layer conv1_1
I0524 10:41:48.865804 21627 net.cpp:406] conv1_1 <- data
I0524 10:41:48.865810 21627 net.cpp:380] conv1_1 -> conv1_1
I0524 10:41:49.095079 21627 net.cpp:122] Setting up conv1_1
I0524 10:41:49.095106 21627 net.cpp:129] Top shape: 128 64 24 72 (14155776)
I0524 10:41:49.095109 21627 net.cpp:137] Memory required for data: 59277824
I0524 10:41:49.095119 21627 layer_factory.hpp:77] Creating layer relu1_1
I0524 10:41:49.095129 21627 net.cpp:84] Creating Layer relu1_1
I0524 10:41:49.095132 21627 net.cpp:406] relu1_1 <- conv1_1
I0524 10:41:49.095136 21627 net.cpp:367] relu1_1 -> conv1_1 (in-place)
I0524 10:41:49.095233 21627 net.cpp:122] Setting up relu1_1
I0524 10:41:49.095238 21627 net.cpp:129] Top shape: 128 64 24 72 (14155776)
I0524 10:41:49.095242 21627 net.cpp:137] Memory required for data: 115900928
I0524 10:41:49.095243 21627 layer_factory.hpp:77] Creating layer conv1_2
I0524 10:41:49.095252 21627 net.cpp:84] Creating Layer conv1_2
I0524 10:41:49.095254 21627 net.cpp:406] conv1_2 <- conv1_1
I0524 10:41:49.095258 21627 net.cpp:380] conv1_2 -> conv1_2
I0524 10:41:49.097054 21627 net.cpp:122] Setting up conv1_2
I0524 10:41:49.097065 21627 net.cpp:129] Top shape: 128 64 24 72 (14155776)
I0524 10:41:49.097069 21627 net.cpp:137] Memory required for data: 172524032
I0524 10:41:49.097074 21627 layer_factory.hpp:77] Creating layer relu1_2
I0524 10:41:49.097080 21627 net.cpp:84] Creating Layer relu1_2
I0524 10:41:49.097084 21627 net.cpp:406] relu1_2 <- conv1_2
I0524 10:41:49.097086 21627 net.cpp:367] relu1_2 -> conv1_2 (in-place)
I0524 10:41:49.097594 21627 net.cpp:122] Setting up relu1_2
I0524 10:41:49.097604 21627 net.cpp:129] Top shape: 128 64 24 72 (14155776)
I0524 10:41:49.097606 21627 net.cpp:137] Memory required for data: 229147136
I0524 10:41:49.097609 21627 layer_factory.hpp:77] Creating layer pool1
I0524 10:41:49.097614 21627 net.cpp:84] Creating Layer pool1
I0524 10:41:49.097616 21627 net.cpp:406] pool1 <- conv1_2
I0524 10:41:49.097620 21627 net.cpp:380] pool1 -> pool1
I0524 10:41:49.097657 21627 net.cpp:122] Setting up pool1
I0524 10:41:49.097662 21627 net.cpp:129] Top shape: 128 64 13 37 (3940352)
I0524 10:41:49.097666 21627 net.cpp:137] Memory required for data: 244908544
I0524 10:41:49.097667 21627 layer_factory.hpp:77] Creating layer norm1
I0524 10:41:49.097671 21627 net.cpp:84] Creating Layer norm1
I0524 10:41:49.097674 21627 net.cpp:406] norm1 <- pool1
I0524 10:41:49.097677 21627 net.cpp:380] norm1 -> norm1
I0524 10:41:49.097796 21627 net.cpp:122] Setting up norm1
I0524 10:41:49.097806 21627 net.cpp:129] Top shape: 128 64 13 37 (3940352)
I0524 10:41:49.097810 21627 net.cpp:137] Memory required for data: 260669952
I0524 10:41:49.097811 21627 layer_factory.hpp:77] Creating layer conv2_1
I0524 10:41:49.097817 21627 net.cpp:84] Creating Layer conv2_1
I0524 10:41:49.097820 21627 net.cpp:406] conv2_1 <- norm1
I0524 10:41:49.097825 21627 net.cpp:380] conv2_1 -> conv2_1
I0524 10:41:49.099541 21627 net.cpp:122] Setting up conv2_1
I0524 10:41:49.099550 21627 net.cpp:129] Top shape: 128 64 13 37 (3940352)
I0524 10:41:49.099555 21627 net.cpp:137] Memory required for data: 276431360
I0524 10:41:49.099560 21627 layer_factory.hpp:77] Creating layer relu2_1
I0524 10:41:49.099565 21627 net.cpp:84] Creating Layer relu2_1
I0524 10:41:49.099568 21627 net.cpp:406] relu2_1 <- conv2_1
I0524 10:41:49.099571 21627 net.cpp:367] relu2_1 -> conv2_1 (in-place)
I0524 10:41:49.099674 21627 net.cpp:122] Setting up relu2_1
I0524 10:41:49.099679 21627 net.cpp:129] Top shape: 128 64 13 37 (3940352)
I0524 10:41:49.099683 21627 net.cpp:137] Memory required for data: 292192768
I0524 10:41:49.099685 21627 layer_factory.hpp:77] Creating layer conv2_2
I0524 10:41:49.099691 21627 net.cpp:84] Creating Layer conv2_2
I0524 10:41:49.099694 21627 net.cpp:406] conv2_2 <- conv2_1
I0524 10:41:49.099699 21627 net.cpp:380] conv2_2 -> conv2_2
I0524 10:41:49.100795 21627 net.cpp:122] Setting up conv2_2
I0524 10:41:49.100805 21627 net.cpp:129] Top shape: 128 64 13 37 (3940352)
I0524 10:41:49.100807 21627 net.cpp:137] Memory required for data: 307954176
I0524 10:41:49.100812 21627 layer_factory.hpp:77] Creating layer relu2_2
I0524 10:41:49.100816 21627 net.cpp:84] Creating Layer relu2_2
I0524 10:41:49.100819 21627 net.cpp:406] relu2_2 <- conv2_2
I0524 10:41:49.100822 21627 net.cpp:367] relu2_2 -> conv2_2 (in-place)
I0524 10:41:49.100916 21627 net.cpp:122] Setting up relu2_2
I0524 10:41:49.100922 21627 net.cpp:129] Top shape: 128 64 13 37 (3940352)
I0524 10:41:49.100924 21627 net.cpp:137] Memory required for data: 323715584
I0524 10:41:49.100927 21627 layer_factory.hpp:77] Creating layer pool2
I0524 10:41:49.100931 21627 net.cpp:84] Creating Layer pool2
I0524 10:41:49.100934 21627 net.cpp:406] pool2 <- conv2_2
I0524 10:41:49.100937 21627 net.cpp:380] pool2 -> pool2
I0524 10:41:49.100973 21627 net.cpp:122] Setting up pool2
I0524 10:41:49.100977 21627 net.cpp:129] Top shape: 128 64 7 19 (1089536)
I0524 10:41:49.100980 21627 net.cpp:137] Memory required for data: 328073728
I0524 10:41:49.100982 21627 layer_factory.hpp:77] Creating layer norm2
I0524 10:41:49.100986 21627 net.cpp:84] Creating Layer norm2
I0524 10:41:49.100989 21627 net.cpp:406] norm2 <- pool2
I0524 10:41:49.100992 21627 net.cpp:380] norm2 -> norm2
I0524 10:41:49.101114 21627 net.cpp:122] Setting up norm2
I0524 10:41:49.101120 21627 net.cpp:129] Top shape: 128 64 7 19 (1089536)
I0524 10:41:49.101122 21627 net.cpp:137] Memory required for data: 332431872
I0524 10:41:49.101125 21627 layer_factory.hpp:77] Creating layer fc3
I0524 10:41:49.101130 21627 net.cpp:84] Creating Layer fc3
I0524 10:41:49.101133 21627 net.cpp:406] fc3 <- norm2
I0524 10:41:49.101137 21627 net.cpp:380] fc3 -> fc3
I0524 10:41:49.109681 21627 net.cpp:122] Setting up fc3
I0524 10:41:49.109706 21627 net.cpp:129] Top shape: 128 256 (32768)
I0524 10:41:49.109709 21627 net.cpp:137] Memory required for data: 332562944
I0524 10:41:49.109719 21627 layer_factory.hpp:77] Creating layer relu3
I0524 10:41:49.109724 21627 net.cpp:84] Creating Layer relu3
I0524 10:41:49.109727 21627 net.cpp:406] relu3 <- fc3
I0524 10:41:49.109732 21627 net.cpp:367] relu3 -> fc3 (in-place)
I0524 10:41:49.110338 21627 net.cpp:122] Setting up relu3
I0524 10:41:49.110347 21627 net.cpp:129] Top shape: 128 256 (32768)
I0524 10:41:49.110349 21627 net.cpp:137] Memory required for data: 332694016
I0524 10:41:49.110352 21627 layer_factory.hpp:77] Creating layer drop3
I0524 10:41:49.110357 21627 net.cpp:84] Creating Layer drop3
I0524 10:41:49.110359 21627 net.cpp:406] drop3 <- fc3
I0524 10:41:49.110363 21627 net.cpp:367] drop3 -> fc3 (in-place)
I0524 10:41:49.110390 21627 net.cpp:122] Setting up drop3
I0524 10:41:49.110394 21627 net.cpp:129] Top shape: 128 256 (32768)
I0524 10:41:49.110396 21627 net.cpp:137] Memory required for data: 332825088
I0524 10:41:49.110399 21627 layer_factory.hpp:77] Creating layer fc4
I0524 10:41:49.110407 21627 net.cpp:84] Creating Layer fc4
I0524 10:41:49.110410 21627 net.cpp:406] fc4 <- fc3
I0524 10:41:49.110415 21627 net.cpp:380] fc4 -> fc4
I0524 10:41:49.110525 21627 net.cpp:122] Setting up fc4
I0524 10:41:49.110530 21627 net.cpp:129] Top shape: 128 2 (256)
I0524 10:41:49.110532 21627 net.cpp:137] Memory required for data: 332826112
I0524 10:41:49.110536 21627 layer_factory.hpp:77] Creating layer loss
I0524 10:41:49.110540 21627 net.cpp:84] Creating Layer loss
I0524 10:41:49.110543 21627 net.cpp:406] loss <- fc4
I0524 10:41:49.110545 21627 net.cpp:406] loss <- label
I0524 10:41:49.110549 21627 net.cpp:380] loss -> loss
I0524 10:41:49.110554 21627 layer_factory.hpp:77] Creating layer loss
…
I0524 10:41:49.111043 21627 solver.cpp:172] Creating test net (#0) specified by test_net file: /home/work/qinhuan/mywork/license_plate/cascadeCNN_license_plate_detection/train_net/jobs/license_48c_lmdb/test.prototxt
I0524 10:41:49.111133 21627 net.cpp:51] Initializing net from parameters: 
name: "license_48c_lmdb_test"
state {
  phase: TEST
}
layer {
  name: "data"
  type: "Data"
  top: "data"
  top: "label"
  transform_param {
    mean_file: "/home/work/qinhuan/mywork/license_plate/data/lmdb/license_train_48c_imagenet_mean.binaryproto"
  }
  data_param {
    source: "/home/work/qinhuan/mywork/license_plate/data/lmdb/license_val_48c_lmdb"
    batch_size: 50
    backend: LMDB
  }
}
layer {
  name: "conv1_1"
  type: "Convolution"
  bottom: "data"
  top: "conv1_1"
  param {
    lr_mult: 1
    decay_mult: 1
  }
  param {
    lr_mult: 2
    decay_mult: 0
  }
  convolution_param {
    num_output: 64
    pad: 1
    kernel_size: 3
    weight_filler {
      type: "xavier"
    }
    bias_filler {
      type: "constant"
    }
  }
}
layer {
  name: "relu1_1"
  type: "ReLU"
  bottom: "conv1_1"
  top: "conv1_1"
}
layer {
  name: "conv1_2"
  type: "Convolution"
  bottom: "conv1_1"
  top: "conv1_2"
  param {
    lr_mult: 1
    decay_mult: 1
  }
  param {
    lr_mult: 2
    decay_mult: 0
  }
  convolution_param {
    num_output: 64
    pad: 1
    kernel_size: 3
    weight_filler {
      type: "xavier"
    }
    bias_filler {
      type: "constant"
    }
  }
}
layer {
  name: "relu1_2"
  type: "ReLU"
  bottom: "conv1_2"
  top: "conv1_2"
}
layer {
  name: "pool1"
  type: "Pooling"
  bottom: "conv1_2"
  top: "pool1"
  pooling_param {
    pool: MAX
    kernel_size: 3
    stride: 2
    pad: 1
  }
}
layer {
  name: "norm1"
  type: "LRN"
  bottom: "pool1"
  top: "norm1"
  lrn_param {
    local_size: 5
    alpha: 0.0001
    beta: 0.75
  }
}
layer {
  name: "conv2_1"
  type: "Convolution"
  bottom: "norm1"
  top: "conv2_1"
  param {
    lr_mult: 1
    decay_mult: 1
  }
  param {
    lr_mult: 2
    decay_mult: 0
  }
  convolution_param {
    num_output: 64
    pad: 1
    kernel_size: 3
    weight_filler {
      type: "xavier"
    }
    bias_filler {
      type: "constant"
    }
  }
}
layer {
  name: "relu2_1"
  type: "ReLU"
  bottom: "conv2_1"
  top: "conv2_1"
}
layer {
  name: "conv2_2"
  type: "Convolution"
  bottom: "conv2_1"
  top: "conv2_2"
  param {
    lr_mult: 1
    decay_mult: 1
  }
  param {
    lr_mult: 2
    decay_mult: 0
  }
  convolution_param {
    num_output: 64
    pad: 1
    kernel_size: 3
    weight_filler {
      type: "xavier"
    }
    bias_filler {
      type: "constant"
    }
  }
}
layer {
  name: "relu2_2"
  type: "ReLU"
  bottom: "conv2_2"
  top: "conv2_2"
}
layer {
  name: "pool2"
  type: "Pooling"
  bottom: "conv2_2"
  top: "pool2"
  pooling_param {
    pool: MAX
    kernel_size: 3
    stride: 2
    pad: 1
  }
}
layer {
  name: "norm2"
  type: "LRN"
  bottom: "pool2"
  top: "norm2"
  lrn_param {
    local_size: 5
    alpha: 0.0001
    beta: 0.75
  }
}
layer {
  name: "fc3"
  type: "InnerProduct"
  bottom: "norm2"
  top: "fc3"
  param {
    lr_mult: 1
    decay_mult: 1
  }
  param {
    lr_mult: 2
    decay_mult: 0
  }
  inner_product_param {
    num_output: 256
    weight_filler {
      type: "xavier"
    }
    bias_filler {
      type: "constant"
    }
  }
}
layer {
  name: "relu3"
  type: "ReLU"
  bottom: "fc3"
  top: "fc3"
}
layer {
  name: "drop3"
  type: "Dropout"
  bottom: "fc3"
  top: "fc3"
  dropout_param {
    dropout_ratio: 0.5
  }
}
layer {
  name: "fc4"
  type: "InnerProduct"
  bottom: "fc3"
  top: "fc4"
  param {
    lr_mult: 1
    decay_mult: 250
  }
  param {
    lr_mult: 2
    decay_mult: 0
  }
  inner_product_param {
    num_output: 2
    weight_filler {
      type: "xavier"
    }
    bias_filler {
      type: "constant"
      value: 0
    }
  }
}
layer {
  name: "accuracy"
  type: "Accuracy"
  bottom: "fc4"
  bottom: "label"
  top: "accuracy"
}
I0524 10:41:49.111176 21627 layer_factory.hpp:77] Creating layer data
I0524 10:41:49.111212 21627 db_lmdb.cpp:35] Opened lmdb /home/work/qinhuan/mywork/license_plate/data/lmdb/license_val_48c_lmdb
I0524 10:41:49.111220 21627 net.cpp:84] Creating Layer data
I0524 10:41:49.111223 21627 net.cpp:380] data -> data
I0524 10:41:49.111229 21627 net.cpp:380] data -> label
I0524 10:41:49.111234 21627 data_transformer.cpp:25] Loading mean file from: /home/work/qinhuan/mywork/license_plate/data/lmdb/license_train_48c_imagenet_mean.binaryproto
I0524 10:41:49.111393 21627 data_layer.cpp:45] output data size: 50,3,24,72
I0524 10:41:49.116771 21627 net.cpp:122] Setting up data
I0524 10:41:49.116791 21627 net.cpp:129] Top shape: 50 3 24 72 (259200)
I0524 10:41:49.116794 21627 net.cpp:129] Top shape: 50 (50)
I0524 10:41:49.116797 21627 net.cpp:137] Memory required for data: 1037000
I0524 10:41:49.116801 21627 layer_factory.hpp:77] Creating layer conv1_1
I0524 10:41:49.116818 21627 net.cpp:84] Creating Layer conv1_1
I0524 10:41:49.116822 21627 net.cpp:406] conv1_1 <- data
I0524 10:41:49.116828 21627 net.cpp:380] conv1_1 -> conv1_1
I0524 10:41:49.118075 21627 net.cpp:122] Setting up conv1_1
I0524 10:41:49.118088 21627 net.cpp:129] Top shape: 50 64 24 72 (5529600)
I0524 10:41:49.118093 21627 net.cpp:137] Memory required for data: 23155400
I0524 10:41:49.118099 21627 layer_factory.hpp:77] Creating layer relu1_1
I0524 10:41:49.118104 21627 net.cpp:84] Creating Layer relu1_1
I0524 10:41:49.118111 21627 net.cpp:406] relu1_1 <- conv1_1
I0524 10:41:49.118115 21627 net.cpp:367] relu1_1 -> conv1_1 (in-place)
I0524 10:41:49.118850 21627 net.cpp:122] Setting up relu1_1
I0524 10:41:49.118856 21627 net.cpp:129] Top shape: 50 64 24 72 (5529600)
I0524 10:41:49.118860 21627 net.cpp:137] Memory required for data: 45273800
I0524 10:41:49.118861 21627 layer_factory.hpp:77] Creating layer conv1_2
I0524 10:41:49.118868 21627 net.cpp:84] Creating Layer conv1_2
I0524 10:41:49.118871 21627 net.cpp:406] conv1_2 <- conv1_1
I0524 10:41:49.118876 21627 net.cpp:380] conv1_2 -> conv1_2
I0524 10:41:49.120507 21627 net.cpp:122] Setting up conv1_2
I0524 10:41:49.120517 21627 net.cpp:129] Top shape: 50 64 24 72 (5529600)
I0524 10:41:49.120519 21627 net.cpp:137] Memory required for data: 67392200
I0524 10:41:49.120527 21627 layer_factory.hpp:77] Creating layer relu1_2
I0524 10:41:49.120532 21627 net.cpp:84] Creating Layer relu1_2
I0524 10:41:49.120534 21627 net.cpp:406] relu1_2 <- conv1_2
I0524 10:41:49.120538 21627 net.cpp:367] relu1_2 -> conv1_2 (in-place)
I0524 10:41:49.121273 21627 net.cpp:122] Setting up relu1_2
I0524 10:41:49.121280 21627 net.cpp:129] Top shape: 50 64 24 72 (5529600)
I0524 10:41:49.121282 21627 net.cpp:137] Memory required for data: 89510600
I0524 10:41:49.121285 21627 layer_factory.hpp:77] Creating layer pool1
I0524 10:41:49.121289 21627 net.cpp:84] Creating Layer pool1
I0524 10:41:49.121292 21627 net.cpp:406] pool1 <- conv1_2
I0524 10:41:49.121295 21627 net.cpp:380] pool1 -> pool1
I0524 10:41:49.121336 21627 net.cpp:122] Setting up pool1
I0524 10:41:49.121341 21627 net.cpp:129] Top shape: 50 64 13 37 (1539200)
I0524 10:41:49.121345 21627 net.cpp:137] Memory required for data: 95667400
I0524 10:41:49.121346 21627 layer_factory.hpp:77] Creating layer norm1
I0524 10:41:49.121353 21627 net.cpp:84] Creating Layer norm1
I0524 10:41:49.121356 21627 net.cpp:406] norm1 <- pool1
I0524 10:41:49.121359 21627 net.cpp:380] norm1 -> norm1
I0524 10:41:49.121932 21627 net.cpp:122] Setting up norm1
I0524 10:41:49.121940 21627 net.cpp:129] Top shape: 50 64 13 37 (1539200)
I0524 10:41:49.121942 21627 net.cpp:137] Memory required for data: 101824200
I0524 10:41:49.121945 21627 layer_factory.hpp:77] Creating layer conv2_1
I0524 10:41:49.121953 21627 net.cpp:84] Creating Layer conv2_1
I0524 10:41:49.121955 21627 net.cpp:406] conv2_1 <- norm1
I0524 10:41:49.121961 21627 net.cpp:380] conv2_1 -> conv2_1
I0524 10:41:49.123352 21627 net.cpp:122] Setting up conv2_1
I0524 10:41:49.123363 21627 net.cpp:129] Top shape: 50 64 13 37 (1539200)
I0524 10:41:49.123366 21627 net.cpp:137] Memory required for data: 107981000
I0524 10:41:49.123373 21627 layer_factory.hpp:77] Creating layer relu2_1
I0524 10:41:49.123380 21627 net.cpp:84] Creating Layer relu2_1
I0524 10:41:49.123383 21627 net.cpp:406] relu2_1 <- conv2_1
I0524 10:41:49.123389 21627 net.cpp:367] relu2_1 -> conv2_1 (in-place)
I0524 10:41:49.123941 21627 net.cpp:122] Setting up relu2_1
I0524 10:41:49.123950 21627 net.cpp:129] Top shape: 50 64 13 37 (1539200)
I0524 10:41:49.123953 21627 net.cpp:137] Memory required for data: 114137800
I0524 10:41:49.123956 21627 layer_factory.hpp:77] Creating layer conv2_2
I0524 10:41:49.123962 21627 net.cpp:84] Creating Layer conv2_2
I0524 10:41:49.123965 21627 net.cpp:406] conv2_2 <- conv2_1
I0524 10:41:49.123970 21627 net.cpp:380] conv2_2 -> conv2_2
I0524 10:41:49.126216 21627 net.cpp:122] Setting up conv2_2
I0524 10:41:49.126226 21627 net.cpp:129] Top shape: 50 64 13 37 (1539200)
I0524 10:41:49.126230 21627 net.cpp:137] Memory required for data: 120294600
I0524 10:41:49.126235 21627 layer_factory.hpp:77] Creating layer relu2_2
I0524 10:41:49.126240 21627 net.cpp:84] Creating Layer relu2_2
I0524 10:41:49.126243 21627 net.cpp:406] relu2_2 <- conv2_2
I0524 10:41:49.126247 21627 net.cpp:367] relu2_2 -> conv2_2 (in-place)
I0524 10:41:49.126361 21627 net.cpp:122] Setting up relu2_2
I0524 10:41:49.126369 21627 net.cpp:129] Top shape: 50 64 13 37 (1539200)
I0524 10:41:49.126371 21627 net.cpp:137] Memory required for data: 126451400
I0524 10:41:49.126374 21627 layer_factory.hpp:77] Creating layer pool2
I0524 10:41:49.126382 21627 net.cpp:84] Creating Layer pool2
I0524 10:41:49.126385 21627 net.cpp:406] pool2 <- conv2_2
I0524 10:41:49.126389 21627 net.cpp:380] pool2 -> pool2
I0524 10:41:49.126430 21627 net.cpp:122] Setting up pool2
I0524 10:41:49.126435 21627 net.cpp:129] Top shape: 50 64 7 19 (425600)
I0524 10:41:49.126438 21627 net.cpp:137] Memory required for data: 128153800
I0524 10:41:49.126441 21627 layer_factory.hpp:77] Creating layer norm2
I0524 10:41:49.126444 21627 net.cpp:84] Creating Layer norm2
I0524 10:41:49.126447 21627 net.cpp:406] norm2 <- pool2
I0524 10:41:49.126451 21627 net.cpp:380] norm2 -> norm2
I0524 10:41:49.126587 21627 net.cpp:122] Setting up norm2
I0524 10:41:49.126593 21627 net.cpp:129] Top shape: 50 64 7 19 (425600)
I0524 10:41:49.126595 21627 net.cpp:137] Memory required for data: 129856200
I0524 10:41:49.126598 21627 layer_factory.hpp:77] Creating layer fc3
I0524 10:41:49.126603 21627 net.cpp:84] Creating Layer fc3
I0524 10:41:49.126606 21627 net.cpp:406] fc3 <- norm2
I0524 10:41:49.126610 21627 net.cpp:380] fc3 -> fc3
I0524 10:41:49.156949 21627 net.cpp:122] Setting up fc3
I0524 10:41:49.156975 21627 net.cpp:129] Top shape: 50 256 (12800)
I0524 10:41:49.156977 21627 net.cpp:137] Memory required for data: 129907400
I0524 10:41:49.156987 21627 layer_factory.hpp:77] Creating layer relu3
I0524 10:41:49.156994 21627 net.cpp:84] Creating Layer relu3
I0524 10:41:49.156998 21627 net.cpp:406] relu3 <- fc3
I0524 10:41:49.157003 21627 net.cpp:367] relu3 -> fc3 (in-place)
I0524 10:41:49.157150 21627 net.cpp:122] Setting up relu3
I0524 10:41:49.157155 21627 net.cpp:129] Top shape: 50 256 (12800)
I0524 10:41:49.157158 21627 net.cpp:137] Memory required for data: 129958600
I0524 10:41:49.157160 21627 layer_factory.hpp:77] Creating layer drop3
I0524 10:41:49.157165 21627 net.cpp:84] Creating Layer drop3
I0524 10:41:49.157167 21627 net.cpp:406] drop3 <- fc3
I0524 10:41:49.157172 21627 net.cpp:367] drop3 -> fc3 (in-place)
I0524 10:41:49.157199 21627 net.cpp:122] Setting up drop3
I0524 10:41:49.157203 21627 net.cpp:129] Top shape: 50 256 (12800)
I0524 10:41:49.157205 21627 net.cpp:137] Memory required for data: 130009800
I0524 10:41:49.157208 21627 layer_factory.hpp:77] Creating layer fc4
I0524 10:41:49.157214 21627 net.cpp:84] Creating Layer fc4
I0524 10:41:49.157217 21627 net.cpp:406] fc4 <- fc3
I0524 10:41:49.157222 21627 net.cpp:380] fc4 -> fc4
I0524 10:41:49.157335 21627 net.cpp:122] Setting up fc4
I0524 10:41:49.157340 21627 net.cpp:129] Top shape: 50 2 (100)
I0524 10:41:49.157341 21627 net.cpp:137] Memory required for data: 130010200
I0524 10:41:49.157346 21627 layer_factory.hpp:77] Creating layer accuracy
I0524 10:41:49.157349 21627 net.cpp:84] Creating Layer accuracy
I0524 10:41:49.157351 21627 net.cpp:406] accuracy <- fc4
I0524 10:41:49.157354 21627 net.cpp:406] accuracy <- label
I0524 10:41:49.157358 21627 net.cpp:380] accuracy -> accuracy
…
