…
I0512 11:07:45.631741 12377 upgrade_proto.cpp:70] Successfully upgraded file specified using deprecated input fields.
W0512 11:07:45.631743 12377 upgrade_proto.cpp:72] Note that future Caffe releases will only support input layers and not input fields.
I0512 11:07:45.631806 12377 net.cpp:51] Initializing net from parameters: 
name: "license_24c_train"
state {
  phase: TRAIN
}
layer {
  name: "input"
  type: "Input"
  top: "data"
  top: "label"
  input_param {
    shape {
      dim: 128
      dim: 3
      dim: 12
      dim: 36
    }
    shape {
      dim: 128
    }
  }
}
layer {
  name: "conv1_1"
  type: "Convolution"
  bottom: "data"
  top: "conv1_1"
  param {
    lr_mult: 1
    decay_mult: 1
  }
  param {
    lr_mult: 2
    decay_mult: 0
  }
  convolution_param {
    num_output: 64
    pad: 1
    kernel_size: 3
    weight_filler {
      type: "gaussian"
      std: 0.0001
    }
    bias_filler {
      type: "constant"
    }
  }
}
layer {
  name: "relu1_1"
  type: "ReLU"
  bottom: "conv1_1"
  top: "conv1_1"
}
layer {
  name: "conv1_2"
  type: "Convolution"
  bottom: "conv1_1"
  top: "conv1_2"
  param {
    lr_mult: 1
    decay_mult: 1
  }
  param {
    lr_mult: 2
    decay_mult: 0
  }
  convolution_param {
    num_output: 64
    pad: 1
    kernel_size: 3
    weight_filler {
      type: "gaussian"
      std: 0.0001
    }
    bias_filler {
      type: "constant"
    }
  }
}
layer {
  name: "relu1_2"
  type: "ReLU"
  bottom: "conv1_2"
  top: "conv1_2"
}
layer {
  name: "pool1"
  type: "Pooling"
  bottom: "conv1_2"
  top: "pool1"
  pooling_param {
    pool: MAX
    kernel_size: 3
    stride: 2
  }
}
layer {
  name: "fc2"
  type: "InnerProduct"
  bottom: "pool1"
  top: "fc2"
  param {
    lr_mult: 1
    decay_mult: 1
  }
  param {
    lr_mult: 2
    decay_mult: 0
  }
  inner_product_param {
    num_output: 128
    weight_filler {
      type: "gaussian"
      std: 0.005
    }
    bias_filler {
      type: "constant"
    }
  }
}
layer {
  name: "relu2"
  type: "ReLU"
  bottom: "fc2"
  top: "fc2"
}
layer {
  name: "drop2"
  type: "Dropout"
  bottom: "fc2"
  top: "fc2"
  dropout_param {
    dropout_ratio: 0.5
  }
}
layer {
  name: "fc3"
  type: "InnerProduct"
  bottom: "fc2"
  top: "fc3"
  param {
    lr_mult: 1
    decay_mult: 100
  }
  param {
    lr_mult: 2
    decay_mult: 0
  }
  inner_product_param {
    num_output: 2
    weight_filler {
      type: "gaussian"
      std: 0.01
    }
    bias_filler {
      type: "constant"
      value: 0
    }
  }
}
layer {
  name: "loss"
  type: "SoftmaxWithLoss"
  bottom: "fc3"
  bottom: "label"
  top: "loss"
}
I0512 11:07:45.631836 12377 layer_factory.hpp:77] Creating layer input
I0512 11:07:45.631842 12377 net.cpp:84] Creating Layer input
I0512 11:07:45.631845 12377 net.cpp:380] input -> data
I0512 11:07:45.631852 12377 net.cpp:380] input -> label
I0512 11:07:45.632603 12377 net.cpp:122] Setting up input
I0512 11:07:45.632613 12377 net.cpp:129] Top shape: 128 3 12 36 (165888)
I0512 11:07:45.632621 12377 net.cpp:129] Top shape: 128 (128)
I0512 11:07:45.632623 12377 net.cpp:137] Memory required for data: 664064
I0512 11:07:45.632627 12377 layer_factory.hpp:77] Creating layer conv1_1
I0512 11:07:45.632635 12377 net.cpp:84] Creating Layer conv1_1
I0512 11:07:45.632638 12377 net.cpp:406] conv1_1 <- data
I0512 11:07:45.632642 12377 net.cpp:380] conv1_1 -> conv1_1
I0512 11:07:45.776500 12377 net.cpp:122] Setting up conv1_1
I0512 11:07:45.776521 12377 net.cpp:129] Top shape: 128 64 12 36 (3538944)
I0512 11:07:45.776525 12377 net.cpp:137] Memory required for data: 14819840
I0512 11:07:45.776535 12377 layer_factory.hpp:77] Creating layer relu1_1
I0512 11:07:45.776543 12377 net.cpp:84] Creating Layer relu1_1
I0512 11:07:45.776546 12377 net.cpp:406] relu1_1 <- conv1_1
I0512 11:07:45.776551 12377 net.cpp:367] relu1_1 -> conv1_1 (in-place)
I0512 11:07:45.776654 12377 net.cpp:122] Setting up relu1_1
I0512 11:07:45.776659 12377 net.cpp:129] Top shape: 128 64 12 36 (3538944)
I0512 11:07:45.776661 12377 net.cpp:137] Memory required for data: 28975616
I0512 11:07:45.776664 12377 layer_factory.hpp:77] Creating layer conv1_2
I0512 11:07:45.776671 12377 net.cpp:84] Creating Layer conv1_2
I0512 11:07:45.776674 12377 net.cpp:406] conv1_2 <- conv1_1
I0512 11:07:45.776679 12377 net.cpp:380] conv1_2 -> conv1_2
I0512 11:07:45.778798 12377 net.cpp:122] Setting up conv1_2
I0512 11:07:45.778807 12377 net.cpp:129] Top shape: 128 64 12 36 (3538944)
I0512 11:07:45.778810 12377 net.cpp:137] Memory required for data: 43131392
I0512 11:07:45.778816 12377 layer_factory.hpp:77] Creating layer relu1_2
I0512 11:07:45.778821 12377 net.cpp:84] Creating Layer relu1_2
I0512 11:07:45.778825 12377 net.cpp:406] relu1_2 <- conv1_2
I0512 11:07:45.778827 12377 net.cpp:367] relu1_2 -> conv1_2 (in-place)
I0512 11:07:45.778919 12377 net.cpp:122] Setting up relu1_2
I0512 11:07:45.778924 12377 net.cpp:129] Top shape: 128 64 12 36 (3538944)
I0512 11:07:45.778928 12377 net.cpp:137] Memory required for data: 57287168
I0512 11:07:45.778930 12377 layer_factory.hpp:77] Creating layer pool1
I0512 11:07:45.778934 12377 net.cpp:84] Creating Layer pool1
I0512 11:07:45.778937 12377 net.cpp:406] pool1 <- conv1_2
I0512 11:07:45.778940 12377 net.cpp:380] pool1 -> pool1
I0512 11:07:45.778975 12377 net.cpp:122] Setting up pool1
I0512 11:07:45.778980 12377 net.cpp:129] Top shape: 128 64 6 18 (884736)
I0512 11:07:45.778981 12377 net.cpp:137] Memory required for data: 60826112
I0512 11:07:45.778985 12377 layer_factory.hpp:77] Creating layer fc2
I0512 11:07:45.778988 12377 net.cpp:84] Creating Layer fc2
I0512 11:07:45.778991 12377 net.cpp:406] fc2 <- pool1
I0512 11:07:45.778995 12377 net.cpp:380] fc2 -> fc2
I0512 11:07:45.794222 12377 net.cpp:122] Setting up fc2
I0512 11:07:45.794231 12377 net.cpp:129] Top shape: 128 128 (16384)
I0512 11:07:45.794234 12377 net.cpp:137] Memory required for data: 60891648
I0512 11:07:45.794240 12377 layer_factory.hpp:77] Creating layer relu2
I0512 11:07:45.794245 12377 net.cpp:84] Creating Layer relu2
I0512 11:07:45.794247 12377 net.cpp:406] relu2 <- fc2
I0512 11:07:45.794251 12377 net.cpp:367] relu2 -> fc2 (in-place)
I0512 11:07:45.794733 12377 net.cpp:122] Setting up relu2
I0512 11:07:45.794739 12377 net.cpp:129] Top shape: 128 128 (16384)
I0512 11:07:45.794742 12377 net.cpp:137] Memory required for data: 60957184
I0512 11:07:45.794745 12377 layer_factory.hpp:77] Creating layer drop2
I0512 11:07:45.794750 12377 net.cpp:84] Creating Layer drop2
I0512 11:07:45.794754 12377 net.cpp:406] drop2 <- fc2
I0512 11:07:45.794757 12377 net.cpp:367] drop2 -> fc2 (in-place)
I0512 11:07:45.794775 12377 net.cpp:122] Setting up drop2
I0512 11:07:45.794778 12377 net.cpp:129] Top shape: 128 128 (16384)
I0512 11:07:45.794780 12377 net.cpp:137] Memory required for data: 61022720
I0512 11:07:45.794783 12377 layer_factory.hpp:77] Creating layer fc3
I0512 11:07:45.794787 12377 net.cpp:84] Creating Layer fc3
I0512 11:07:45.794790 12377 net.cpp:406] fc3 <- fc2
I0512 11:07:45.794793 12377 net.cpp:380] fc3 -> fc3
I0512 11:07:45.794881 12377 net.cpp:122] Setting up fc3
I0512 11:07:45.794891 12377 net.cpp:129] Top shape: 128 2 (256)
I0512 11:07:45.794894 12377 net.cpp:137] Memory required for data: 61023744
I0512 11:07:45.794898 12377 layer_factory.hpp:77] Creating layer loss
I0512 11:07:45.794903 12377 net.cpp:84] Creating Layer loss
I0512 11:07:45.794904 12377 net.cpp:406] loss <- fc3
I0512 11:07:45.794908 12377 net.cpp:406] loss <- label
I0512 11:07:45.794911 12377 net.cpp:380] loss -> loss
I0512 11:07:45.794916 12377 layer_factory.hpp:77] Creating layer loss
…
I0512 11:07:45.795294 12377 solver.cpp:172] Creating test net (#0) specified by test_net file: /home/work/qinhuan/mywork/license_plate/cascadeCNN_license_plate_detection/train_net/jobs/license_24c/test.prototxt
I0512 11:07:45.795362 12377 net.cpp:51] Initializing net from parameters: 
name: "license_24c_test"
state {
  phase: TEST
}
layer {
  name: "data"
  type: "Data"
  top: "data"
  top: "label"
  transform_param {
    mean_file: "/home/work/qinhuan/mywork/license_plate/data/lmdb/license_train_24cCOCO_imagenet_mean.binaryproto"
  }
  data_param {
    source: "/home/work/qinhuan/mywork/license_plate/data/lmdb/license_val_24cCOCO_lmdb"
    batch_size: 50
    backend: LMDB
  }
}
layer {
  name: "conv1_1"
  type: "Convolution"
  bottom: "data"
  top: "conv1_1"
  param {
    lr_mult: 1
    decay_mult: 1
  }
  param {
    lr_mult: 2
    decay_mult: 0
  }
  convolution_param {
    num_output: 64
    pad: 1
    kernel_size: 3
    weight_filler {
      type: "gaussian"
      std: 0.0001
    }
    bias_filler {
      type: "constant"
    }
  }
}
layer {
  name: "relu1_1"
  type: "ReLU"
  bottom: "conv1_1"
  top: "conv1_1"
}
layer {
  name: "conv1_2"
  type: "Convolution"
  bottom: "conv1_1"
  top: "conv1_2"
  param {
    lr_mult: 1
    decay_mult: 1
  }
  param {
    lr_mult: 2
    decay_mult: 0
  }
  convolution_param {
    num_output: 64
    pad: 1
    kernel_size: 3
    weight_filler {
      type: "gaussian"
      std: 0.0001
    }
    bias_filler {
      type: "constant"
    }
  }
}
layer {
  name: "relu1_2"
  type: "ReLU"
  bottom: "conv1_2"
  top: "conv1_2"
}
layer {
  name: "pool1"
  type: "Pooling"
  bottom: "conv1_2"
  top: "pool1"
  pooling_param {
    pool: MAX
    kernel_size: 3
    stride: 2
  }
}
layer {
  name: "fc2"
  type: "InnerProduct"
  bottom: "pool1"
  top: "fc2"
  param {
    lr_mult: 1
    decay_mult: 1
  }
  param {
    lr_mult: 2
    decay_mult: 0
  }
  inner_product_param {
    num_output: 128
    weight_filler {
      type: "gaussian"
      std: 0.005
    }
    bias_filler {
      type: "constant"
    }
  }
}
layer {
  name: "relu2"
  type: "ReLU"
  bottom: "fc2"
  top: "fc2"
}
layer {
  name: "drop2"
  type: "Dropout"
  bottom: "fc2"
  top: "fc2"
  dropout_param {
    dropout_ratio: 0.5
  }
}
layer {
  name: "fc3"
  type: "InnerProduct"
  bottom: "fc2"
  top: "fc3"
  param {
    lr_mult: 1
    decay_mult: 100
  }
  param {
    lr_mult: 2
    decay_mult: 0
  }
  inner_product_param {
    num_output: 2
    weight_filler {
      type: "gaussian"
      std: 0.01
    }
    bias_filler {
      type: "constant"
      value: 0
    }
  }
}
layer {
  name: "accuracy"
  type: "Accuracy"
  bottom: "fc3"
  bottom: "label"
  top: "accuracy"
}
I0512 11:07:45.795389 12377 layer_factory.hpp:77] Creating layer data
I0512 11:07:45.795420 12377 db_lmdb.cpp:35] Opened lmdb /home/work/qinhuan/mywork/license_plate/data/lmdb/license_val_24cCOCO_lmdb
I0512 11:07:45.795429 12377 net.cpp:84] Creating Layer data
I0512 11:07:45.795433 12377 net.cpp:380] data -> data
I0512 11:07:45.795439 12377 net.cpp:380] data -> label
I0512 11:07:45.795444 12377 data_transformer.cpp:25] Loading mean file from: /home/work/qinhuan/mywork/license_plate/data/lmdb/license_train_24cCOCO_imagenet_mean.binaryproto
I0512 11:07:45.795564 12377 data_layer.cpp:45] output data size: 50,3,12,36
I0512 11:07:45.798225 12377 net.cpp:122] Setting up data
I0512 11:07:45.798234 12377 net.cpp:129] Top shape: 50 3 12 36 (64800)
I0512 11:07:45.798238 12377 net.cpp:129] Top shape: 50 (50)
I0512 11:07:45.798241 12377 net.cpp:137] Memory required for data: 259400
I0512 11:07:45.798244 12377 layer_factory.hpp:77] Creating layer conv1_1
I0512 11:07:45.798250 12377 net.cpp:84] Creating Layer conv1_1
I0512 11:07:45.798254 12377 net.cpp:406] conv1_1 <- data
I0512 11:07:45.798259 12377 net.cpp:380] conv1_1 -> conv1_1
I0512 11:07:45.799459 12377 net.cpp:122] Setting up conv1_1
I0512 11:07:45.799470 12377 net.cpp:129] Top shape: 50 64 12 36 (1382400)
I0512 11:07:45.799474 12377 net.cpp:137] Memory required for data: 5789000
I0512 11:07:45.799480 12377 layer_factory.hpp:77] Creating layer relu1_1
I0512 11:07:45.799485 12377 net.cpp:84] Creating Layer relu1_1
I0512 11:07:45.799489 12377 net.cpp:406] relu1_1 <- conv1_1
I0512 11:07:45.799492 12377 net.cpp:367] relu1_1 -> conv1_1 (in-place)
I0512 11:07:45.799727 12377 net.cpp:122] Setting up relu1_1
I0512 11:07:45.799739 12377 net.cpp:129] Top shape: 50 64 12 36 (1382400)
I0512 11:07:45.799743 12377 net.cpp:137] Memory required for data: 11318600
I0512 11:07:45.799746 12377 layer_factory.hpp:77] Creating layer conv1_2
I0512 11:07:45.799757 12377 net.cpp:84] Creating Layer conv1_2
I0512 11:07:45.799764 12377 net.cpp:406] conv1_2 <- conv1_1
I0512 11:07:45.799770 12377 net.cpp:380] conv1_2 -> conv1_2
I0512 11:07:45.801725 12377 net.cpp:122] Setting up conv1_2
I0512 11:07:45.801734 12377 net.cpp:129] Top shape: 50 64 12 36 (1382400)
I0512 11:07:45.801738 12377 net.cpp:137] Memory required for data: 16848200
I0512 11:07:45.801743 12377 layer_factory.hpp:77] Creating layer relu1_2
I0512 11:07:45.801749 12377 net.cpp:84] Creating Layer relu1_2
I0512 11:07:45.801753 12377 net.cpp:406] relu1_2 <- conv1_2
I0512 11:07:45.801755 12377 net.cpp:367] relu1_2 -> conv1_2 (in-place)
I0512 11:07:45.801863 12377 net.cpp:122] Setting up relu1_2
I0512 11:07:45.801868 12377 net.cpp:129] Top shape: 50 64 12 36 (1382400)
I0512 11:07:45.801872 12377 net.cpp:137] Memory required for data: 22377800
I0512 11:07:45.801873 12377 layer_factory.hpp:77] Creating layer pool1
I0512 11:07:45.801877 12377 net.cpp:84] Creating Layer pool1
I0512 11:07:45.801880 12377 net.cpp:406] pool1 <- conv1_2
I0512 11:07:45.801884 12377 net.cpp:380] pool1 -> pool1
I0512 11:07:45.801923 12377 net.cpp:122] Setting up pool1
I0512 11:07:45.801928 12377 net.cpp:129] Top shape: 50 64 6 18 (345600)
I0512 11:07:45.801930 12377 net.cpp:137] Memory required for data: 23760200
I0512 11:07:45.801933 12377 layer_factory.hpp:77] Creating layer fc2
I0512 11:07:45.801937 12377 net.cpp:84] Creating Layer fc2
I0512 11:07:45.801940 12377 net.cpp:406] fc2 <- pool1
I0512 11:07:45.801944 12377 net.cpp:380] fc2 -> fc2
I0512 11:07:45.817118 12377 net.cpp:122] Setting up fc2
I0512 11:07:45.817128 12377 net.cpp:129] Top shape: 50 128 (6400)
I0512 11:07:45.817131 12377 net.cpp:137] Memory required for data: 23785800
I0512 11:07:45.817137 12377 layer_factory.hpp:77] Creating layer relu2
I0512 11:07:45.817144 12377 net.cpp:84] Creating Layer relu2
I0512 11:07:45.817147 12377 net.cpp:406] relu2 <- fc2
I0512 11:07:45.817152 12377 net.cpp:367] relu2 -> fc2 (in-place)
I0512 11:07:45.817651 12377 net.cpp:122] Setting up relu2
I0512 11:07:45.817659 12377 net.cpp:129] Top shape: 50 128 (6400)
I0512 11:07:45.817662 12377 net.cpp:137] Memory required for data: 23811400
I0512 11:07:45.817665 12377 layer_factory.hpp:77] Creating layer drop2
I0512 11:07:45.817670 12377 net.cpp:84] Creating Layer drop2
I0512 11:07:45.817673 12377 net.cpp:406] drop2 <- fc2
I0512 11:07:45.817677 12377 net.cpp:367] drop2 -> fc2 (in-place)
I0512 11:07:45.817701 12377 net.cpp:122] Setting up drop2
I0512 11:07:45.817705 12377 net.cpp:129] Top shape: 50 128 (6400)
I0512 11:07:45.817708 12377 net.cpp:137] Memory required for data: 23837000
I0512 11:07:45.817709 12377 layer_factory.hpp:77] Creating layer fc3
I0512 11:07:45.817715 12377 net.cpp:84] Creating Layer fc3
I0512 11:07:45.817718 12377 net.cpp:406] fc3 <- fc2
I0512 11:07:45.817723 12377 net.cpp:380] fc3 -> fc3
I0512 11:07:45.817819 12377 net.cpp:122] Setting up fc3
I0512 11:07:45.817823 12377 net.cpp:129] Top shape: 50 2 (100)
I0512 11:07:45.817826 12377 net.cpp:137] Memory required for data: 23837400
I0512 11:07:45.817831 12377 layer_factory.hpp:77] Creating layer accuracy
I0512 11:07:45.817834 12377 net.cpp:84] Creating Layer accuracy
I0512 11:07:45.817836 12377 net.cpp:406] accuracy <- fc3
I0512 11:07:45.817839 12377 net.cpp:406] accuracy <- label
I0512 11:07:45.817843 12377 net.cpp:380] accuracy -> accuracy
…
