…
I0512 14:53:52.818152 14632 upgrade_proto.cpp:70] Successfully upgraded file specified using deprecated input fields.
W0512 14:53:52.818156 14632 upgrade_proto.cpp:72] Note that future Caffe releases will only support input layers and not input fields.
I0512 14:53:52.818217 14632 net.cpp:51] Initializing net from parameters: 
name: "license_24c_train"
state {
  phase: TRAIN
}
layer {
  name: "input"
  type: "Input"
  top: "data"
  top: "label"
  input_param {
    shape {
      dim: 128
      dim: 3
      dim: 12
      dim: 36
    }
    shape {
      dim: 128
    }
  }
}
layer {
  name: "conv1_1"
  type: "Convolution"
  bottom: "data"
  top: "conv1_1"
  param {
    lr_mult: 1
    decay_mult: 1
  }
  param {
    lr_mult: 2
    decay_mult: 0
  }
  convolution_param {
    num_output: 64
    pad: 1
    kernel_size: 3
    weight_filler {
      type: "gaussian"
      std: 0.0001
    }
    bias_filler {
      type: "constant"
    }
  }
}
layer {
  name: "relu1_1"
  type: "ReLU"
  bottom: "conv1_1"
  top: "conv1_1"
}
layer {
  name: "conv1_2"
  type: "Convolution"
  bottom: "conv1_1"
  top: "conv1_2"
  param {
    lr_mult: 1
    decay_mult: 1
  }
  param {
    lr_mult: 2
    decay_mult: 0
  }
  convolution_param {
    num_output: 64
    pad: 1
    kernel_size: 3
    weight_filler {
      type: "gaussian"
      std: 0.0001
    }
    bias_filler {
      type: "constant"
    }
  }
}
layer {
  name: "relu1_2"
  type: "ReLU"
  bottom: "conv1_2"
  top: "conv1_2"
}
layer {
  name: "pool1"
  type: "Pooling"
  bottom: "conv1_2"
  top: "pool1"
  pooling_param {
    pool: MAX
    kernel_size: 3
    stride: 2
  }
}
layer {
  name: "fc2"
  type: "InnerProduct"
  bottom: "pool1"
  top: "fc2"
  param {
    lr_mult: 1
    decay_mult: 1
  }
  param {
    lr_mult: 2
    decay_mult: 0
  }
  inner_product_param {
    num_output: 128
    weight_filler {
      type: "gaussian"
      std: 0.005
    }
    bias_filler {
      type: "constant"
    }
  }
}
layer {
  name: "relu2"
  type: "ReLU"
  bottom: "fc2"
  top: "fc2"
}
layer {
  name: "drop2"
  type: "Dropout"
  bottom: "fc2"
  top: "fc2"
  dropout_param {
    dropout_ratio: 0.5
  }
}
layer {
  name: "fc3"
  type: "InnerProduct"
  bottom: "fc2"
  top: "fc3"
  param {
    lr_mult: 1
    decay_mult: 100
  }
  param {
    lr_mult: 2
    decay_mult: 0
  }
  inner_product_param {
    num_output: 2
    weight_filler {
      type: "gaussian"
      std: 0.01
    }
    bias_filler {
      type: "constant"
      value: 0
    }
  }
}
layer {
  name: "loss"
  type: "SoftmaxWithLoss"
  bottom: "fc3"
  bottom: "label"
  top: "loss"
}
I0512 14:53:52.818248 14632 layer_factory.hpp:77] Creating layer input
I0512 14:53:52.818254 14632 net.cpp:84] Creating Layer input
I0512 14:53:52.818259 14632 net.cpp:380] input -> data
I0512 14:53:52.818264 14632 net.cpp:380] input -> label
I0512 14:53:52.819056 14632 net.cpp:122] Setting up input
I0512 14:53:52.819067 14632 net.cpp:129] Top shape: 128 3 12 36 (165888)
I0512 14:53:52.819073 14632 net.cpp:129] Top shape: 128 (128)
I0512 14:53:52.819077 14632 net.cpp:137] Memory required for data: 664064
I0512 14:53:52.819079 14632 layer_factory.hpp:77] Creating layer conv1_1
I0512 14:53:52.819087 14632 net.cpp:84] Creating Layer conv1_1
I0512 14:53:52.819089 14632 net.cpp:406] conv1_1 <- data
I0512 14:53:52.819093 14632 net.cpp:380] conv1_1 -> conv1_1
I0512 14:53:52.966167 14632 net.cpp:122] Setting up conv1_1
I0512 14:53:52.966189 14632 net.cpp:129] Top shape: 128 64 12 36 (3538944)
I0512 14:53:52.966192 14632 net.cpp:137] Memory required for data: 14819840
I0512 14:53:52.966202 14632 layer_factory.hpp:77] Creating layer relu1_1
I0512 14:53:52.966212 14632 net.cpp:84] Creating Layer relu1_1
I0512 14:53:52.966215 14632 net.cpp:406] relu1_1 <- conv1_1
I0512 14:53:52.966218 14632 net.cpp:367] relu1_1 -> conv1_1 (in-place)
I0512 14:53:52.966320 14632 net.cpp:122] Setting up relu1_1
I0512 14:53:52.966326 14632 net.cpp:129] Top shape: 128 64 12 36 (3538944)
I0512 14:53:52.966330 14632 net.cpp:137] Memory required for data: 28975616
I0512 14:53:52.966331 14632 layer_factory.hpp:77] Creating layer conv1_2
I0512 14:53:52.966338 14632 net.cpp:84] Creating Layer conv1_2
I0512 14:53:52.966341 14632 net.cpp:406] conv1_2 <- conv1_1
I0512 14:53:52.966346 14632 net.cpp:380] conv1_2 -> conv1_2
I0512 14:53:52.968518 14632 net.cpp:122] Setting up conv1_2
I0512 14:53:52.968528 14632 net.cpp:129] Top shape: 128 64 12 36 (3538944)
I0512 14:53:52.968531 14632 net.cpp:137] Memory required for data: 43131392
I0512 14:53:52.968538 14632 layer_factory.hpp:77] Creating layer relu1_2
I0512 14:53:52.968541 14632 net.cpp:84] Creating Layer relu1_2
I0512 14:53:52.968544 14632 net.cpp:406] relu1_2 <- conv1_2
I0512 14:53:52.968549 14632 net.cpp:367] relu1_2 -> conv1_2 (in-place)
I0512 14:53:52.968639 14632 net.cpp:122] Setting up relu1_2
I0512 14:53:52.968644 14632 net.cpp:129] Top shape: 128 64 12 36 (3538944)
I0512 14:53:52.968647 14632 net.cpp:137] Memory required for data: 57287168
I0512 14:53:52.968650 14632 layer_factory.hpp:77] Creating layer pool1
I0512 14:53:52.968654 14632 net.cpp:84] Creating Layer pool1
I0512 14:53:52.968657 14632 net.cpp:406] pool1 <- conv1_2
I0512 14:53:52.968660 14632 net.cpp:380] pool1 -> pool1
I0512 14:53:52.968693 14632 net.cpp:122] Setting up pool1
I0512 14:53:52.968698 14632 net.cpp:129] Top shape: 128 64 6 18 (884736)
I0512 14:53:52.968701 14632 net.cpp:137] Memory required for data: 60826112
I0512 14:53:52.968703 14632 layer_factory.hpp:77] Creating layer fc2
I0512 14:53:52.968708 14632 net.cpp:84] Creating Layer fc2
I0512 14:53:52.968711 14632 net.cpp:406] fc2 <- pool1
I0512 14:53:52.968714 14632 net.cpp:380] fc2 -> fc2
I0512 14:53:52.984010 14632 net.cpp:122] Setting up fc2
I0512 14:53:52.984021 14632 net.cpp:129] Top shape: 128 128 (16384)
I0512 14:53:52.984025 14632 net.cpp:137] Memory required for data: 60891648
I0512 14:53:52.984030 14632 layer_factory.hpp:77] Creating layer relu2
I0512 14:53:52.984035 14632 net.cpp:84] Creating Layer relu2
I0512 14:53:52.984037 14632 net.cpp:406] relu2 <- fc2
I0512 14:53:52.984041 14632 net.cpp:367] relu2 -> fc2 (in-place)
I0512 14:53:52.984534 14632 net.cpp:122] Setting up relu2
I0512 14:53:52.984541 14632 net.cpp:129] Top shape: 128 128 (16384)
I0512 14:53:52.984544 14632 net.cpp:137] Memory required for data: 60957184
I0512 14:53:52.984547 14632 layer_factory.hpp:77] Creating layer drop2
I0512 14:53:52.984553 14632 net.cpp:84] Creating Layer drop2
I0512 14:53:52.984556 14632 net.cpp:406] drop2 <- fc2
I0512 14:53:52.984560 14632 net.cpp:367] drop2 -> fc2 (in-place)
I0512 14:53:52.984577 14632 net.cpp:122] Setting up drop2
I0512 14:53:52.984582 14632 net.cpp:129] Top shape: 128 128 (16384)
I0512 14:53:52.984585 14632 net.cpp:137] Memory required for data: 61022720
I0512 14:53:52.984587 14632 layer_factory.hpp:77] Creating layer fc3
I0512 14:53:52.984591 14632 net.cpp:84] Creating Layer fc3
I0512 14:53:52.984593 14632 net.cpp:406] fc3 <- fc2
I0512 14:53:52.984597 14632 net.cpp:380] fc3 -> fc3
I0512 14:53:52.984688 14632 net.cpp:122] Setting up fc3
I0512 14:53:52.984697 14632 net.cpp:129] Top shape: 128 2 (256)
I0512 14:53:52.984699 14632 net.cpp:137] Memory required for data: 61023744
I0512 14:53:52.984704 14632 layer_factory.hpp:77] Creating layer loss
I0512 14:53:52.984709 14632 net.cpp:84] Creating Layer loss
I0512 14:53:52.984710 14632 net.cpp:406] loss <- fc3
I0512 14:53:52.984714 14632 net.cpp:406] loss <- label
I0512 14:53:52.984716 14632 net.cpp:380] loss -> loss
I0512 14:53:52.984722 14632 layer_factory.hpp:77] Creating layer loss
…
I0512 14:53:52.985098 14632 solver.cpp:172] Creating test net (#0) specified by test_net file: /home/work/qinhuan/mywork/license_plate/cascadeCNN_license_plate_detection/train_net/jobs/license_24c/test.prototxt
I0512 14:53:52.985167 14632 net.cpp:51] Initializing net from parameters: 
name: "license_24c_test"
state {
  phase: TEST
}
layer {
  name: "data"
  type: "Data"
  top: "data"
  top: "label"
  transform_param {
    mean_file: "/home/work/qinhuan/mywork/license_plate/data/lmdb/license_train_24cCOCO_imagenet_mean.binaryproto"
  }
  data_param {
    source: "/home/work/qinhuan/mywork/license_plate/data/lmdb/license_val_24cCOCO_lmdb"
    batch_size: 50
    backend: LMDB
  }
}
layer {
  name: "conv1_1"
  type: "Convolution"
  bottom: "data"
  top: "conv1_1"
  param {
    lr_mult: 1
    decay_mult: 1
  }
  param {
    lr_mult: 2
    decay_mult: 0
  }
  convolution_param {
    num_output: 64
    pad: 1
    kernel_size: 3
    weight_filler {
      type: "gaussian"
      std: 0.0001
    }
    bias_filler {
      type: "constant"
    }
  }
}
layer {
  name: "relu1_1"
  type: "ReLU"
  bottom: "conv1_1"
  top: "conv1_1"
}
layer {
  name: "conv1_2"
  type: "Convolution"
  bottom: "conv1_1"
  top: "conv1_2"
  param {
    lr_mult: 1
    decay_mult: 1
  }
  param {
    lr_mult: 2
    decay_mult: 0
  }
  convolution_param {
    num_output: 64
    pad: 1
    kernel_size: 3
    weight_filler {
      type: "gaussian"
      std: 0.0001
    }
    bias_filler {
      type: "constant"
    }
  }
}
layer {
  name: "relu1_2"
  type: "ReLU"
  bottom: "conv1_2"
  top: "conv1_2"
}
layer {
  name: "pool1"
  type: "Pooling"
  bottom: "conv1_2"
  top: "pool1"
  pooling_param {
    pool: MAX
    kernel_size: 3
    stride: 2
  }
}
layer {
  name: "fc2"
  type: "InnerProduct"
  bottom: "pool1"
  top: "fc2"
  param {
    lr_mult: 1
    decay_mult: 1
  }
  param {
    lr_mult: 2
    decay_mult: 0
  }
  inner_product_param {
    num_output: 128
    weight_filler {
      type: "gaussian"
      std: 0.005
    }
    bias_filler {
      type: "constant"
    }
  }
}
layer {
  name: "relu2"
  type: "ReLU"
  bottom: "fc2"
  top: "fc2"
}
layer {
  name: "drop2"
  type: "Dropout"
  bottom: "fc2"
  top: "fc2"
  dropout_param {
    dropout_ratio: 0.5
  }
}
layer {
  name: "fc3"
  type: "InnerProduct"
  bottom: "fc2"
  top: "fc3"
  param {
    lr_mult: 1
    decay_mult: 100
  }
  param {
    lr_mult: 2
    decay_mult: 0
  }
  inner_product_param {
    num_output: 2
    weight_filler {
      type: "gaussian"
      std: 0.01
    }
    bias_filler {
      type: "constant"
      value: 0
    }
  }
}
layer {
  name: "accuracy"
  type: "Accuracy"
  bottom: "fc3"
  bottom: "label"
  top: "accuracy"
}
I0512 14:53:52.985194 14632 layer_factory.hpp:77] Creating layer data
I0512 14:53:52.985225 14632 db_lmdb.cpp:35] Opened lmdb /home/work/qinhuan/mywork/license_plate/data/lmdb/license_val_24cCOCO_lmdb
I0512 14:53:52.985237 14632 net.cpp:84] Creating Layer data
I0512 14:53:52.985240 14632 net.cpp:380] data -> data
I0512 14:53:52.985246 14632 net.cpp:380] data -> label
I0512 14:53:52.985251 14632 data_transformer.cpp:25] Loading mean file from: /home/work/qinhuan/mywork/license_plate/data/lmdb/license_train_24cCOCO_imagenet_mean.binaryproto
I0512 14:53:52.985371 14632 data_layer.cpp:45] output data size: 50,3,12,36
I0512 14:53:52.986415 14632 net.cpp:122] Setting up data
I0512 14:53:52.986424 14632 net.cpp:129] Top shape: 50 3 12 36 (64800)
I0512 14:53:52.986428 14632 net.cpp:129] Top shape: 50 (50)
I0512 14:53:52.986430 14632 net.cpp:137] Memory required for data: 259400
I0512 14:53:52.986433 14632 layer_factory.hpp:77] Creating layer conv1_1
I0512 14:53:52.986440 14632 net.cpp:84] Creating Layer conv1_1
I0512 14:53:52.986443 14632 net.cpp:406] conv1_1 <- data
I0512 14:53:52.986448 14632 net.cpp:380] conv1_1 -> conv1_1
I0512 14:53:52.987695 14632 net.cpp:122] Setting up conv1_1
I0512 14:53:52.987709 14632 net.cpp:129] Top shape: 50 64 12 36 (1382400)
I0512 14:53:52.987712 14632 net.cpp:137] Memory required for data: 5789000
I0512 14:53:52.987720 14632 layer_factory.hpp:77] Creating layer relu1_1
I0512 14:53:52.987725 14632 net.cpp:84] Creating Layer relu1_1
I0512 14:53:52.987728 14632 net.cpp:406] relu1_1 <- conv1_1
I0512 14:53:52.987732 14632 net.cpp:367] relu1_1 -> conv1_1 (in-place)
I0512 14:53:52.987857 14632 net.cpp:122] Setting up relu1_1
I0512 14:53:52.987864 14632 net.cpp:129] Top shape: 50 64 12 36 (1382400)
I0512 14:53:52.987866 14632 net.cpp:137] Memory required for data: 11318600
I0512 14:53:52.987869 14632 layer_factory.hpp:77] Creating layer conv1_2
I0512 14:53:52.987875 14632 net.cpp:84] Creating Layer conv1_2
I0512 14:53:52.987879 14632 net.cpp:406] conv1_2 <- conv1_1
I0512 14:53:52.987882 14632 net.cpp:380] conv1_2 -> conv1_2
I0512 14:53:52.989933 14632 net.cpp:122] Setting up conv1_2
I0512 14:53:52.989943 14632 net.cpp:129] Top shape: 50 64 12 36 (1382400)
I0512 14:53:52.989946 14632 net.cpp:137] Memory required for data: 16848200
I0512 14:53:52.989953 14632 layer_factory.hpp:77] Creating layer relu1_2
I0512 14:53:52.989956 14632 net.cpp:84] Creating Layer relu1_2
I0512 14:53:52.989959 14632 net.cpp:406] relu1_2 <- conv1_2
I0512 14:53:52.989964 14632 net.cpp:367] relu1_2 -> conv1_2 (in-place)
I0512 14:53:52.990070 14632 net.cpp:122] Setting up relu1_2
I0512 14:53:52.990075 14632 net.cpp:129] Top shape: 50 64 12 36 (1382400)
I0512 14:53:52.990078 14632 net.cpp:137] Memory required for data: 22377800
I0512 14:53:52.990082 14632 layer_factory.hpp:77] Creating layer pool1
I0512 14:53:52.990085 14632 net.cpp:84] Creating Layer pool1
I0512 14:53:52.990087 14632 net.cpp:406] pool1 <- conv1_2
I0512 14:53:52.990090 14632 net.cpp:380] pool1 -> pool1
I0512 14:53:52.990128 14632 net.cpp:122] Setting up pool1
I0512 14:53:52.990134 14632 net.cpp:129] Top shape: 50 64 6 18 (345600)
I0512 14:53:52.990136 14632 net.cpp:137] Memory required for data: 23760200
I0512 14:53:52.990139 14632 layer_factory.hpp:77] Creating layer fc2
I0512 14:53:52.990142 14632 net.cpp:84] Creating Layer fc2
I0512 14:53:52.990145 14632 net.cpp:406] fc2 <- pool1
I0512 14:53:52.990149 14632 net.cpp:380] fc2 -> fc2
I0512 14:53:53.005414 14632 net.cpp:122] Setting up fc2
I0512 14:53:53.005425 14632 net.cpp:129] Top shape: 50 128 (6400)
I0512 14:53:53.005429 14632 net.cpp:137] Memory required for data: 23785800
I0512 14:53:53.005434 14632 layer_factory.hpp:77] Creating layer relu2
I0512 14:53:53.005444 14632 net.cpp:84] Creating Layer relu2
I0512 14:53:53.005446 14632 net.cpp:406] relu2 <- fc2
I0512 14:53:53.005450 14632 net.cpp:367] relu2 -> fc2 (in-place)
I0512 14:53:53.005959 14632 net.cpp:122] Setting up relu2
I0512 14:53:53.005966 14632 net.cpp:129] Top shape: 50 128 (6400)
I0512 14:53:53.005970 14632 net.cpp:137] Memory required for data: 23811400
I0512 14:53:53.005972 14632 layer_factory.hpp:77] Creating layer drop2
I0512 14:53:53.005978 14632 net.cpp:84] Creating Layer drop2
I0512 14:53:53.005981 14632 net.cpp:406] drop2 <- fc2
I0512 14:53:53.005985 14632 net.cpp:367] drop2 -> fc2 (in-place)
I0512 14:53:53.006011 14632 net.cpp:122] Setting up drop2
I0512 14:53:53.006016 14632 net.cpp:129] Top shape: 50 128 (6400)
I0512 14:53:53.006017 14632 net.cpp:137] Memory required for data: 23837000
I0512 14:53:53.006021 14632 layer_factory.hpp:77] Creating layer fc3
I0512 14:53:53.006024 14632 net.cpp:84] Creating Layer fc3
I0512 14:53:53.006026 14632 net.cpp:406] fc3 <- fc2
I0512 14:53:53.006031 14632 net.cpp:380] fc3 -> fc3
I0512 14:53:53.006130 14632 net.cpp:122] Setting up fc3
I0512 14:53:53.006135 14632 net.cpp:129] Top shape: 50 2 (100)
I0512 14:53:53.006137 14632 net.cpp:137] Memory required for data: 23837400
I0512 14:53:53.006142 14632 layer_factory.hpp:77] Creating layer accuracy
I0512 14:53:53.006146 14632 net.cpp:84] Creating Layer accuracy
I0512 14:53:53.006150 14632 net.cpp:406] accuracy <- fc3
I0512 14:53:53.006152 14632 net.cpp:406] accuracy <- label
I0512 14:53:53.006155 14632 net.cpp:380] accuracy -> accuracy
…
