…
I0601 16:56:43.235750 18001 solver.cpp:77] Creating training net from train_net file: /home/work/qinhuan/mywork/license_plate/cascadeCNN_license_plate_detection/train_net/jobs/license_6cal/train.prototxt
I0601 16:56:43.236196 18001 net.cpp:51] Initializing net from parameters: 
name: "license_6cal_train"
state {
  phase: TRAIN
}
layer {
  name: "data"
  type: "Data"
  top: "data"
  top: "label"
  transform_param {
    mirror: false
    mean_file: "/home/work/qinhuan/mywork/license_plate/data/lmdb/license_train_6cal_imagenet_mean.binaryproto"
  }
  data_param {
    source: "/home/work/qinhuan/mywork/license_plate/data/lmdb/license_train_6cal_lmdb"
    batch_size: 128
    backend: LMDB
  }
}
layer {
  name: "conv1"
  type: "Convolution"
  bottom: "data"
  top: "conv1"
  param {
    lr_mult: 1
  }
  param {
    lr_mult: 2
  }
  convolution_param {
    num_output: 16
    kernel_size: 3
    weight_filler {
      type: "gaussian"
      std: 0.0001
    }
    bias_filler {
      type: "constant"
    }
  }
}
layer {
  name: "pool1"
  type: "Pooling"
  bottom: "conv1"
  top: "pool1"
  pooling_param {
    pool: MAX
    kernel_size: 3
    stride: 2
  }
}
layer {
  name: "relu1"
  type: "ReLU"
  bottom: "pool1"
  top: "pool1"
}
layer {
  name: "fc2"
  type: "InnerProduct"
  bottom: "pool1"
  top: "fc2"
  param {
    lr_mult: 1
    decay_mult: 1
  }
  param {
    lr_mult: 2
    decay_mult: 0
  }
  inner_product_param {
    num_output: 128
    weight_filler {
      type: "gaussian"
      std: 0.005
    }
    bias_filler {
      type: "constant"
    }
  }
}
layer {
  name: "relu2"
  type: "ReLU"
  bottom: "fc2"
  top: "fc2"
}
layer {
  name: "drop2"
  type: "Dropout"
  bottom: "fc2"
  top: "fc2"
  dropout_param {
    dropout_ratio: 0.5
  }
}
layer {
  name: "fc3"
  type: "InnerProduct"
  bottom: "fc2"
  top: "fc3"
  param {
    lr_mult: 1
    decay_mult: 100
  }
  param {
    lr_mult: 2
    decay_mult: 0
  }
  inner_product_param {
    num_output: 45
    weight_filler {
      type: "gaussian"
      std: 0.01
    }
    bias_filler {
      type: "constant"
      value: 0
    }
  }
}
layer {
  name: "loss"
  type: "SoftmaxWithLoss"
  bottom: "fc3"
  bottom: "label"
  top: "loss"
}
I0601 16:56:43.236266 18001 layer_factory.hpp:77] Creating layer data
I0601 16:56:43.236348 18001 db_lmdb.cpp:35] Opened lmdb /home/work/qinhuan/mywork/license_plate/data/lmdb/license_train_6cal_lmdb
I0601 16:56:43.236380 18001 net.cpp:84] Creating Layer data
I0601 16:56:43.236390 18001 net.cpp:380] data -> data
I0601 16:56:43.236412 18001 net.cpp:380] data -> label
I0601 16:56:43.236424 18001 data_transformer.cpp:25] Loading mean file from: /home/work/qinhuan/mywork/license_plate/data/lmdb/license_train_6cal_imagenet_mean.binaryproto
I0601 16:56:43.240352 18001 data_layer.cpp:45] output data size: 128,3,6,18
I0601 16:56:43.244377 18001 net.cpp:122] Setting up data
I0601 16:56:43.244400 18001 net.cpp:129] Top shape: 128 3 6 18 (41472)
I0601 16:56:43.244407 18001 net.cpp:129] Top shape: 128 (128)
I0601 16:56:43.244411 18001 net.cpp:137] Memory required for data: 166400
I0601 16:56:43.244416 18001 layer_factory.hpp:77] Creating layer conv1
I0601 16:56:43.244436 18001 net.cpp:84] Creating Layer conv1
I0601 16:56:43.244441 18001 net.cpp:406] conv1 <- data
I0601 16:56:43.244452 18001 net.cpp:380] conv1 -> conv1
I0601 16:56:43.654703 18001 net.cpp:122] Setting up conv1
I0601 16:56:43.654763 18001 net.cpp:129] Top shape: 128 16 4 16 (131072)
I0601 16:56:43.654770 18001 net.cpp:137] Memory required for data: 690688
I0601 16:56:43.654794 18001 layer_factory.hpp:77] Creating layer pool1
I0601 16:56:43.654825 18001 net.cpp:84] Creating Layer pool1
I0601 16:56:43.654832 18001 net.cpp:406] pool1 <- conv1
I0601 16:56:43.654841 18001 net.cpp:380] pool1 -> pool1
I0601 16:56:43.654917 18001 net.cpp:122] Setting up pool1
I0601 16:56:43.654925 18001 net.cpp:129] Top shape: 128 16 2 8 (32768)
I0601 16:56:43.654929 18001 net.cpp:137] Memory required for data: 821760
I0601 16:56:43.654933 18001 layer_factory.hpp:77] Creating layer relu1
I0601 16:56:43.654949 18001 net.cpp:84] Creating Layer relu1
I0601 16:56:43.654953 18001 net.cpp:406] relu1 <- pool1
I0601 16:56:43.654958 18001 net.cpp:367] relu1 -> pool1 (in-place)
I0601 16:56:43.655155 18001 net.cpp:122] Setting up relu1
I0601 16:56:43.655165 18001 net.cpp:129] Top shape: 128 16 2 8 (32768)
I0601 16:56:43.655169 18001 net.cpp:137] Memory required for data: 952832
I0601 16:56:43.655174 18001 layer_factory.hpp:77] Creating layer fc2
I0601 16:56:43.655189 18001 net.cpp:84] Creating Layer fc2
I0601 16:56:43.655194 18001 net.cpp:406] fc2 <- pool1
I0601 16:56:43.655200 18001 net.cpp:380] fc2 -> fc2
I0601 16:56:43.656440 18001 net.cpp:122] Setting up fc2
I0601 16:56:43.656452 18001 net.cpp:129] Top shape: 128 128 (16384)
I0601 16:56:43.656457 18001 net.cpp:137] Memory required for data: 1018368
I0601 16:56:43.656467 18001 layer_factory.hpp:77] Creating layer relu2
I0601 16:56:43.656474 18001 net.cpp:84] Creating Layer relu2
I0601 16:56:43.656478 18001 net.cpp:406] relu2 <- fc2
I0601 16:56:43.656483 18001 net.cpp:367] relu2 -> fc2 (in-place)
I0601 16:56:43.657888 18001 net.cpp:122] Setting up relu2
I0601 16:56:43.657905 18001 net.cpp:129] Top shape: 128 128 (16384)
I0601 16:56:43.657910 18001 net.cpp:137] Memory required for data: 1083904
I0601 16:56:43.657914 18001 layer_factory.hpp:77] Creating layer drop2
I0601 16:56:43.657927 18001 net.cpp:84] Creating Layer drop2
I0601 16:56:43.657930 18001 net.cpp:406] drop2 <- fc2
I0601 16:56:43.657937 18001 net.cpp:367] drop2 -> fc2 (in-place)
I0601 16:56:43.657970 18001 net.cpp:122] Setting up drop2
I0601 16:56:43.657976 18001 net.cpp:129] Top shape: 128 128 (16384)
I0601 16:56:43.657980 18001 net.cpp:137] Memory required for data: 1149440
I0601 16:56:43.657984 18001 layer_factory.hpp:77] Creating layer fc3
I0601 16:56:43.657992 18001 net.cpp:84] Creating Layer fc3
I0601 16:56:43.657996 18001 net.cpp:406] fc3 <- fc2
I0601 16:56:43.658001 18001 net.cpp:380] fc3 -> fc3
I0601 16:56:43.660349 18001 net.cpp:122] Setting up fc3
I0601 16:56:43.660370 18001 net.cpp:129] Top shape: 128 45 (5760)
I0601 16:56:43.660374 18001 net.cpp:137] Memory required for data: 1172480
I0601 16:56:43.660385 18001 layer_factory.hpp:77] Creating layer loss
I0601 16:56:43.660398 18001 net.cpp:84] Creating Layer loss
I0601 16:56:43.660403 18001 net.cpp:406] loss <- fc3
I0601 16:56:43.660408 18001 net.cpp:406] loss <- label
I0601 16:56:43.660414 18001 net.cpp:380] loss -> loss
I0601 16:56:43.660429 18001 layer_factory.hpp:77] Creating layer loss
…
I0601 16:56:43.661226 18001 solver.cpp:173] Creating test net (#0) specified by test_net file: /home/work/qinhuan/mywork/license_plate/cascadeCNN_license_plate_detection/train_net/jobs/license_6cal/test.prototxt
I0601 16:56:43.661358 18001 net.cpp:51] Initializing net from parameters: 
name: "license_6cal_test"
state {
  phase: TEST
}
layer {
  name: "data"
  type: "Data"
  top: "data"
  top: "label"
  transform_param {
    mean_file: "/home/work/qinhuan/mywork/license_plate/data/lmdb/license_train_6cal_imagenet_mean.binaryproto"
  }
  data_param {
    source: "/home/work/qinhuan/mywork/license_plate/data/lmdb/license_val_6cal_lmdb"
    batch_size: 50
    backend: LMDB
  }
}
layer {
  name: "conv1"
  type: "Convolution"
  bottom: "data"
  top: "conv1"
  param {
    lr_mult: 1
  }
  param {
    lr_mult: 2
  }
  convolution_param {
    num_output: 16
    kernel_size: 3
    weight_filler {
      type: "gaussian"
      std: 0.0001
    }
    bias_filler {
      type: "constant"
    }
  }
}
layer {
  name: "pool1"
  type: "Pooling"
  bottom: "conv1"
  top: "pool1"
  pooling_param {
    pool: MAX
    kernel_size: 3
    stride: 2
  }
}
layer {
  name: "relu1"
  type: "ReLU"
  bottom: "pool1"
  top: "pool1"
}
layer {
  name: "fc2"
  type: "InnerProduct"
  bottom: "pool1"
  top: "fc2"
  param {
    lr_mult: 1
    decay_mult: 1
  }
  param {
    lr_mult: 2
    decay_mult: 0
  }
  inner_product_param {
    num_output: 128
    weight_filler {
      type: "gaussian"
      std: 0.005
    }
    bias_filler {
      type: "constant"
    }
  }
}
layer {
  name: "relu2"
  type: "ReLU"
  bottom: "fc2"
  top: "fc2"
}
layer {
  name: "drop2"
  type: "Dropout"
  bottom: "fc2"
  top: "fc2"
  dropout_param {
    dropout_ratio: 0.5
  }
}
layer {
  name: "fc3"
  type: "InnerProduct"
  bottom: "fc2"
  top: "fc3"
  param {
    lr_mult: 1
    decay_mult: 100
  }
  param {
    lr_mult: 2
    decay_mult: 0
  }
  inner_product_param {
    num_output: 45
    weight_filler {
      type: "gaussian"
      std: 0.01
    }
    bias_filler {
      type: "constant"
      value: 0
    }
  }
}
layer {
  name: "accuracy"
  type: "Accuracy"
  bottom: "fc3"
  bottom: "label"
  top: "accuracy"
}
I0601 16:56:43.661417 18001 layer_factory.hpp:77] Creating layer data
I0601 16:56:43.661484 18001 db_lmdb.cpp:35] Opened lmdb /home/work/qinhuan/mywork/license_plate/data/lmdb/license_val_6cal_lmdb
I0601 16:56:43.661500 18001 net.cpp:84] Creating Layer data
I0601 16:56:43.661506 18001 net.cpp:380] data -> data
I0601 16:56:43.661519 18001 net.cpp:380] data -> label
I0601 16:56:43.661527 18001 data_transformer.cpp:25] Loading mean file from: /home/work/qinhuan/mywork/license_plate/data/lmdb/license_train_6cal_imagenet_mean.binaryproto
I0601 16:56:43.661780 18001 data_layer.cpp:45] output data size: 50,3,6,18
I0601 16:56:43.662426 18001 net.cpp:122] Setting up data
I0601 16:56:43.662438 18001 net.cpp:129] Top shape: 50 3 6 18 (16200)
I0601 16:56:43.662443 18001 net.cpp:129] Top shape: 50 (50)
I0601 16:56:43.662447 18001 net.cpp:137] Memory required for data: 65000
I0601 16:56:43.662452 18001 layer_factory.hpp:77] Creating layer conv1
I0601 16:56:43.662467 18001 net.cpp:84] Creating Layer conv1
I0601 16:56:43.662472 18001 net.cpp:406] conv1 <- data
I0601 16:56:43.662482 18001 net.cpp:380] conv1 -> conv1
I0601 16:56:43.665211 18001 net.cpp:122] Setting up conv1
I0601 16:56:43.665233 18001 net.cpp:129] Top shape: 50 16 4 16 (51200)
I0601 16:56:43.665241 18001 net.cpp:137] Memory required for data: 269800
I0601 16:56:43.665254 18001 layer_factory.hpp:77] Creating layer pool1
I0601 16:56:43.665269 18001 net.cpp:84] Creating Layer pool1
I0601 16:56:43.665274 18001 net.cpp:406] pool1 <- conv1
I0601 16:56:43.665282 18001 net.cpp:380] pool1 -> pool1
I0601 16:56:43.665349 18001 net.cpp:122] Setting up pool1
I0601 16:56:43.665356 18001 net.cpp:129] Top shape: 50 16 2 8 (12800)
I0601 16:56:43.665360 18001 net.cpp:137] Memory required for data: 321000
I0601 16:56:43.665371 18001 layer_factory.hpp:77] Creating layer relu1
I0601 16:56:43.665380 18001 net.cpp:84] Creating Layer relu1
I0601 16:56:43.665385 18001 net.cpp:406] relu1 <- pool1
I0601 16:56:43.665390 18001 net.cpp:367] relu1 -> pool1 (in-place)
I0601 16:56:43.665628 18001 net.cpp:122] Setting up relu1
I0601 16:56:43.665640 18001 net.cpp:129] Top shape: 50 16 2 8 (12800)
I0601 16:56:43.665647 18001 net.cpp:137] Memory required for data: 372200
I0601 16:56:43.665652 18001 layer_factory.hpp:77] Creating layer fc2
I0601 16:56:43.665669 18001 net.cpp:84] Creating Layer fc2
I0601 16:56:43.665674 18001 net.cpp:406] fc2 <- pool1
I0601 16:56:43.665681 18001 net.cpp:380] fc2 -> fc2
I0601 16:56:43.666899 18001 net.cpp:122] Setting up fc2
I0601 16:56:43.666911 18001 net.cpp:129] Top shape: 50 128 (6400)
I0601 16:56:43.666915 18001 net.cpp:137] Memory required for data: 397800
I0601 16:56:43.666924 18001 layer_factory.hpp:77] Creating layer relu2
I0601 16:56:43.666930 18001 net.cpp:84] Creating Layer relu2
I0601 16:56:43.666934 18001 net.cpp:406] relu2 <- fc2
I0601 16:56:43.666940 18001 net.cpp:367] relu2 -> fc2 (in-place)
I0601 16:56:43.667148 18001 net.cpp:122] Setting up relu2
I0601 16:56:43.667157 18001 net.cpp:129] Top shape: 50 128 (6400)
I0601 16:56:43.667160 18001 net.cpp:137] Memory required for data: 423400
I0601 16:56:43.667165 18001 layer_factory.hpp:77] Creating layer drop2
I0601 16:56:43.667171 18001 net.cpp:84] Creating Layer drop2
I0601 16:56:43.667174 18001 net.cpp:406] drop2 <- fc2
I0601 16:56:43.667182 18001 net.cpp:367] drop2 -> fc2 (in-place)
I0601 16:56:43.667222 18001 net.cpp:122] Setting up drop2
I0601 16:56:43.667227 18001 net.cpp:129] Top shape: 50 128 (6400)
I0601 16:56:43.667232 18001 net.cpp:137] Memory required for data: 449000
I0601 16:56:43.667234 18001 layer_factory.hpp:77] Creating layer fc3
I0601 16:56:43.667243 18001 net.cpp:84] Creating Layer fc3
I0601 16:56:43.667248 18001 net.cpp:406] fc3 <- fc2
I0601 16:56:43.667253 18001 net.cpp:380] fc3 -> fc3
I0601 16:56:43.667623 18001 net.cpp:122] Setting up fc3
I0601 16:56:43.667631 18001 net.cpp:129] Top shape: 50 45 (2250)
I0601 16:56:43.667634 18001 net.cpp:137] Memory required for data: 458000
I0601 16:56:43.667644 18001 layer_factory.hpp:77] Creating layer accuracy
I0601 16:56:43.667655 18001 net.cpp:84] Creating Layer accuracy
I0601 16:56:43.667659 18001 net.cpp:406] accuracy <- fc3
I0601 16:56:43.667665 18001 net.cpp:406] accuracy <- label
I0601 16:56:43.667670 18001 net.cpp:380] accuracy -> accuracy
…
