…
I0521 17:54:04.044019 16676 upgrade_proto.cpp:67] Attempting to upgrade input file specified using deprecated input fields: /home/work/qinhuan/mywork/license_plate/cascadeCNN_license_plate_detection/train_net/jobs/license_12c/license12c_full_conv.prototxt
I0521 17:54:04.044029 16676 upgrade_proto.cpp:70] Successfully upgraded file specified using deprecated input fields.
W0521 17:54:04.044033 16676 upgrade_proto.cpp:72] Note that future Caffe releases will only support input layers and not input fields.
I0521 17:54:04.044080 16676 net.cpp:51] Initializing net from parameters: 
name: "license_12c_conv"
state {
  phase: TEST
  level: 0
}
layer {
  name: "input"
  type: "Input"
  top: "data"
  input_param {
    shape {
      dim: 1
      dim: 3
      dim: 12
      dim: 36
    }
  }
}
layer {
  name: "conv1"
  type: "Convolution"
  bottom: "data"
  top: "conv1"
  convolution_param {
    num_output: 16
    kernel_size: 3
  }
}
layer {
  name: "pool1"
  type: "Pooling"
  bottom: "conv1"
  top: "pool1"
  pooling_param {
    pool: MAX
    kernel_size: 3
    stride: 2
  }
}
layer {
  name: "relu1"
  type: "ReLU"
  bottom: "pool1"
  top: "pool1"
}
layer {
  name: "fc2-conv"
  type: "Convolution"
  bottom: "pool1"
  top: "fc2-conv"
  convolution_param {
    num_output: 16
    kernel_h: 5
    kernel_w: 17
  }
}
layer {
  name: "relu2"
  type: "ReLU"
  bottom: "fc2-conv"
  top: "fc2-conv"
}
layer {
  name: "drop2"
  type: "Dropout"
  bottom: "fc2-conv"
  top: "fc2-conv"
  dropout_param {
    dropout_ratio: 0.5
  }
}
layer {
  name: "fc3-conv"
  type: "Convolution"
  bottom: "fc2-conv"
  top: "fc3-conv"
  convolution_param {
    num_output: 2
    kernel_size: 1
  }
}
layer {
  name: "prob"
  type: "Softmax"
  bottom: "fc3-conv"
  top: "prob"
}
I0521 17:54:04.044106 16676 layer_factory.hpp:77] Creating layer input
I0521 17:54:04.044111 16676 net.cpp:84] Creating Layer input
I0521 17:54:04.044116 16676 net.cpp:380] input -> data
I0521 17:54:04.053920 16676 net.cpp:122] Setting up input
I0521 17:54:04.053938 16676 net.cpp:129] Top shape: 1 3 12 36 (1296)
I0521 17:54:04.053941 16676 net.cpp:137] Memory required for data: 5184
I0521 17:54:04.053946 16676 layer_factory.hpp:77] Creating layer conv1
I0521 17:54:04.053954 16676 net.cpp:84] Creating Layer conv1
I0521 17:54:04.053958 16676 net.cpp:406] conv1 <- data
I0521 17:54:04.053962 16676 net.cpp:380] conv1 -> conv1
I0521 17:54:04.201614 16676 net.cpp:122] Setting up conv1
I0521 17:54:04.201637 16676 net.cpp:129] Top shape: 1 16 10 34 (5440)
I0521 17:54:04.201640 16676 net.cpp:137] Memory required for data: 26944
I0521 17:54:04.201650 16676 layer_factory.hpp:77] Creating layer pool1
I0521 17:54:04.201658 16676 net.cpp:84] Creating Layer pool1
I0521 17:54:04.201663 16676 net.cpp:406] pool1 <- conv1
I0521 17:54:04.201666 16676 net.cpp:380] pool1 -> pool1
I0521 17:54:04.201706 16676 net.cpp:122] Setting up pool1
I0521 17:54:04.201711 16676 net.cpp:129] Top shape: 1 16 5 17 (1360)
I0521 17:54:04.201714 16676 net.cpp:137] Memory required for data: 32384
I0521 17:54:04.201716 16676 layer_factory.hpp:77] Creating layer relu1
I0521 17:54:04.201720 16676 net.cpp:84] Creating Layer relu1
I0521 17:54:04.201722 16676 net.cpp:406] relu1 <- pool1
I0521 17:54:04.201726 16676 net.cpp:367] relu1 -> pool1 (in-place)
I0521 17:54:04.201823 16676 net.cpp:122] Setting up relu1
I0521 17:54:04.201828 16676 net.cpp:129] Top shape: 1 16 5 17 (1360)
I0521 17:54:04.201831 16676 net.cpp:137] Memory required for data: 37824
I0521 17:54:04.201839 16676 layer_factory.hpp:77] Creating layer fc2-conv
I0521 17:54:04.201845 16676 net.cpp:84] Creating Layer fc2-conv
I0521 17:54:04.201848 16676 net.cpp:406] fc2-conv <- pool1
I0521 17:54:04.201851 16676 net.cpp:380] fc2-conv -> fc2-conv
I0521 17:54:04.203474 16676 net.cpp:122] Setting up fc2-conv
I0521 17:54:04.203483 16676 net.cpp:129] Top shape: 1 16 1 1 (16)
I0521 17:54:04.203486 16676 net.cpp:137] Memory required for data: 37888
I0521 17:54:04.203492 16676 layer_factory.hpp:77] Creating layer relu2
I0521 17:54:04.203497 16676 net.cpp:84] Creating Layer relu2
I0521 17:54:04.203500 16676 net.cpp:406] relu2 <- fc2-conv
I0521 17:54:04.203503 16676 net.cpp:367] relu2 -> fc2-conv (in-place)
I0521 17:54:04.203595 16676 net.cpp:122] Setting up relu2
I0521 17:54:04.203600 16676 net.cpp:129] Top shape: 1 16 1 1 (16)
I0521 17:54:04.203603 16676 net.cpp:137] Memory required for data: 37952
I0521 17:54:04.203605 16676 layer_factory.hpp:77] Creating layer drop2
I0521 17:54:04.203609 16676 net.cpp:84] Creating Layer drop2
I0521 17:54:04.203613 16676 net.cpp:406] drop2 <- fc2-conv
I0521 17:54:04.203615 16676 net.cpp:367] drop2 -> fc2-conv (in-place)
I0521 17:54:04.203635 16676 net.cpp:122] Setting up drop2
I0521 17:54:04.203639 16676 net.cpp:129] Top shape: 1 16 1 1 (16)
I0521 17:54:04.203642 16676 net.cpp:137] Memory required for data: 38016
I0521 17:54:04.203644 16676 layer_factory.hpp:77] Creating layer fc3-conv
I0521 17:54:04.203649 16676 net.cpp:84] Creating Layer fc3-conv
I0521 17:54:04.203651 16676 net.cpp:406] fc3-conv <- fc2-conv
I0521 17:54:04.203655 16676 net.cpp:380] fc3-conv -> fc3-conv
I0521 17:54:04.204529 16676 net.cpp:122] Setting up fc3-conv
I0521 17:54:04.204538 16676 net.cpp:129] Top shape: 1 2 1 1 (2)
I0521 17:54:04.204541 16676 net.cpp:137] Memory required for data: 38024
I0521 17:54:04.204547 16676 layer_factory.hpp:77] Creating layer prob
I0521 17:54:04.204552 16676 net.cpp:84] Creating Layer prob
I0521 17:54:04.204555 16676 net.cpp:406] prob <- fc3-conv
I0521 17:54:04.204558 16676 net.cpp:380] prob -> prob
I0521 17:54:04.205078 16676 net.cpp:122] Setting up prob
I0521 17:54:04.205086 16676 net.cpp:129] Top shape: 1 2 1 1 (2)
I0521 17:54:04.205090 16676 net.cpp:137] Memory required for data: 38032
I0521 17:54:04.205092 16676 net.cpp:200] prob does not need backward computation.
I0521 17:54:04.205096 16676 net.cpp:200] fc3-conv does not need backward computation.
I0521 17:54:04.205097 16676 net.cpp:200] drop2 does not need backward computation.
I0521 17:54:04.205101 16676 net.cpp:200] relu2 does not need backward computation.
…
I0521 17:54:04.205623 16676 upgrade_proto.cpp:67] Attempting to upgrade input file specified using deprecated input fields: /home/work/qinhuan/mywork/license_plate/cascadeCNN_license_plate_detection/train_net/jobs/license_12cal/deploy.prototxt
I0521 17:54:04.205629 16676 upgrade_proto.cpp:70] Successfully upgraded file specified using deprecated input fields.
W0521 17:54:04.205632 16676 upgrade_proto.cpp:72] Note that future Caffe releases will only support input layers and not input fields.
I0521 17:54:04.205693 16676 net.cpp:51] Initializing net from parameters: 
name: "license_12cal_deploy"
state {
  phase: TEST
  level: 0
}
layer {
  name: "input"
  type: "Input"
  top: "data"
  input_param {
    shape {
      dim: 1
      dim: 3
      dim: 12
      dim: 36
    }
  }
}
layer {
  name: "conv1"
  type: "Convolution"
  bottom: "data"
  top: "conv1"
  param {
    lr_mult: 1
  }
  param {
    lr_mult: 2
  }
  convolution_param {
    num_output: 16
    kernel_size: 3
    weight_filler {
      type: "gaussian"
      std: 0.0001
    }
    bias_filler {
      type: "constant"
    }
  }
}
layer {
  name: "pool1"
  type: "Pooling"
  bottom: "conv1"
  top: "pool1"
  pooling_param {
    pool: MAX
    kernel_size: 3
    stride: 2
  }
}
layer {
  name: "relu1"
  type: "ReLU"
  bottom: "pool1"
  top: "pool1"
}
layer {
  name: "fc2"
  type: "InnerProduct"
  bottom: "pool1"
  top: "fc2"
  param {
    lr_mult: 1
    decay_mult: 1
  }
  param {
    lr_mult: 2
    decay_mult: 0
  }
  inner_product_param {
    num_output: 128
    weight_filler {
      type: "gaussian"
      std: 0.005
    }
    bias_filler {
      type: "constant"
    }
  }
}
layer {
  name: "relu2"
  type: "ReLU"
  bottom: "fc2"
  top: "fc2"
}
layer {
  name: "drop2"
  type: "Dropout"
  bottom: "fc2"
  top: "fc2"
  dropout_param {
    dropout_ratio: 0.5
  }
}
layer {
  name: "fc3"
  type: "InnerProduct"
  bottom: "fc2"
  top: "fc3"
  param {
    lr_mult: 1
    decay_mult: 100
  }
  param {
    lr_mult: 2
    decay_mult: 0
  }
  inner_product_param {
    num_output: 45
    weight_filler {
      type: "gaussian"
      std: 0.01
    }
    bias_filler {
      type: "constant"
      value: 0
    }
  }
}
layer {
  name: "prob"
  type: "Softmax"
  bottom: "fc3"
  top: "prob"
}
I0521 17:54:04.205713 16676 layer_factory.hpp:77] Creating layer input
I0521 17:54:04.205718 16676 net.cpp:84] Creating Layer input
I0521 17:54:04.205721 16676 net.cpp:380] input -> data
I0521 17:54:04.205747 16676 net.cpp:122] Setting up input
I0521 17:54:04.205754 16676 net.cpp:129] Top shape: 1 3 12 36 (1296)
I0521 17:54:04.205755 16676 net.cpp:137] Memory required for data: 5184
I0521 17:54:04.205759 16676 layer_factory.hpp:77] Creating layer conv1
I0521 17:54:04.205763 16676 net.cpp:84] Creating Layer conv1
I0521 17:54:04.205766 16676 net.cpp:406] conv1 <- data
I0521 17:54:04.205770 16676 net.cpp:380] conv1 -> conv1
I0521 17:54:04.206948 16676 net.cpp:122] Setting up conv1
I0521 17:54:04.206957 16676 net.cpp:129] Top shape: 1 16 10 34 (5440)
I0521 17:54:04.206960 16676 net.cpp:137] Memory required for data: 26944
I0521 17:54:04.206966 16676 layer_factory.hpp:77] Creating layer pool1
I0521 17:54:04.206970 16676 net.cpp:84] Creating Layer pool1
I0521 17:54:04.206974 16676 net.cpp:406] pool1 <- conv1
I0521 17:54:04.206977 16676 net.cpp:380] pool1 -> pool1
I0521 17:54:04.207012 16676 net.cpp:122] Setting up pool1
I0521 17:54:04.207016 16676 net.cpp:129] Top shape: 1 16 5 17 (1360)
I0521 17:54:04.207020 16676 net.cpp:137] Memory required for data: 32384
I0521 17:54:04.207021 16676 layer_factory.hpp:77] Creating layer relu1
I0521 17:54:04.207025 16676 net.cpp:84] Creating Layer relu1
I0521 17:54:04.207027 16676 net.cpp:406] relu1 <- pool1
I0521 17:54:04.207031 16676 net.cpp:367] relu1 -> pool1 (in-place)
I0521 17:54:04.207124 16676 net.cpp:122] Setting up relu1
I0521 17:54:04.207130 16676 net.cpp:129] Top shape: 1 16 5 17 (1360)
I0521 17:54:04.207132 16676 net.cpp:137] Memory required for data: 37824
I0521 17:54:04.207134 16676 layer_factory.hpp:77] Creating layer fc2
I0521 17:54:04.207140 16676 net.cpp:84] Creating Layer fc2
I0521 17:54:04.207142 16676 net.cpp:406] fc2 <- pool1
I0521 17:54:04.207146 16676 net.cpp:380] fc2 -> fc2
I0521 17:54:04.210750 16676 net.cpp:122] Setting up fc2
I0521 17:54:04.210760 16676 net.cpp:129] Top shape: 1 128 (128)
I0521 17:54:04.210762 16676 net.cpp:137] Memory required for data: 38336
I0521 17:54:04.210768 16676 layer_factory.hpp:77] Creating layer relu2
I0521 17:54:04.210777 16676 net.cpp:84] Creating Layer relu2
I0521 17:54:04.210779 16676 net.cpp:406] relu2 <- fc2
I0521 17:54:04.210783 16676 net.cpp:367] relu2 -> fc2 (in-place)
I0521 17:54:04.210887 16676 net.cpp:122] Setting up relu2
I0521 17:54:04.210892 16676 net.cpp:129] Top shape: 1 128 (128)
I0521 17:54:04.210896 16676 net.cpp:137] Memory required for data: 38848
I0521 17:54:04.210897 16676 layer_factory.hpp:77] Creating layer drop2
I0521 17:54:04.210901 16676 net.cpp:84] Creating Layer drop2
I0521 17:54:04.210903 16676 net.cpp:406] drop2 <- fc2
I0521 17:54:04.210907 16676 net.cpp:367] drop2 -> fc2 (in-place)
I0521 17:54:04.210928 16676 net.cpp:122] Setting up drop2
I0521 17:54:04.210932 16676 net.cpp:129] Top shape: 1 128 (128)
I0521 17:54:04.210934 16676 net.cpp:137] Memory required for data: 39360
I0521 17:54:04.210937 16676 layer_factory.hpp:77] Creating layer fc3
I0521 17:54:04.210942 16676 net.cpp:84] Creating Layer fc3
I0521 17:54:04.210944 16676 net.cpp:406] fc3 <- fc2
I0521 17:54:04.210947 16676 net.cpp:380] fc3 -> fc3
I0521 17:54:04.211843 16676 net.cpp:122] Setting up fc3
I0521 17:54:04.211851 16676 net.cpp:129] Top shape: 1 45 (45)
I0521 17:54:04.211854 16676 net.cpp:137] Memory required for data: 39540
I0521 17:54:04.211859 16676 layer_factory.hpp:77] Creating layer prob
I0521 17:54:04.211864 16676 net.cpp:84] Creating Layer prob
I0521 17:54:04.211868 16676 net.cpp:406] prob <- fc3
I0521 17:54:04.211871 16676 net.cpp:380] prob -> prob
I0521 17:54:04.212033 16676 net.cpp:122] Setting up prob
I0521 17:54:04.212039 16676 net.cpp:129] Top shape: 1 45 (45)
I0521 17:54:04.212041 16676 net.cpp:137] Memory required for data: 39720
I0521 17:54:04.212044 16676 net.cpp:200] prob does not need backward computation.
I0521 17:54:04.212046 16676 net.cpp:200] fc3 does not need backward computation.
I0521 17:54:04.212049 16676 net.cpp:200] drop2 does not need backward computation.
I0521 17:54:04.212051 16676 net.cpp:200] relu2 does not need backward computation.
…
I0521 17:54:04.213198 16676 upgrade_proto.cpp:67] Attempting to upgrade input file specified using deprecated input fields: /home/work/qinhuan/mywork/license_plate/cascadeCNN_license_plate_detection/train_net/jobs/license_24c/deploy.prototxt
I0521 17:54:04.213204 16676 upgrade_proto.cpp:70] Successfully upgraded file specified using deprecated input fields.
W0521 17:54:04.213207 16676 upgrade_proto.cpp:72] Note that future Caffe releases will only support input layers and not input fields.
I0521 17:54:04.213269 16676 net.cpp:51] Initializing net from parameters: 
name: "license_24c_deploy"
state {
  phase: TEST
  level: 0
}
layer {
  name: "input"
  type: "Input"
  top: "data"
  input_param {
    shape {
      dim: 1
      dim: 3
      dim: 12
      dim: 36
    }
  }
}
layer {
  name: "conv1_1"
  type: "Convolution"
  bottom: "data"
  top: "conv1_1"
  param {
    lr_mult: 1
    decay_mult: 1
  }
  param {
    lr_mult: 2
    decay_mult: 0
  }
  convolution_param {
    num_output: 64
    pad: 1
    kernel_size: 3
    weight_filler {
      type: "gaussian"
      std: 0.0001
    }
    bias_filler {
      type: "constant"
    }
  }
}
layer {
  name: "relu1_1"
  type: "ReLU"
  bottom: "conv1_1"
  top: "conv1_1"
}
layer {
  name: "conv1_2"
  type: "Convolution"
  bottom: "conv1_1"
  top: "conv1_2"
  param {
    lr_mult: 1
    decay_mult: 1
  }
  param {
    lr_mult: 2
    decay_mult: 0
  }
  convolution_param {
    num_output: 64
    pad: 1
    kernel_size: 3
    weight_filler {
      type: "gaussian"
      std: 0.0001
    }
    bias_filler {
      type: "constant"
    }
  }
}
layer {
  name: "relu1_2"
  type: "ReLU"
  bottom: "conv1_2"
  top: "conv1_2"
}
layer {
  name: "pool1"
  type: "Pooling"
  bottom: "conv1_2"
  top: "pool1"
  pooling_param {
    pool: MAX
    kernel_size: 3
    stride: 2
  }
}
layer {
  name: "fc2"
  type: "InnerProduct"
  bottom: "pool1"
  top: "fc2"
  param {
    lr_mult: 1
    decay_mult: 1
  }
  param {
    lr_mult: 2
    decay_mult: 0
  }
  inner_product_param {
    num_output: 128
    weight_filler {
      type: "gaussian"
      std: 0.005
    }
    bias_filler {
      type: "constant"
    }
  }
}
layer {
  name: "relu2"
  type: "ReLU"
  bottom: "fc2"
  top: "fc2"
}
layer {
  name: "drop2"
  type: "Dropout"
  bottom: "fc2"
  top: "fc2"
  dropout_param {
    dropout_ratio: 0.5
  }
}
layer {
  name: "fc3"
  type: "InnerProduct"
  bottom: "fc2"
  top: "fc3"
  param {
    lr_mult: 1
    decay_mult: 100
  }
  param {
    lr_mult: 2
    decay_mult: 0
  }
  inner_product_param {
    num_output: 2
    weight_filler {
      type: "gaussian"
      std: 0.01
    }
    bias_filler {
      type: "constant"
      value: 0
    }
  }
}
layer {
  name: "prob"
  type: "Softmax"
  bottom: "fc3"
  top: "prob"
}
I0521 17:54:04.213294 16676 layer_factory.hpp:77] Creating layer input
I0521 17:54:04.213299 16676 net.cpp:84] Creating Layer input
I0521 17:54:04.213304 16676 net.cpp:380] input -> data
I0521 17:54:04.213331 16676 net.cpp:122] Setting up input
I0521 17:54:04.213335 16676 net.cpp:129] Top shape: 1 3 12 36 (1296)
I0521 17:54:04.213338 16676 net.cpp:137] Memory required for data: 5184
I0521 17:54:04.213340 16676 layer_factory.hpp:77] Creating layer conv1_1
I0521 17:54:04.213346 16676 net.cpp:84] Creating Layer conv1_1
I0521 17:54:04.213349 16676 net.cpp:406] conv1_1 <- data
I0521 17:54:04.213352 16676 net.cpp:380] conv1_1 -> conv1_1
I0521 17:54:04.215394 16676 net.cpp:122] Setting up conv1_1
I0521 17:54:04.215404 16676 net.cpp:129] Top shape: 1 64 12 36 (27648)
I0521 17:54:04.215406 16676 net.cpp:137] Memory required for data: 115776
I0521 17:54:04.215412 16676 layer_factory.hpp:77] Creating layer relu1_1
I0521 17:54:04.215417 16676 net.cpp:84] Creating Layer relu1_1
I0521 17:54:04.215420 16676 net.cpp:406] relu1_1 <- conv1_1
I0521 17:54:04.215423 16676 net.cpp:367] relu1_1 -> conv1_1 (in-place)
I0521 17:54:04.215893 16676 net.cpp:122] Setting up relu1_1
I0521 17:54:04.215900 16676 net.cpp:129] Top shape: 1 64 12 36 (27648)
I0521 17:54:04.215903 16676 net.cpp:137] Memory required for data: 226368
I0521 17:54:04.215905 16676 layer_factory.hpp:77] Creating layer conv1_2
I0521 17:54:04.215911 16676 net.cpp:84] Creating Layer conv1_2
I0521 17:54:04.215914 16676 net.cpp:406] conv1_2 <- conv1_1
I0521 17:54:04.215919 16676 net.cpp:380] conv1_2 -> conv1_2
I0521 17:54:04.217051 16676 net.cpp:122] Setting up conv1_2
I0521 17:54:04.217058 16676 net.cpp:129] Top shape: 1 64 12 36 (27648)
I0521 17:54:04.217061 16676 net.cpp:137] Memory required for data: 336960
I0521 17:54:04.217067 16676 layer_factory.hpp:77] Creating layer relu1_2
I0521 17:54:04.217072 16676 net.cpp:84] Creating Layer relu1_2
I0521 17:54:04.217074 16676 net.cpp:406] relu1_2 <- conv1_2
I0521 17:54:04.217077 16676 net.cpp:367] relu1_2 -> conv1_2 (in-place)
I0521 17:54:04.217553 16676 net.cpp:122] Setting up relu1_2
I0521 17:54:04.217561 16676 net.cpp:129] Top shape: 1 64 12 36 (27648)
I0521 17:54:04.217564 16676 net.cpp:137] Memory required for data: 447552
I0521 17:54:04.217571 16676 layer_factory.hpp:77] Creating layer pool1
I0521 17:54:04.217574 16676 net.cpp:84] Creating Layer pool1
I0521 17:54:04.217577 16676 net.cpp:406] pool1 <- conv1_2
I0521 17:54:04.217581 16676 net.cpp:380] pool1 -> pool1
I0521 17:54:04.217617 16676 net.cpp:122] Setting up pool1
I0521 17:54:04.217622 16676 net.cpp:129] Top shape: 1 64 6 18 (6912)
I0521 17:54:04.217624 16676 net.cpp:137] Memory required for data: 475200
I0521 17:54:04.217627 16676 layer_factory.hpp:77] Creating layer fc2
I0521 17:54:04.217631 16676 net.cpp:84] Creating Layer fc2
I0521 17:54:04.217633 16676 net.cpp:406] fc2 <- pool1
I0521 17:54:04.217638 16676 net.cpp:380] fc2 -> fc2
I0521 17:54:04.232916 16676 net.cpp:122] Setting up fc2
I0521 17:54:04.232928 16676 net.cpp:129] Top shape: 1 128 (128)
I0521 17:54:04.232931 16676 net.cpp:137] Memory required for data: 475712
I0521 17:54:04.232938 16676 layer_factory.hpp:77] Creating layer relu2
I0521 17:54:04.232942 16676 net.cpp:84] Creating Layer relu2
I0521 17:54:04.232945 16676 net.cpp:406] relu2 <- fc2
I0521 17:54:04.232949 16676 net.cpp:367] relu2 -> fc2 (in-place)
I0521 17:54:04.233064 16676 net.cpp:122] Setting up relu2
I0521 17:54:04.233070 16676 net.cpp:129] Top shape: 1 128 (128)
I0521 17:54:04.233073 16676 net.cpp:137] Memory required for data: 476224
I0521 17:54:04.233075 16676 layer_factory.hpp:77] Creating layer drop2
I0521 17:54:04.233080 16676 net.cpp:84] Creating Layer drop2
I0521 17:54:04.233083 16676 net.cpp:406] drop2 <- fc2
I0521 17:54:04.233086 16676 net.cpp:367] drop2 -> fc2 (in-place)
I0521 17:54:04.233108 16676 net.cpp:122] Setting up drop2
I0521 17:54:04.233111 16676 net.cpp:129] Top shape: 1 128 (128)
I0521 17:54:04.233114 16676 net.cpp:137] Memory required for data: 476736
I0521 17:54:04.233116 16676 layer_factory.hpp:77] Creating layer fc3
I0521 17:54:04.233120 16676 net.cpp:84] Creating Layer fc3
I0521 17:54:04.233122 16676 net.cpp:406] fc3 <- fc2
I0521 17:54:04.233126 16676 net.cpp:380] fc3 -> fc3
I0521 17:54:04.233217 16676 net.cpp:122] Setting up fc3
I0521 17:54:04.233220 16676 net.cpp:129] Top shape: 1 2 (2)
I0521 17:54:04.233223 16676 net.cpp:137] Memory required for data: 476744
I0521 17:54:04.233227 16676 layer_factory.hpp:77] Creating layer prob
I0521 17:54:04.233230 16676 net.cpp:84] Creating Layer prob
I0521 17:54:04.233233 16676 net.cpp:406] prob <- fc3
I0521 17:54:04.233237 16676 net.cpp:380] prob -> prob
I0521 17:54:04.233383 16676 net.cpp:122] Setting up prob
I0521 17:54:04.233389 16676 net.cpp:129] Top shape: 1 2 (2)
I0521 17:54:04.233392 16676 net.cpp:137] Memory required for data: 476752
I0521 17:54:04.233394 16676 net.cpp:200] prob does not need backward computation.
I0521 17:54:04.233397 16676 net.cpp:200] fc3 does not need backward computation.
I0521 17:54:04.233399 16676 net.cpp:200] drop2 does not need backward computation.
I0521 17:54:04.233402 16676 net.cpp:200] relu2 does not need backward computation.
…
I0521 17:54:04.237660 16676 upgrade_proto.cpp:67] Attempting to upgrade input file specified using deprecated input fields: /home/work/qinhuan/mywork/license_plate/cascadeCNN_license_plate_detection/train_net/jobs/license_24cal/deploy.prototxt
I0521 17:54:04.237666 16676 upgrade_proto.cpp:70] Successfully upgraded file specified using deprecated input fields.
W0521 17:54:04.237669 16676 upgrade_proto.cpp:72] Note that future Caffe releases will only support input layers and not input fields.
I0521 17:54:04.237730 16676 net.cpp:51] Initializing net from parameters: 
name: "license_24cal_deploy"
state {
  phase: TEST
  level: 0
}
layer {
  name: "input"
  type: "Input"
  top: "data"
  input_param {
    shape {
      dim: 1
      dim: 3
      dim: 12
      dim: 36
    }
  }
}
layer {
  name: "conv1_1"
  type: "Convolution"
  bottom: "data"
  top: "conv1_1"
  param {
    lr_mult: 1
  }
  param {
    lr_mult: 2
  }
  convolution_param {
    num_output: 32
    pad: 2
    kernel_size: 5
    weight_filler {
      type: "gaussian"
      std: 0.0001
    }
    bias_filler {
      type: "constant"
    }
  }
}
layer {
  name: "relu1_1"
  type: "ReLU"
  bottom: "conv1_1"
  top: "conv1_1"
}
layer {
  name: "pool1"
  type: "Pooling"
  bottom: "conv1_1"
  top: "pool1"
  pooling_param {
    pool: MAX
    kernel_size: 3
    stride: 2
    pad: 1
  }
}
layer {
  name: "fc2"
  type: "InnerProduct"
  bottom: "pool1"
  top: "fc2"
  param {
    lr_mult: 1
    decay_mult: 1
  }
  param {
    lr_mult: 2
    decay_mult: 0
  }
  inner_product_param {
    num_output: 64
    weight_filler {
      type: "gaussian"
      std: 0.005
    }
    bias_filler {
      type: "constant"
    }
  }
}
layer {
  name: "relu2"
  type: "ReLU"
  bottom: "fc2"
  top: "fc2"
}
layer {
  name: "drop2"
  type: "Dropout"
  bottom: "fc2"
  top: "fc2"
  dropout_param {
    dropout_ratio: 0.5
  }
}
layer {
  name: "fc3"
  type: "InnerProduct"
  bottom: "fc2"
  top: "fc3"
  param {
    lr_mult: 1
    decay_mult: 100
  }
  param {
    lr_mult: 2
    decay_mult: 0
  }
  inner_product_param {
    num_output: 45
    weight_filler {
      type: "gaussian"
      std: 0.01
    }
    bias_filler {
      type: "constant"
      value: 0
    }
  }
}
layer {
  name: "prob"
  type: "Softmax"
  bottom: "fc3"
  top: "prob"
}
I0521 17:54:04.237751 16676 layer_factory.hpp:77] Creating layer input
I0521 17:54:04.237757 16676 net.cpp:84] Creating Layer input
I0521 17:54:04.237761 16676 net.cpp:380] input -> data
I0521 17:54:04.237818 16676 net.cpp:122] Setting up input
I0521 17:54:04.237824 16676 net.cpp:129] Top shape: 1 3 12 36 (1296)
I0521 17:54:04.237826 16676 net.cpp:137] Memory required for data: 5184
I0521 17:54:04.237829 16676 layer_factory.hpp:77] Creating layer conv1_1
I0521 17:54:04.237835 16676 net.cpp:84] Creating Layer conv1_1
I0521 17:54:04.237838 16676 net.cpp:406] conv1_1 <- data
I0521 17:54:04.237843 16676 net.cpp:380] conv1_1 -> conv1_1
I0521 17:54:04.238926 16676 net.cpp:122] Setting up conv1_1
I0521 17:54:04.238936 16676 net.cpp:129] Top shape: 1 32 12 36 (13824)
I0521 17:54:04.238940 16676 net.cpp:137] Memory required for data: 60480
I0521 17:54:04.238945 16676 layer_factory.hpp:77] Creating layer relu1_1
I0521 17:54:04.238950 16676 net.cpp:84] Creating Layer relu1_1
I0521 17:54:04.238953 16676 net.cpp:406] relu1_1 <- conv1_1
I0521 17:54:04.238956 16676 net.cpp:367] relu1_1 -> conv1_1 (in-place)
I0521 17:54:04.239051 16676 net.cpp:122] Setting up relu1_1
I0521 17:54:04.239056 16676 net.cpp:129] Top shape: 1 32 12 36 (13824)
I0521 17:54:04.239059 16676 net.cpp:137] Memory required for data: 115776
I0521 17:54:04.239061 16676 layer_factory.hpp:77] Creating layer pool1
I0521 17:54:04.239065 16676 net.cpp:84] Creating Layer pool1
I0521 17:54:04.239068 16676 net.cpp:406] pool1 <- conv1_1
I0521 17:54:04.239071 16676 net.cpp:380] pool1 -> pool1
I0521 17:54:04.239107 16676 net.cpp:122] Setting up pool1
I0521 17:54:04.239114 16676 net.cpp:129] Top shape: 1 32 7 19 (4256)
I0521 17:54:04.239117 16676 net.cpp:137] Memory required for data: 132800
I0521 17:54:04.239120 16676 layer_factory.hpp:77] Creating layer fc2
I0521 17:54:04.239125 16676 net.cpp:84] Creating Layer fc2
I0521 17:54:04.239126 16676 net.cpp:406] fc2 <- pool1
I0521 17:54:04.239130 16676 net.cpp:380] fc2 -> fc2
I0521 17:54:04.243649 16676 net.cpp:122] Setting up fc2
I0521 17:54:04.243655 16676 net.cpp:129] Top shape: 1 64 (64)
I0521 17:54:04.243657 16676 net.cpp:137] Memory required for data: 133056
I0521 17:54:04.243662 16676 layer_factory.hpp:77] Creating layer relu2
I0521 17:54:04.243666 16676 net.cpp:84] Creating Layer relu2
I0521 17:54:04.243669 16676 net.cpp:406] relu2 <- fc2
I0521 17:54:04.243671 16676 net.cpp:367] relu2 -> fc2 (in-place)
I0521 17:54:04.244163 16676 net.cpp:122] Setting up relu2
I0521 17:54:04.244170 16676 net.cpp:129] Top shape: 1 64 (64)
I0521 17:54:04.244174 16676 net.cpp:137] Memory required for data: 133312
I0521 17:54:04.244175 16676 layer_factory.hpp:77] Creating layer drop2
I0521 17:54:04.244180 16676 net.cpp:84] Creating Layer drop2
I0521 17:54:04.244182 16676 net.cpp:406] drop2 <- fc2
I0521 17:54:04.244186 16676 net.cpp:367] drop2 -> fc2 (in-place)
I0521 17:54:04.244209 16676 net.cpp:122] Setting up drop2
I0521 17:54:04.244212 16676 net.cpp:129] Top shape: 1 64 (64)
I0521 17:54:04.244215 16676 net.cpp:137] Memory required for data: 133568
I0521 17:54:04.244216 16676 layer_factory.hpp:77] Creating layer fc3
I0521 17:54:04.244220 16676 net.cpp:84] Creating Layer fc3
I0521 17:54:04.244222 16676 net.cpp:406] fc3 <- fc2
I0521 17:54:04.244226 16676 net.cpp:380] fc3 -> fc3
I0521 17:54:04.244381 16676 net.cpp:122] Setting up fc3
I0521 17:54:04.244387 16676 net.cpp:129] Top shape: 1 45 (45)
I0521 17:54:04.244390 16676 net.cpp:137] Memory required for data: 133748
I0521 17:54:04.244395 16676 layer_factory.hpp:77] Creating layer prob
I0521 17:54:04.244398 16676 net.cpp:84] Creating Layer prob
I0521 17:54:04.244401 16676 net.cpp:406] prob <- fc3
I0521 17:54:04.244405 16676 net.cpp:380] prob -> prob
I0521 17:54:04.244552 16676 net.cpp:122] Setting up prob
I0521 17:54:04.244559 16676 net.cpp:129] Top shape: 1 45 (45)
I0521 17:54:04.244560 16676 net.cpp:137] Memory required for data: 133928
I0521 17:54:04.244563 16676 net.cpp:200] prob does not need backward computation.
I0521 17:54:04.244565 16676 net.cpp:200] fc3 does not need backward computation.
I0521 17:54:04.244567 16676 net.cpp:200] drop2 does not need backward computation.
I0521 17:54:04.244570 16676 net.cpp:200] relu2 does not need backward computation.
…
