…
I0513 16:01:47.734905 20779 upgrade_proto.cpp:70] Successfully upgraded file specified using deprecated input fields.
W0513 16:01:47.734906 20779 upgrade_proto.cpp:72] Note that future Caffe releases will only support input layers and not input fields.
I0513 16:01:47.734973 20779 net.cpp:51] Initializing net from parameters: 
name: "license_24c_train"
state {
  phase: TRAIN
}
layer {
  name: "input"
  type: "Input"
  top: "data"
  top: "label"
  input_param {
    shape {
      dim: 128
      dim: 3
      dim: 12
      dim: 36
    }
    shape {
      dim: 128
    }
  }
}
layer {
  name: "conv1_1"
  type: "Convolution"
  bottom: "data"
  top: "conv1_1"
  param {
    lr_mult: 1
    decay_mult: 1
  }
  param {
    lr_mult: 2
    decay_mult: 0
  }
  convolution_param {
    num_output: 64
    pad: 1
    kernel_size: 3
    weight_filler {
      type: "gaussian"
      std: 0.0001
    }
    bias_filler {
      type: "constant"
    }
  }
}
layer {
  name: "relu1_1"
  type: "ReLU"
  bottom: "conv1_1"
  top: "conv1_1"
}
layer {
  name: "conv1_2"
  type: "Convolution"
  bottom: "conv1_1"
  top: "conv1_2"
  param {
    lr_mult: 1
    decay_mult: 1
  }
  param {
    lr_mult: 2
    decay_mult: 0
  }
  convolution_param {
    num_output: 64
    pad: 1
    kernel_size: 3
    weight_filler {
      type: "gaussian"
      std: 0.0001
    }
    bias_filler {
      type: "constant"
    }
  }
}
layer {
  name: "relu1_2"
  type: "ReLU"
  bottom: "conv1_2"
  top: "conv1_2"
}
layer {
  name: "pool1"
  type: "Pooling"
  bottom: "conv1_2"
  top: "pool1"
  pooling_param {
    pool: MAX
    kernel_size: 3
    stride: 2
  }
}
layer {
  name: "fc2"
  type: "InnerProduct"
  bottom: "pool1"
  top: "fc2"
  param {
    lr_mult: 1
    decay_mult: 1
  }
  param {
    lr_mult: 2
    decay_mult: 0
  }
  inner_product_param {
    num_output: 128
    weight_filler {
      type: "gaussian"
      std: 0.005
    }
    bias_filler {
      type: "constant"
    }
  }
}
layer {
  name: "relu2"
  type: "ReLU"
  bottom: "fc2"
  top: "fc2"
}
layer {
  name: "drop2"
  type: "Dropout"
  bottom: "fc2"
  top: "fc2"
  dropout_param {
    dropout_ratio: 0.5
  }
}
layer {
  name: "fc3"
  type: "InnerProduct"
  bottom: "fc2"
  top: "fc3"
  param {
    lr_mult: 1
    decay_mult: 100
  }
  param {
    lr_mult: 2
    decay_mult: 0
  }
  inner_product_param {
    num_output: 2
    weight_filler {
      type: "gaussian"
      std: 0.01
    }
    bias_filler {
      type: "constant"
      value: 0
    }
  }
}
layer {
  name: "loss"
  type: "SoftmaxWithLoss"
  bottom: "fc3"
  bottom: "label"
  top: "loss"
}
I0513 16:01:47.735000 20779 layer_factory.hpp:77] Creating layer input
I0513 16:01:47.735007 20779 net.cpp:84] Creating Layer input
I0513 16:01:47.735010 20779 net.cpp:380] input -> data
I0513 16:01:47.735018 20779 net.cpp:380] input -> label
I0513 16:01:47.735765 20779 net.cpp:122] Setting up input
I0513 16:01:47.735775 20779 net.cpp:129] Top shape: 128 3 12 36 (165888)
I0513 16:01:47.735781 20779 net.cpp:129] Top shape: 128 (128)
I0513 16:01:47.735785 20779 net.cpp:137] Memory required for data: 664064
I0513 16:01:47.735788 20779 layer_factory.hpp:77] Creating layer conv1_1
I0513 16:01:47.735795 20779 net.cpp:84] Creating Layer conv1_1
I0513 16:01:47.735798 20779 net.cpp:406] conv1_1 <- data
I0513 16:01:47.735802 20779 net.cpp:380] conv1_1 -> conv1_1
I0513 16:01:47.904547 20779 net.cpp:122] Setting up conv1_1
I0513 16:01:47.904568 20779 net.cpp:129] Top shape: 128 64 12 36 (3538944)
I0513 16:01:47.904572 20779 net.cpp:137] Memory required for data: 14819840
I0513 16:01:47.904582 20779 layer_factory.hpp:77] Creating layer relu1_1
I0513 16:01:47.904589 20779 net.cpp:84] Creating Layer relu1_1
I0513 16:01:47.904592 20779 net.cpp:406] relu1_1 <- conv1_1
I0513 16:01:47.904597 20779 net.cpp:367] relu1_1 -> conv1_1 (in-place)
I0513 16:01:47.904698 20779 net.cpp:122] Setting up relu1_1
I0513 16:01:47.904705 20779 net.cpp:129] Top shape: 128 64 12 36 (3538944)
I0513 16:01:47.904706 20779 net.cpp:137] Memory required for data: 28975616
I0513 16:01:47.904709 20779 layer_factory.hpp:77] Creating layer conv1_2
I0513 16:01:47.904717 20779 net.cpp:84] Creating Layer conv1_2
I0513 16:01:47.904721 20779 net.cpp:406] conv1_2 <- conv1_1
I0513 16:01:47.904724 20779 net.cpp:380] conv1_2 -> conv1_2
I0513 16:01:47.906842 20779 net.cpp:122] Setting up conv1_2
I0513 16:01:47.906852 20779 net.cpp:129] Top shape: 128 64 12 36 (3538944)
I0513 16:01:47.906855 20779 net.cpp:137] Memory required for data: 43131392
I0513 16:01:47.906862 20779 layer_factory.hpp:77] Creating layer relu1_2
I0513 16:01:47.906867 20779 net.cpp:84] Creating Layer relu1_2
I0513 16:01:47.906869 20779 net.cpp:406] relu1_2 <- conv1_2
I0513 16:01:47.906873 20779 net.cpp:367] relu1_2 -> conv1_2 (in-place)
I0513 16:01:47.906965 20779 net.cpp:122] Setting up relu1_2
I0513 16:01:47.906970 20779 net.cpp:129] Top shape: 128 64 12 36 (3538944)
I0513 16:01:47.906973 20779 net.cpp:137] Memory required for data: 57287168
I0513 16:01:47.906975 20779 layer_factory.hpp:77] Creating layer pool1
I0513 16:01:47.906980 20779 net.cpp:84] Creating Layer pool1
I0513 16:01:47.906982 20779 net.cpp:406] pool1 <- conv1_2
I0513 16:01:47.906986 20779 net.cpp:380] pool1 -> pool1
I0513 16:01:47.907019 20779 net.cpp:122] Setting up pool1
I0513 16:01:47.907024 20779 net.cpp:129] Top shape: 128 64 6 18 (884736)
I0513 16:01:47.907027 20779 net.cpp:137] Memory required for data: 60826112
I0513 16:01:47.907029 20779 layer_factory.hpp:77] Creating layer fc2
I0513 16:01:47.907033 20779 net.cpp:84] Creating Layer fc2
I0513 16:01:47.907037 20779 net.cpp:406] fc2 <- pool1
I0513 16:01:47.907039 20779 net.cpp:380] fc2 -> fc2
I0513 16:01:47.922292 20779 net.cpp:122] Setting up fc2
I0513 16:01:47.922303 20779 net.cpp:129] Top shape: 128 128 (16384)
I0513 16:01:47.922307 20779 net.cpp:137] Memory required for data: 60891648
I0513 16:01:47.922312 20779 layer_factory.hpp:77] Creating layer relu2
I0513 16:01:47.922317 20779 net.cpp:84] Creating Layer relu2
I0513 16:01:47.922319 20779 net.cpp:406] relu2 <- fc2
I0513 16:01:47.922323 20779 net.cpp:367] relu2 -> fc2 (in-place)
I0513 16:01:47.922807 20779 net.cpp:122] Setting up relu2
I0513 16:01:47.922816 20779 net.cpp:129] Top shape: 128 128 (16384)
I0513 16:01:47.922818 20779 net.cpp:137] Memory required for data: 60957184
I0513 16:01:47.922821 20779 layer_factory.hpp:77] Creating layer drop2
I0513 16:01:47.922827 20779 net.cpp:84] Creating Layer drop2
I0513 16:01:47.922830 20779 net.cpp:406] drop2 <- fc2
I0513 16:01:47.922833 20779 net.cpp:367] drop2 -> fc2 (in-place)
I0513 16:01:47.922852 20779 net.cpp:122] Setting up drop2
I0513 16:01:47.922855 20779 net.cpp:129] Top shape: 128 128 (16384)
I0513 16:01:47.922857 20779 net.cpp:137] Memory required for data: 61022720
I0513 16:01:47.922860 20779 layer_factory.hpp:77] Creating layer fc3
I0513 16:01:47.922864 20779 net.cpp:84] Creating Layer fc3
I0513 16:01:47.922868 20779 net.cpp:406] fc3 <- fc2
I0513 16:01:47.922870 20779 net.cpp:380] fc3 -> fc3
I0513 16:01:47.922960 20779 net.cpp:122] Setting up fc3
I0513 16:01:47.922968 20779 net.cpp:129] Top shape: 128 2 (256)
I0513 16:01:47.922971 20779 net.cpp:137] Memory required for data: 61023744
I0513 16:01:47.922976 20779 layer_factory.hpp:77] Creating layer loss
I0513 16:01:47.922979 20779 net.cpp:84] Creating Layer loss
I0513 16:01:47.922982 20779 net.cpp:406] loss <- fc3
I0513 16:01:47.922986 20779 net.cpp:406] loss <- label
I0513 16:01:47.922988 20779 net.cpp:380] loss -> loss
I0513 16:01:47.922994 20779 layer_factory.hpp:77] Creating layer loss
…
I0513 16:01:47.923367 20779 solver.cpp:172] Creating test net (#0) specified by test_net file: /home/work/qinhuan/mywork/license_plate/cascadeCNN_license_plate_detection/train_net/jobs/license_24c/test.prototxt
I0513 16:01:47.923434 20779 net.cpp:51] Initializing net from parameters: 
name: "license_24c_test"
state {
  phase: TEST
}
layer {
  name: "data"
  type: "Data"
  top: "data"
  top: "label"
  transform_param {
    mean_file: "/home/work/qinhuan/mywork/license_plate/data/lmdb/license_train_24c_imagenet_mean.binaryproto"
  }
  data_param {
    source: "/home/work/qinhuan/mywork/license_plate/data/lmdb/license_val_24c_lmdb"
    batch_size: 50
    backend: LMDB
  }
}
layer {
  name: "conv1_1"
  type: "Convolution"
  bottom: "data"
  top: "conv1_1"
  param {
    lr_mult: 1
    decay_mult: 1
  }
  param {
    lr_mult: 2
    decay_mult: 0
  }
  convolution_param {
    num_output: 64
    pad: 1
    kernel_size: 3
    weight_filler {
      type: "gaussian"
      std: 0.0001
    }
    bias_filler {
      type: "constant"
    }
  }
}
layer {
  name: "relu1_1"
  type: "ReLU"
  bottom: "conv1_1"
  top: "conv1_1"
}
layer {
  name: "conv1_2"
  type: "Convolution"
  bottom: "conv1_1"
  top: "conv1_2"
  param {
    lr_mult: 1
    decay_mult: 1
  }
  param {
    lr_mult: 2
    decay_mult: 0
  }
  convolution_param {
    num_output: 64
    pad: 1
    kernel_size: 3
    weight_filler {
      type: "gaussian"
      std: 0.0001
    }
    bias_filler {
      type: "constant"
    }
  }
}
layer {
  name: "relu1_2"
  type: "ReLU"
  bottom: "conv1_2"
  top: "conv1_2"
}
layer {
  name: "pool1"
  type: "Pooling"
  bottom: "conv1_2"
  top: "pool1"
  pooling_param {
    pool: MAX
    kernel_size: 3
    stride: 2
  }
}
layer {
  name: "fc2"
  type: "InnerProduct"
  bottom: "pool1"
  top: "fc2"
  param {
    lr_mult: 1
    decay_mult: 1
  }
  param {
    lr_mult: 2
    decay_mult: 0
  }
  inner_product_param {
    num_output: 128
    weight_filler {
      type: "gaussian"
      std: 0.005
    }
    bias_filler {
      type: "constant"
    }
  }
}
layer {
  name: "relu2"
  type: "ReLU"
  bottom: "fc2"
  top: "fc2"
}
layer {
  name: "drop2"
  type: "Dropout"
  bottom: "fc2"
  top: "fc2"
  dropout_param {
    dropout_ratio: 0.5
  }
}
layer {
  name: "fc3"
  type: "InnerProduct"
  bottom: "fc2"
  top: "fc3"
  param {
    lr_mult: 1
    decay_mult: 100
  }
  param {
    lr_mult: 2
    decay_mult: 0
  }
  inner_product_param {
    num_output: 2
    weight_filler {
      type: "gaussian"
      std: 0.01
    }
    bias_filler {
      type: "constant"
      value: 0
    }
  }
}
layer {
  name: "accuracy"
  type: "Accuracy"
  bottom: "fc3"
  bottom: "label"
  top: "accuracy"
}
I0513 16:01:47.923461 20779 layer_factory.hpp:77] Creating layer data
I0513 16:01:47.923493 20779 db_lmdb.cpp:35] Opened lmdb /home/work/qinhuan/mywork/license_plate/data/lmdb/license_val_24c_lmdb
I0513 16:01:47.923502 20779 net.cpp:84] Creating Layer data
I0513 16:01:47.923506 20779 net.cpp:380] data -> data
I0513 16:01:47.923511 20779 net.cpp:380] data -> label
I0513 16:01:47.923516 20779 data_transformer.cpp:25] Loading mean file from: /home/work/qinhuan/mywork/license_plate/data/lmdb/license_train_24c_imagenet_mean.binaryproto
I0513 16:01:47.923636 20779 data_layer.cpp:45] output data size: 50,3,12,36
I0513 16:01:47.925971 20779 net.cpp:122] Setting up data
I0513 16:01:47.925981 20779 net.cpp:129] Top shape: 50 3 12 36 (64800)
I0513 16:01:47.925984 20779 net.cpp:129] Top shape: 50 (50)
I0513 16:01:47.925987 20779 net.cpp:137] Memory required for data: 259400
I0513 16:01:47.925990 20779 layer_factory.hpp:77] Creating layer conv1_1
I0513 16:01:47.925997 20779 net.cpp:84] Creating Layer conv1_1
I0513 16:01:47.926000 20779 net.cpp:406] conv1_1 <- data
I0513 16:01:47.926004 20779 net.cpp:380] conv1_1 -> conv1_1
I0513 16:01:47.927109 20779 net.cpp:122] Setting up conv1_1
I0513 16:01:47.927119 20779 net.cpp:129] Top shape: 50 64 12 36 (1382400)
I0513 16:01:47.927121 20779 net.cpp:137] Memory required for data: 5789000
I0513 16:01:47.927129 20779 layer_factory.hpp:77] Creating layer relu1_1
I0513 16:01:47.927132 20779 net.cpp:84] Creating Layer relu1_1
I0513 16:01:47.927135 20779 net.cpp:406] relu1_1 <- conv1_1
I0513 16:01:47.927139 20779 net.cpp:367] relu1_1 -> conv1_1 (in-place)
I0513 16:01:47.927258 20779 net.cpp:122] Setting up relu1_1
I0513 16:01:47.927265 20779 net.cpp:129] Top shape: 50 64 12 36 (1382400)
I0513 16:01:47.927268 20779 net.cpp:137] Memory required for data: 11318600
I0513 16:01:47.927270 20779 layer_factory.hpp:77] Creating layer conv1_2
I0513 16:01:47.927276 20779 net.cpp:84] Creating Layer conv1_2
I0513 16:01:47.927279 20779 net.cpp:406] conv1_2 <- conv1_1
I0513 16:01:47.927284 20779 net.cpp:380] conv1_2 -> conv1_2
I0513 16:01:47.929359 20779 net.cpp:122] Setting up conv1_2
I0513 16:01:47.929369 20779 net.cpp:129] Top shape: 50 64 12 36 (1382400)
I0513 16:01:47.929373 20779 net.cpp:137] Memory required for data: 16848200
I0513 16:01:47.929378 20779 layer_factory.hpp:77] Creating layer relu1_2
I0513 16:01:47.929383 20779 net.cpp:84] Creating Layer relu1_2
I0513 16:01:47.929386 20779 net.cpp:406] relu1_2 <- conv1_2
I0513 16:01:47.929389 20779 net.cpp:367] relu1_2 -> conv1_2 (in-place)
I0513 16:01:47.929489 20779 net.cpp:122] Setting up relu1_2
I0513 16:01:47.929494 20779 net.cpp:129] Top shape: 50 64 12 36 (1382400)
I0513 16:01:47.929497 20779 net.cpp:137] Memory required for data: 22377800
I0513 16:01:47.929499 20779 layer_factory.hpp:77] Creating layer pool1
I0513 16:01:47.929504 20779 net.cpp:84] Creating Layer pool1
I0513 16:01:47.929507 20779 net.cpp:406] pool1 <- conv1_2
I0513 16:01:47.929510 20779 net.cpp:380] pool1 -> pool1
I0513 16:01:47.929545 20779 net.cpp:122] Setting up pool1
I0513 16:01:47.929550 20779 net.cpp:129] Top shape: 50 64 6 18 (345600)
I0513 16:01:47.929553 20779 net.cpp:137] Memory required for data: 23760200
I0513 16:01:47.929555 20779 layer_factory.hpp:77] Creating layer fc2
I0513 16:01:47.929559 20779 net.cpp:84] Creating Layer fc2
I0513 16:01:47.929563 20779 net.cpp:406] fc2 <- pool1
I0513 16:01:47.929565 20779 net.cpp:380] fc2 -> fc2
I0513 16:01:47.944808 20779 net.cpp:122] Setting up fc2
I0513 16:01:47.944820 20779 net.cpp:129] Top shape: 50 128 (6400)
I0513 16:01:47.944823 20779 net.cpp:137] Memory required for data: 23785800
I0513 16:01:47.944830 20779 layer_factory.hpp:77] Creating layer relu2
I0513 16:01:47.944835 20779 net.cpp:84] Creating Layer relu2
I0513 16:01:47.944841 20779 net.cpp:406] relu2 <- fc2
I0513 16:01:47.944845 20779 net.cpp:367] relu2 -> fc2 (in-place)
I0513 16:01:47.945350 20779 net.cpp:122] Setting up relu2
I0513 16:01:47.945358 20779 net.cpp:129] Top shape: 50 128 (6400)
I0513 16:01:47.945361 20779 net.cpp:137] Memory required for data: 23811400
I0513 16:01:47.945364 20779 layer_factory.hpp:77] Creating layer drop2
I0513 16:01:47.945370 20779 net.cpp:84] Creating Layer drop2
I0513 16:01:47.945374 20779 net.cpp:406] drop2 <- fc2
I0513 16:01:47.945376 20779 net.cpp:367] drop2 -> fc2 (in-place)
I0513 16:01:47.945401 20779 net.cpp:122] Setting up drop2
I0513 16:01:47.945406 20779 net.cpp:129] Top shape: 50 128 (6400)
I0513 16:01:47.945408 20779 net.cpp:137] Memory required for data: 23837000
I0513 16:01:47.945410 20779 layer_factory.hpp:77] Creating layer fc3
I0513 16:01:47.945415 20779 net.cpp:84] Creating Layer fc3
I0513 16:01:47.945417 20779 net.cpp:406] fc3 <- fc2
I0513 16:01:47.945421 20779 net.cpp:380] fc3 -> fc3
I0513 16:01:47.945513 20779 net.cpp:122] Setting up fc3
I0513 16:01:47.945518 20779 net.cpp:129] Top shape: 50 2 (100)
I0513 16:01:47.945519 20779 net.cpp:137] Memory required for data: 23837400
I0513 16:01:47.945524 20779 layer_factory.hpp:77] Creating layer accuracy
I0513 16:01:47.945528 20779 net.cpp:84] Creating Layer accuracy
I0513 16:01:47.945530 20779 net.cpp:406] accuracy <- fc3
I0513 16:01:47.945533 20779 net.cpp:406] accuracy <- label
I0513 16:01:47.945536 20779 net.cpp:380] accuracy -> accuracy
…
