…
I0601 16:32:31.600765 17655 solver.cpp:77] Creating training net from train_net file: /home/work/qinhuan/mywork/license_plate/cascadeCNN_license_plate_detection/train_net/jobs/license_4c/train.prototxt
I0601 16:32:31.601222 17655 net.cpp:51] Initializing net from parameters: 
name: "license_4c_train"
state {
  phase: TRAIN
}
layer {
  name: "data"
  type: "Input"
  top: "data"
  input_param {
    shape {
      dim: 128
      dim: 3
      dim: 4
      dim: 12
    }
  }
}
layer {
  name: "label"
  type: "Input"
  top: "label"
  input_param {
    shape {
      dim: 128
    }
  }
}
layer {
  name: "conv1"
  type: "Convolution"
  bottom: "data"
  top: "conv1"
  param {
    lr_mult: 1
    decay_mult: 1
  }
  param {
    lr_mult: 2
    decay_mult: 0
  }
  convolution_param {
    num_output: 16
    kernel_size: 3
    weight_filler {
      type: "gaussian"
      std: 0.0001
    }
    bias_filler {
      type: "constant"
    }
  }
}
layer {
  name: "pool1"
  type: "Pooling"
  bottom: "conv1"
  top: "pool1"
  pooling_param {
    pool: MAX
    kernel_size: 3
    stride: 2
  }
}
layer {
  name: "relu1"
  type: "ReLU"
  bottom: "pool1"
  top: "pool1"
}
layer {
  name: "fc2"
  type: "InnerProduct"
  bottom: "pool1"
  top: "fc2"
  param {
    lr_mult: 1
    decay_mult: 1
  }
  param {
    lr_mult: 2
    decay_mult: 0
  }
  inner_product_param {
    num_output: 16
    weight_filler {
      type: "gaussian"
      std: 0.005
    }
    bias_filler {
      type: "constant"
    }
  }
}
layer {
  name: "relu2"
  type: "ReLU"
  bottom: "fc2"
  top: "fc2"
}
layer {
  name: "drop2"
  type: "Dropout"
  bottom: "fc2"
  top: "fc2"
  dropout_param {
    dropout_ratio: 0.5
  }
}
layer {
  name: "fc3"
  type: "InnerProduct"
  bottom: "fc2"
  top: "fc3"
  param {
    lr_mult: 1
    decay_mult: 100
  }
  param {
    lr_mult: 2
    decay_mult: 0
  }
  inner_product_param {
    num_output: 2
    weight_filler {
      type: "gaussian"
      std: 0.01
    }
    bias_filler {
      type: "constant"
      value: 0
    }
  }
}
layer {
  name: "loss"
  type: "SoftmaxWithLoss"
  bottom: "fc3"
  bottom: "label"
  top: "loss"
}
I0601 16:32:31.601294 17655 layer_factory.hpp:77] Creating layer data
I0601 16:32:31.601312 17655 net.cpp:84] Creating Layer data
I0601 16:32:31.601320 17655 net.cpp:380] data -> data
I0601 16:32:31.603299 17655 net.cpp:122] Setting up data
I0601 16:32:31.603323 17655 net.cpp:129] Top shape: 128 3 4 12 (18432)
I0601 16:32:31.603327 17655 net.cpp:137] Memory required for data: 73728
I0601 16:32:31.603332 17655 layer_factory.hpp:77] Creating layer label
I0601 16:32:31.603341 17655 net.cpp:84] Creating Layer label
I0601 16:32:31.603346 17655 net.cpp:380] label -> label
I0601 16:32:31.603391 17655 net.cpp:122] Setting up label
I0601 16:32:31.603399 17655 net.cpp:129] Top shape: 128 (128)
I0601 16:32:31.603402 17655 net.cpp:137] Memory required for data: 74240
I0601 16:32:31.603406 17655 layer_factory.hpp:77] Creating layer conv1
I0601 16:32:31.603425 17655 net.cpp:84] Creating Layer conv1
I0601 16:32:31.603428 17655 net.cpp:406] conv1 <- data
I0601 16:32:31.603440 17655 net.cpp:380] conv1 -> conv1
I0601 16:32:31.974195 17655 net.cpp:122] Setting up conv1
I0601 16:32:31.974244 17655 net.cpp:129] Top shape: 128 16 2 10 (40960)
I0601 16:32:31.974251 17655 net.cpp:137] Memory required for data: 238080
I0601 16:32:31.974278 17655 layer_factory.hpp:77] Creating layer pool1
I0601 16:32:31.974315 17655 net.cpp:84] Creating Layer pool1
I0601 16:32:31.974323 17655 net.cpp:406] pool1 <- conv1
I0601 16:32:31.974330 17655 net.cpp:380] pool1 -> pool1
I0601 16:32:31.974406 17655 net.cpp:122] Setting up pool1
I0601 16:32:31.974412 17655 net.cpp:129] Top shape: 128 16 1 5 (10240)
I0601 16:32:31.974416 17655 net.cpp:137] Memory required for data: 279040
I0601 16:32:31.974421 17655 layer_factory.hpp:77] Creating layer relu1
I0601 16:32:31.974438 17655 net.cpp:84] Creating Layer relu1
I0601 16:32:31.974443 17655 net.cpp:406] relu1 <- pool1
I0601 16:32:31.974449 17655 net.cpp:367] relu1 -> pool1 (in-place)
I0601 16:32:31.974645 17655 net.cpp:122] Setting up relu1
I0601 16:32:31.974654 17655 net.cpp:129] Top shape: 128 16 1 5 (10240)
I0601 16:32:31.974658 17655 net.cpp:137] Memory required for data: 320000
I0601 16:32:31.974663 17655 layer_factory.hpp:77] Creating layer fc2
I0601 16:32:31.974676 17655 net.cpp:84] Creating Layer fc2
I0601 16:32:31.974680 17655 net.cpp:406] fc2 <- pool1
I0601 16:32:31.974686 17655 net.cpp:380] fc2 -> fc2
I0601 16:32:31.976836 17655 net.cpp:122] Setting up fc2
I0601 16:32:31.976855 17655 net.cpp:129] Top shape: 128 16 (2048)
I0601 16:32:31.976861 17655 net.cpp:137] Memory required for data: 328192
I0601 16:32:31.976871 17655 layer_factory.hpp:77] Creating layer relu2
I0601 16:32:31.976881 17655 net.cpp:84] Creating Layer relu2
I0601 16:32:31.976884 17655 net.cpp:406] relu2 <- fc2
I0601 16:32:31.976891 17655 net.cpp:367] relu2 -> fc2 (in-place)
I0601 16:32:31.978291 17655 net.cpp:122] Setting up relu2
I0601 16:32:31.978309 17655 net.cpp:129] Top shape: 128 16 (2048)
I0601 16:32:31.978314 17655 net.cpp:137] Memory required for data: 336384
I0601 16:32:31.978319 17655 layer_factory.hpp:77] Creating layer drop2
I0601 16:32:31.978332 17655 net.cpp:84] Creating Layer drop2
I0601 16:32:31.978337 17655 net.cpp:406] drop2 <- fc2
I0601 16:32:31.978343 17655 net.cpp:367] drop2 -> fc2 (in-place)
I0601 16:32:31.978377 17655 net.cpp:122] Setting up drop2
I0601 16:32:31.978384 17655 net.cpp:129] Top shape: 128 16 (2048)
I0601 16:32:31.978389 17655 net.cpp:137] Memory required for data: 344576
I0601 16:32:31.978391 17655 layer_factory.hpp:77] Creating layer fc3
I0601 16:32:31.978401 17655 net.cpp:84] Creating Layer fc3
I0601 16:32:31.978405 17655 net.cpp:406] fc3 <- fc2
I0601 16:32:31.978411 17655 net.cpp:380] fc3 -> fc3
I0601 16:32:31.978593 17655 net.cpp:122] Setting up fc3
I0601 16:32:31.978601 17655 net.cpp:129] Top shape: 128 2 (256)
I0601 16:32:31.978605 17655 net.cpp:137] Memory required for data: 345600
I0601 16:32:31.978615 17655 layer_factory.hpp:77] Creating layer loss
I0601 16:32:31.978626 17655 net.cpp:84] Creating Layer loss
I0601 16:32:31.978629 17655 net.cpp:406] loss <- fc3
I0601 16:32:31.978634 17655 net.cpp:406] loss <- label
I0601 16:32:31.978641 17655 net.cpp:380] loss -> loss
I0601 16:32:31.978654 17655 layer_factory.hpp:77] Creating layer loss
…
I0601 16:32:31.979396 17655 solver.cpp:173] Creating test net (#0) specified by test_net file: /home/work/qinhuan/mywork/license_plate/cascadeCNN_license_plate_detection/train_net/jobs/license_4c/test.prototxt
I0601 16:32:31.979533 17655 net.cpp:51] Initializing net from parameters: 
name: "license_4c_test"
state {
  phase: TEST
}
layer {
  name: "data"
  type: "Data"
  top: "data"
  top: "label"
  transform_param {
    mean_file: "/home/work/qinhuan/mywork/license_plate/data/lmdb/license_train_4c_imagenet_mean.binaryproto"
  }
  data_param {
    source: "/home/work/qinhuan/mywork/license_plate/data/lmdb/license_val_4c_lmdb"
    batch_size: 50
    backend: LMDB
  }
}
layer {
  name: "conv1"
  type: "Convolution"
  bottom: "data"
  top: "conv1"
  param {
    lr_mult: 1
    decay_mult: 1
  }
  param {
    lr_mult: 2
    decay_mult: 0
  }
  convolution_param {
    num_output: 16
    kernel_size: 3
    weight_filler {
      type: "gaussian"
      std: 0.0001
    }
    bias_filler {
      type: "constant"
    }
  }
}
layer {
  name: "pool1"
  type: "Pooling"
  bottom: "conv1"
  top: "pool1"
  pooling_param {
    pool: MAX
    kernel_size: 3
    stride: 2
  }
}
layer {
  name: "relu1"
  type: "ReLU"
  bottom: "pool1"
  top: "pool1"
}
layer {
  name: "fc2"
  type: "InnerProduct"
  bottom: "pool1"
  top: "fc2"
  param {
    lr_mult: 1
    decay_mult: 1
  }
  param {
    lr_mult: 2
    decay_mult: 0
  }
  inner_product_param {
    num_output: 16
    weight_filler {
      type: "gaussian"
      std: 0.005
    }
    bias_filler {
      type: "constant"
    }
  }
}
layer {
  name: "relu2"
  type: "ReLU"
  bottom: "fc2"
  top: "fc2"
}
layer {
  name: "drop2"
  type: "Dropout"
  bottom: "fc2"
  top: "fc2"
  dropout_param {
    dropout_ratio: 0.5
  }
}
layer {
  name: "fc3"
  type: "InnerProduct"
  bottom: "fc2"
  top: "fc3"
  param {
    lr_mult: 1
    decay_mult: 100
  }
  param {
    lr_mult: 2
    decay_mult: 0
  }
  inner_product_param {
    num_output: 2
    weight_filler {
      type: "gaussian"
      std: 0.01
    }
    bias_filler {
      type: "constant"
      value: 0
    }
  }
}
layer {
  name: "accuracy"
  type: "Accuracy"
  bottom: "fc3"
  bottom: "label"
  top: "accuracy"
}
I0601 16:32:31.979581 17655 layer_factory.hpp:77] Creating layer data
I0601 16:32:31.979652 17655 db_lmdb.cpp:35] Opened lmdb /home/work/qinhuan/mywork/license_plate/data/lmdb/license_val_4c_lmdb
I0601 16:32:31.979674 17655 net.cpp:84] Creating Layer data
I0601 16:32:31.979681 17655 net.cpp:380] data -> data
I0601 16:32:31.979697 17655 net.cpp:380] data -> label
I0601 16:32:31.979710 17655 data_transformer.cpp:25] Loading mean file from: /home/work/qinhuan/mywork/license_plate/data/lmdb/license_train_4c_imagenet_mean.binaryproto
I0601 16:32:31.979930 17655 data_layer.cpp:45] output data size: 50,3,4,12
I0601 16:32:31.982352 17655 net.cpp:122] Setting up data
I0601 16:32:31.982372 17655 net.cpp:129] Top shape: 50 3 4 12 (7200)
I0601 16:32:31.982378 17655 net.cpp:129] Top shape: 50 (50)
I0601 16:32:31.982383 17655 net.cpp:137] Memory required for data: 29000
I0601 16:32:31.982388 17655 layer_factory.hpp:77] Creating layer conv1
I0601 16:32:31.982400 17655 net.cpp:84] Creating Layer conv1
I0601 16:32:31.982406 17655 net.cpp:406] conv1 <- data
I0601 16:32:31.982415 17655 net.cpp:380] conv1 -> conv1
I0601 16:32:31.985004 17655 net.cpp:122] Setting up conv1
I0601 16:32:31.985028 17655 net.cpp:129] Top shape: 50 16 2 10 (16000)
I0601 16:32:31.985034 17655 net.cpp:137] Memory required for data: 93000
I0601 16:32:31.985057 17655 layer_factory.hpp:77] Creating layer pool1
I0601 16:32:31.985070 17655 net.cpp:84] Creating Layer pool1
I0601 16:32:31.985075 17655 net.cpp:406] pool1 <- conv1
I0601 16:32:31.985082 17655 net.cpp:380] pool1 -> pool1
I0601 16:32:31.985162 17655 net.cpp:122] Setting up pool1
I0601 16:32:31.985169 17655 net.cpp:129] Top shape: 50 16 1 5 (4000)
I0601 16:32:31.985174 17655 net.cpp:137] Memory required for data: 109000
I0601 16:32:31.985178 17655 layer_factory.hpp:77] Creating layer relu1
I0601 16:32:31.985184 17655 net.cpp:84] Creating Layer relu1
I0601 16:32:31.985198 17655 net.cpp:406] relu1 <- pool1
I0601 16:32:31.985208 17655 net.cpp:367] relu1 -> pool1 (in-place)
I0601 16:32:31.985424 17655 net.cpp:122] Setting up relu1
I0601 16:32:31.985433 17655 net.cpp:129] Top shape: 50 16 1 5 (4000)
I0601 16:32:31.985437 17655 net.cpp:137] Memory required for data: 125000
I0601 16:32:31.985441 17655 layer_factory.hpp:77] Creating layer fc2
I0601 16:32:31.985452 17655 net.cpp:84] Creating Layer fc2
I0601 16:32:31.985456 17655 net.cpp:406] fc2 <- pool1
I0601 16:32:31.985462 17655 net.cpp:380] fc2 -> fc2
I0601 16:32:31.985707 17655 net.cpp:122] Setting up fc2
I0601 16:32:31.985720 17655 net.cpp:129] Top shape: 50 16 (800)
I0601 16:32:31.985724 17655 net.cpp:137] Memory required for data: 128200
I0601 16:32:31.985734 17655 layer_factory.hpp:77] Creating layer relu2
I0601 16:32:31.985740 17655 net.cpp:84] Creating Layer relu2
I0601 16:32:31.985749 17655 net.cpp:406] relu2 <- fc2
I0601 16:32:31.985754 17655 net.cpp:367] relu2 -> fc2 (in-place)
I0601 16:32:31.985961 17655 net.cpp:122] Setting up relu2
I0601 16:32:31.985970 17655 net.cpp:129] Top shape: 50 16 (800)
I0601 16:32:31.985973 17655 net.cpp:137] Memory required for data: 131400
I0601 16:32:31.985977 17655 layer_factory.hpp:77] Creating layer drop2
I0601 16:32:31.985983 17655 net.cpp:84] Creating Layer drop2
I0601 16:32:31.985987 17655 net.cpp:406] drop2 <- fc2
I0601 16:32:31.985993 17655 net.cpp:367] drop2 -> fc2 (in-place)
I0601 16:32:31.986030 17655 net.cpp:122] Setting up drop2
I0601 16:32:31.986037 17655 net.cpp:129] Top shape: 50 16 (800)
I0601 16:32:31.986039 17655 net.cpp:137] Memory required for data: 134600
I0601 16:32:31.986043 17655 layer_factory.hpp:77] Creating layer fc3
I0601 16:32:31.986049 17655 net.cpp:84] Creating Layer fc3
I0601 16:32:31.986053 17655 net.cpp:406] fc3 <- fc2
I0601 16:32:31.986059 17655 net.cpp:380] fc3 -> fc3
I0601 16:32:31.986222 17655 net.cpp:122] Setting up fc3
I0601 16:32:31.986229 17655 net.cpp:129] Top shape: 50 2 (100)
I0601 16:32:31.986233 17655 net.cpp:137] Memory required for data: 135000
I0601 16:32:31.986243 17655 layer_factory.hpp:77] Creating layer accuracy
I0601 16:32:31.986255 17655 net.cpp:84] Creating Layer accuracy
I0601 16:32:31.986259 17655 net.cpp:406] accuracy <- fc3
I0601 16:32:31.986264 17655 net.cpp:406] accuracy <- label
I0601 16:32:31.986270 17655 net.cpp:380] accuracy -> accuracy
I0601 16:32:31.986281 17655 net.cpp:122] Setting up accuracy
…
