…
I0510 20:00:46.805171  3131 upgrade_proto.cpp:70] Successfully upgraded file specified using deprecated input fields.
W0510 20:00:46.805174  3131 upgrade_proto.cpp:72] Note that future Caffe releases will only support input layers and not input fields.
I0510 20:00:46.805230  3131 net.cpp:51] Initializing net from parameters: 
name: "license_12c_train"
state {
  phase: TRAIN
}
layer {
  name: "input"
  type: "Input"
  top: "data"
  top: "label"
  input_param {
    shape {
      dim: 128
      dim: 3
      dim: 12
      dim: 36
    }
    shape {
      dim: 128
    }
  }
}
layer {
  name: "conv1"
  type: "Convolution"
  bottom: "data"
  top: "conv1"
  param {
    lr_mult: 1
    decay_mult: 1
  }
  param {
    lr_mult: 2
    decay_mult: 0
  }
  convolution_param {
    num_output: 16
    kernel_size: 3
    weight_filler {
      type: "gaussian"
      std: 0.0001
    }
    bias_filler {
      type: "constant"
    }
  }
}
layer {
  name: "pool1"
  type: "Pooling"
  bottom: "conv1"
  top: "pool1"
  pooling_param {
    pool: MAX
    kernel_size: 3
    stride: 2
  }
}
layer {
  name: "relu1"
  type: "ReLU"
  bottom: "pool1"
  top: "pool1"
}
layer {
  name: "fc2"
  type: "InnerProduct"
  bottom: "pool1"
  top: "fc2"
  param {
    lr_mult: 1
    decay_mult: 1
  }
  param {
    lr_mult: 2
    decay_mult: 0
  }
  inner_product_param {
    num_output: 16
    weight_filler {
      type: "gaussian"
      std: 0.005
    }
    bias_filler {
      type: "constant"
    }
  }
}
layer {
  name: "relu2"
  type: "ReLU"
  bottom: "fc2"
  top: "fc2"
}
layer {
  name: "drop2"
  type: "Dropout"
  bottom: "fc2"
  top: "fc2"
  dropout_param {
    dropout_ratio: 0.5
  }
}
layer {
  name: "fc3"
  type: "InnerProduct"
  bottom: "fc2"
  top: "fc3"
  param {
    lr_mult: 1
    decay_mult: 100
  }
  param {
    lr_mult: 2
    decay_mult: 0
  }
  inner_product_param {
    num_output: 2
    weight_filler {
      type: "gaussian"
      std: 0.01
    }
    bias_filler {
      type: "constant"
      value: 0
    }
  }
}
layer {
  name: "loss"
  type: "SoftmaxWithLoss"
  bottom: "fc3"
  bottom: "label"
  top: "loss"
}
I0510 20:00:46.805260  3131 layer_factory.hpp:77] Creating layer input
I0510 20:00:46.805268  3131 net.cpp:84] Creating Layer input
I0510 20:00:46.805271  3131 net.cpp:380] input -> data
I0510 20:00:46.805279  3131 net.cpp:380] input -> label
I0510 20:00:46.806061  3131 net.cpp:122] Setting up input
I0510 20:00:46.806071  3131 net.cpp:129] Top shape: 128 3 12 36 (165888)
I0510 20:00:46.806073  3131 net.cpp:129] Top shape: 128 (128)
I0510 20:00:46.806076  3131 net.cpp:137] Memory required for data: 664064
I0510 20:00:46.806079  3131 layer_factory.hpp:77] Creating layer conv1
I0510 20:00:46.806087  3131 net.cpp:84] Creating Layer conv1
I0510 20:00:46.806089  3131 net.cpp:406] conv1 <- data
I0510 20:00:46.806093  3131 net.cpp:380] conv1 -> conv1
I0510 20:00:46.953011  3131 net.cpp:122] Setting up conv1
I0510 20:00:46.953032  3131 net.cpp:129] Top shape: 128 16 10 34 (696320)
I0510 20:00:46.953040  3131 net.cpp:137] Memory required for data: 3449344
I0510 20:00:46.953050  3131 layer_factory.hpp:77] Creating layer pool1
I0510 20:00:46.953058  3131 net.cpp:84] Creating Layer pool1
I0510 20:00:46.953063  3131 net.cpp:406] pool1 <- conv1
I0510 20:00:46.953066  3131 net.cpp:380] pool1 -> pool1
I0510 20:00:46.953104  3131 net.cpp:122] Setting up pool1
I0510 20:00:46.953109  3131 net.cpp:129] Top shape: 128 16 5 17 (174080)
I0510 20:00:46.953111  3131 net.cpp:137] Memory required for data: 4145664
I0510 20:00:46.953114  3131 layer_factory.hpp:77] Creating layer relu1
I0510 20:00:46.953117  3131 net.cpp:84] Creating Layer relu1
I0510 20:00:46.953120  3131 net.cpp:406] relu1 <- pool1
I0510 20:00:46.953124  3131 net.cpp:367] relu1 -> pool1 (in-place)
I0510 20:00:46.953217  3131 net.cpp:122] Setting up relu1
I0510 20:00:46.953222  3131 net.cpp:129] Top shape: 128 16 5 17 (174080)
I0510 20:00:46.953225  3131 net.cpp:137] Memory required for data: 4841984
I0510 20:00:46.953227  3131 layer_factory.hpp:77] Creating layer fc2
I0510 20:00:46.953233  3131 net.cpp:84] Creating Layer fc2
I0510 20:00:46.953236  3131 net.cpp:406] fc2 <- pool1
I0510 20:00:46.953240  3131 net.cpp:380] fc2 -> fc2
I0510 20:00:46.954385  3131 net.cpp:122] Setting up fc2
I0510 20:00:46.954394  3131 net.cpp:129] Top shape: 128 16 (2048)
I0510 20:00:46.954397  3131 net.cpp:137] Memory required for data: 4850176
I0510 20:00:46.954403  3131 layer_factory.hpp:77] Creating layer relu2
I0510 20:00:46.954407  3131 net.cpp:84] Creating Layer relu2
I0510 20:00:46.954409  3131 net.cpp:406] relu2 <- fc2
I0510 20:00:46.954413  3131 net.cpp:367] relu2 -> fc2 (in-place)
I0510 20:00:46.954887  3131 net.cpp:122] Setting up relu2
I0510 20:00:46.954895  3131 net.cpp:129] Top shape: 128 16 (2048)
I0510 20:00:46.954898  3131 net.cpp:137] Memory required for data: 4858368
I0510 20:00:46.954900  3131 layer_factory.hpp:77] Creating layer drop2
I0510 20:00:46.954905  3131 net.cpp:84] Creating Layer drop2
I0510 20:00:46.954908  3131 net.cpp:406] drop2 <- fc2
I0510 20:00:46.954911  3131 net.cpp:367] drop2 -> fc2 (in-place)
I0510 20:00:46.954927  3131 net.cpp:122] Setting up drop2
I0510 20:00:46.954931  3131 net.cpp:129] Top shape: 128 16 (2048)
I0510 20:00:46.954934  3131 net.cpp:137] Memory required for data: 4866560
I0510 20:00:46.954936  3131 layer_factory.hpp:77] Creating layer fc3
I0510 20:00:46.954941  3131 net.cpp:84] Creating Layer fc3
I0510 20:00:46.954942  3131 net.cpp:406] fc3 <- fc2
I0510 20:00:46.954946  3131 net.cpp:380] fc3 -> fc3
I0510 20:00:46.955035  3131 net.cpp:122] Setting up fc3
I0510 20:00:46.955039  3131 net.cpp:129] Top shape: 128 2 (256)
I0510 20:00:46.955042  3131 net.cpp:137] Memory required for data: 4867584
I0510 20:00:46.955047  3131 layer_factory.hpp:77] Creating layer loss
I0510 20:00:46.955052  3131 net.cpp:84] Creating Layer loss
I0510 20:00:46.955055  3131 net.cpp:406] loss <- fc3
I0510 20:00:46.955059  3131 net.cpp:406] loss <- label
I0510 20:00:46.955061  3131 net.cpp:380] loss -> loss
I0510 20:00:46.955067  3131 layer_factory.hpp:77] Creating layer loss
…
I0510 20:00:46.955410  3131 solver.cpp:172] Creating test net (#0) specified by test_net file: /home/work/qinhuan/mywork/license_plate/cascadeCNN_license_plate_detection/train_net/jobs/license_12c/test.prototxt
I0510 20:00:46.955469  3131 net.cpp:51] Initializing net from parameters: 
name: "license_12c_test"
state {
  phase: TEST
}
layer {
  name: "data"
  type: "Data"
  top: "data"
  top: "label"
  transform_param {
    mean_file: "/home/work/qinhuan/mywork/license_plate/data/lmdb/license_train_12c_imagenet_mean.binaryproto"
  }
  data_param {
    source: "/home/work/qinhuan/mywork/license_plate/data/lmdb/license_val_12c_lmdb"
    batch_size: 50
    backend: LMDB
  }
}
layer {
  name: "conv1"
  type: "Convolution"
  bottom: "data"
  top: "conv1"
  param {
    lr_mult: 1
    decay_mult: 1
  }
  param {
    lr_mult: 2
    decay_mult: 0
  }
  convolution_param {
    num_output: 16
    kernel_size: 3
    weight_filler {
      type: "gaussian"
      std: 0.0001
    }
    bias_filler {
      type: "constant"
    }
  }
}
layer {
  name: "pool1"
  type: "Pooling"
  bottom: "conv1"
  top: "pool1"
  pooling_param {
    pool: MAX
    kernel_size: 3
    stride: 2
  }
}
layer {
  name: "relu1"
  type: "ReLU"
  bottom: "pool1"
  top: "pool1"
}
layer {
  name: "fc2"
  type: "InnerProduct"
  bottom: "pool1"
  top: "fc2"
  param {
    lr_mult: 1
    decay_mult: 1
  }
  param {
    lr_mult: 2
    decay_mult: 0
  }
  inner_product_param {
    num_output: 16
    weight_filler {
      type: "gaussian"
      std: 0.005
    }
    bias_filler {
      type: "constant"
    }
  }
}
layer {
  name: "relu2"
  type: "ReLU"
  bottom: "fc2"
  top: "fc2"
}
layer {
  name: "drop2"
  type: "Dropout"
  bottom: "fc2"
  top: "fc2"
  dropout_param {
    dropout_ratio: 0.5
  }
}
layer {
  name: "fc3"
  type: "InnerProduct"
  bottom: "fc2"
  top: "fc3"
  param {
    lr_mult: 1
    decay_mult: 100
  }
  param {
    lr_mult: 2
    decay_mult: 0
  }
  inner_product_param {
    num_output: 2
    weight_filler {
      type: "gaussian"
      std: 0.01
    }
    bias_filler {
      type: "constant"
      value: 0
    }
  }
}
layer {
  name: "accuracy"
  type: "Accuracy"
  bottom: "fc3"
  bottom: "label"
  top: "accuracy"
}
I0510 20:00:46.955492  3131 layer_factory.hpp:77] Creating layer data
I0510 20:00:46.955523  3131 db_lmdb.cpp:35] Opened lmdb /home/work/qinhuan/mywork/license_plate/data/lmdb/license_val_12c_lmdb
I0510 20:00:46.955533  3131 net.cpp:84] Creating Layer data
I0510 20:00:46.955535  3131 net.cpp:380] data -> data
I0510 20:00:46.955541  3131 net.cpp:380] data -> label
I0510 20:00:46.955546  3131 data_transformer.cpp:25] Loading mean file from: /home/work/qinhuan/mywork/license_plate/data/lmdb/license_train_12c_imagenet_mean.binaryproto
I0510 20:00:46.956369  3131 data_layer.cpp:45] output data size: 50,3,12,36
I0510 20:00:46.957403  3131 net.cpp:122] Setting up data
I0510 20:00:46.957412  3131 net.cpp:129] Top shape: 50 3 12 36 (64800)
I0510 20:00:46.957415  3131 net.cpp:129] Top shape: 50 (50)
I0510 20:00:46.957418  3131 net.cpp:137] Memory required for data: 259400
I0510 20:00:46.957422  3131 layer_factory.hpp:77] Creating layer conv1
I0510 20:00:46.957427  3131 net.cpp:84] Creating Layer conv1
I0510 20:00:46.957430  3131 net.cpp:406] conv1 <- data
I0510 20:00:46.957435  3131 net.cpp:380] conv1 -> conv1
I0510 20:00:46.958482  3131 net.cpp:122] Setting up conv1
I0510 20:00:46.958492  3131 net.cpp:129] Top shape: 50 16 10 34 (272000)
I0510 20:00:46.958494  3131 net.cpp:137] Memory required for data: 1347400
I0510 20:00:46.958500  3131 layer_factory.hpp:77] Creating layer pool1
I0510 20:00:46.958505  3131 net.cpp:84] Creating Layer pool1
I0510 20:00:46.958508  3131 net.cpp:406] pool1 <- conv1
I0510 20:00:46.958513  3131 net.cpp:380] pool1 -> pool1
I0510 20:00:46.958544  3131 net.cpp:122] Setting up pool1
I0510 20:00:46.958549  3131 net.cpp:129] Top shape: 50 16 5 17 (68000)
I0510 20:00:46.958550  3131 net.cpp:137] Memory required for data: 1619400
I0510 20:00:46.958555  3131 layer_factory.hpp:77] Creating layer relu1
I0510 20:00:46.958559  3131 net.cpp:84] Creating Layer relu1
I0510 20:00:46.958561  3131 net.cpp:406] relu1 <- pool1
I0510 20:00:46.958565  3131 net.cpp:367] relu1 -> pool1 (in-place)
I0510 20:00:46.958681  3131 net.cpp:122] Setting up relu1
I0510 20:00:46.958688  3131 net.cpp:129] Top shape: 50 16 5 17 (68000)
I0510 20:00:46.958690  3131 net.cpp:137] Memory required for data: 1891400
I0510 20:00:46.958693  3131 layer_factory.hpp:77] Creating layer fc2
I0510 20:00:46.958698  3131 net.cpp:84] Creating Layer fc2
I0510 20:00:46.958700  3131 net.cpp:406] fc2 <- pool1
I0510 20:00:46.958704  3131 net.cpp:380] fc2 -> fc2
I0510 20:00:46.959228  3131 net.cpp:122] Setting up fc2
I0510 20:00:46.959234  3131 net.cpp:129] Top shape: 50 16 (800)
I0510 20:00:46.959239  3131 net.cpp:137] Memory required for data: 1894600
I0510 20:00:46.959244  3131 layer_factory.hpp:77] Creating layer relu2
I0510 20:00:46.959249  3131 net.cpp:84] Creating Layer relu2
I0510 20:00:46.959250  3131 net.cpp:406] relu2 <- fc2
I0510 20:00:46.959254  3131 net.cpp:367] relu2 -> fc2 (in-place)
I0510 20:00:46.959344  3131 net.cpp:122] Setting up relu2
I0510 20:00:46.959352  3131 net.cpp:129] Top shape: 50 16 (800)
I0510 20:00:46.959353  3131 net.cpp:137] Memory required for data: 1897800
I0510 20:00:46.959357  3131 layer_factory.hpp:77] Creating layer drop2
I0510 20:00:46.959359  3131 net.cpp:84] Creating Layer drop2
I0510 20:00:46.959362  3131 net.cpp:406] drop2 <- fc2
I0510 20:00:46.959365  3131 net.cpp:367] drop2 -> fc2 (in-place)
I0510 20:00:46.959384  3131 net.cpp:122] Setting up drop2
I0510 20:00:46.959388  3131 net.cpp:129] Top shape: 50 16 (800)
I0510 20:00:46.959390  3131 net.cpp:137] Memory required for data: 1901000
I0510 20:00:46.959393  3131 layer_factory.hpp:77] Creating layer fc3
I0510 20:00:46.959396  3131 net.cpp:84] Creating Layer fc3
I0510 20:00:46.959399  3131 net.cpp:406] fc3 <- fc2
I0510 20:00:46.959403  3131 net.cpp:380] fc3 -> fc3
I0510 20:00:46.959583  3131 net.cpp:122] Setting up fc3
I0510 20:00:46.959589  3131 net.cpp:129] Top shape: 50 2 (100)
I0510 20:00:46.959590  3131 net.cpp:137] Memory required for data: 1901400
I0510 20:00:46.959595  3131 layer_factory.hpp:77] Creating layer accuracy
I0510 20:00:46.959600  3131 net.cpp:84] Creating Layer accuracy
I0510 20:00:46.959604  3131 net.cpp:406] accuracy <- fc3
I0510 20:00:46.959607  3131 net.cpp:406] accuracy <- label
I0510 20:00:46.959610  3131 net.cpp:380] accuracy -> accuracy
…
