…
I0601 16:21:27.252552 17415 solver.cpp:77] Creating training net from train_net file: /home/work/qinhuan/mywork/license_plate/cascadeCNN_license_plate_detection/train_net/jobs/license_4cal/train.prototxt
I0601 16:21:27.252990 17415 net.cpp:51] Initializing net from parameters: 
name: "license_4cal_train"
state {
  phase: TRAIN
}
layer {
  name: "data"
  type: "Data"
  top: "data"
  top: "label"
  transform_param {
    mirror: false
    mean_file: "/home/work/qinhuan/mywork/license_plate/data/lmdb/license_train_4cal_imagenet_mean.binaryproto"
  }
  data_param {
    source: "/home/work/qinhuan/mywork/license_plate/data/lmdb/license_train_4cal_lmdb"
    batch_size: 128
    backend: LMDB
  }
}
layer {
  name: "conv1"
  type: "Convolution"
  bottom: "data"
  top: "conv1"
  param {
    lr_mult: 1
  }
  param {
    lr_mult: 2
  }
  convolution_param {
    num_output: 16
    kernel_size: 3
    weight_filler {
      type: "gaussian"
      std: 0.0001
    }
    bias_filler {
      type: "constant"
    }
  }
}
layer {
  name: "pool1"
  type: "Pooling"
  bottom: "conv1"
  top: "pool1"
  pooling_param {
    pool: MAX
    kernel_size: 3
    stride: 2
  }
}
layer {
  name: "relu1"
  type: "ReLU"
  bottom: "pool1"
  top: "pool1"
}
layer {
  name: "fc2"
  type: "InnerProduct"
  bottom: "pool1"
  top: "fc2"
  param {
    lr_mult: 1
    decay_mult: 1
  }
  param {
    lr_mult: 2
    decay_mult: 0
  }
  inner_product_param {
    num_output: 128
    weight_filler {
      type: "gaussian"
      std: 0.005
    }
    bias_filler {
      type: "constant"
    }
  }
}
layer {
  name: "relu2"
  type: "ReLU"
  bottom: "fc2"
  top: "fc2"
}
layer {
  name: "drop2"
  type: "Dropout"
  bottom: "fc2"
  top: "fc2"
  dropout_param {
    dropout_ratio: 0.5
  }
}
layer {
  name: "fc3"
  type: "InnerProduct"
  bottom: "fc2"
  top: "fc3"
  param {
    lr_mult: 1
    decay_mult: 100
  }
  param {
    lr_mult: 2
    decay_mult: 0
  }
  inner_product_param {
    num_output: 45
    weight_filler {
      type: "gaussian"
      std: 0.01
    }
    bias_filler {
      type: "constant"
      value: 0
    }
  }
}
layer {
  name: "loss"
  type: "SoftmaxWithLoss"
  bottom: "fc3"
  bottom: "label"
  top: "loss"
}
I0601 16:21:27.253064 17415 layer_factory.hpp:77] Creating layer data
I0601 16:21:27.253144 17415 db_lmdb.cpp:35] Opened lmdb /home/work/qinhuan/mywork/license_plate/data/lmdb/license_train_4cal_lmdb
I0601 16:21:27.253173 17415 net.cpp:84] Creating Layer data
I0601 16:21:27.253185 17415 net.cpp:380] data -> data
I0601 16:21:27.253202 17415 net.cpp:380] data -> label
I0601 16:21:27.253216 17415 data_transformer.cpp:25] Loading mean file from: /home/work/qinhuan/mywork/license_plate/data/lmdb/license_train_4cal_imagenet_mean.binaryproto
I0601 16:21:27.255333 17415 data_layer.cpp:45] output data size: 128,3,4,12
I0601 16:21:27.259280 17415 net.cpp:122] Setting up data
I0601 16:21:27.259305 17415 net.cpp:129] Top shape: 128 3 4 12 (18432)
I0601 16:21:27.259311 17415 net.cpp:129] Top shape: 128 (128)
I0601 16:21:27.259315 17415 net.cpp:137] Memory required for data: 74240
I0601 16:21:27.259321 17415 layer_factory.hpp:77] Creating layer conv1
I0601 16:21:27.259344 17415 net.cpp:84] Creating Layer conv1
I0601 16:21:27.259349 17415 net.cpp:406] conv1 <- data
I0601 16:21:27.259357 17415 net.cpp:380] conv1 -> conv1
I0601 16:21:27.632714 17415 net.cpp:122] Setting up conv1
I0601 16:21:27.632764 17415 net.cpp:129] Top shape: 128 16 2 10 (40960)
I0601 16:21:27.632771 17415 net.cpp:137] Memory required for data: 238080
I0601 16:21:27.632791 17415 layer_factory.hpp:77] Creating layer pool1
I0601 16:21:27.632810 17415 net.cpp:84] Creating Layer pool1
I0601 16:21:27.632815 17415 net.cpp:406] pool1 <- conv1
I0601 16:21:27.632823 17415 net.cpp:380] pool1 -> pool1
I0601 16:21:27.632899 17415 net.cpp:122] Setting up pool1
I0601 16:21:27.632905 17415 net.cpp:129] Top shape: 128 16 1 5 (10240)
I0601 16:21:27.632910 17415 net.cpp:137] Memory required for data: 279040
I0601 16:21:27.632913 17415 layer_factory.hpp:77] Creating layer relu1
I0601 16:21:27.632922 17415 net.cpp:84] Creating Layer relu1
I0601 16:21:27.632926 17415 net.cpp:406] relu1 <- pool1
I0601 16:21:27.632932 17415 net.cpp:367] relu1 -> pool1 (in-place)
I0601 16:21:27.633126 17415 net.cpp:122] Setting up relu1
I0601 16:21:27.633134 17415 net.cpp:129] Top shape: 128 16 1 5 (10240)
I0601 16:21:27.633138 17415 net.cpp:137] Memory required for data: 320000
I0601 16:21:27.633142 17415 layer_factory.hpp:77] Creating layer fc2
I0601 16:21:27.633155 17415 net.cpp:84] Creating Layer fc2
I0601 16:21:27.633159 17415 net.cpp:406] fc2 <- pool1
I0601 16:21:27.633165 17415 net.cpp:380] fc2 -> fc2
I0601 16:21:27.635531 17415 net.cpp:122] Setting up fc2
I0601 16:21:27.635550 17415 net.cpp:129] Top shape: 128 128 (16384)
I0601 16:21:27.635555 17415 net.cpp:137] Memory required for data: 385536
I0601 16:21:27.635565 17415 layer_factory.hpp:77] Creating layer relu2
I0601 16:21:27.635573 17415 net.cpp:84] Creating Layer relu2
I0601 16:21:27.635577 17415 net.cpp:406] relu2 <- fc2
I0601 16:21:27.635583 17415 net.cpp:367] relu2 -> fc2 (in-place)
I0601 16:21:27.636986 17415 net.cpp:122] Setting up relu2
I0601 16:21:27.637002 17415 net.cpp:129] Top shape: 128 128 (16384)
I0601 16:21:27.637007 17415 net.cpp:137] Memory required for data: 451072
I0601 16:21:27.637012 17415 layer_factory.hpp:77] Creating layer drop2
I0601 16:21:27.637023 17415 net.cpp:84] Creating Layer drop2
I0601 16:21:27.637028 17415 net.cpp:406] drop2 <- fc2
I0601 16:21:27.637034 17415 net.cpp:367] drop2 -> fc2 (in-place)
I0601 16:21:27.637068 17415 net.cpp:122] Setting up drop2
I0601 16:21:27.637075 17415 net.cpp:129] Top shape: 128 128 (16384)
I0601 16:21:27.637079 17415 net.cpp:137] Memory required for data: 516608
I0601 16:21:27.637082 17415 layer_factory.hpp:77] Creating layer fc3
I0601 16:21:27.637091 17415 net.cpp:84] Creating Layer fc3
I0601 16:21:27.637094 17415 net.cpp:406] fc3 <- fc2
I0601 16:21:27.637100 17415 net.cpp:380] fc3 -> fc3
I0601 16:21:27.637449 17415 net.cpp:122] Setting up fc3
I0601 16:21:27.637457 17415 net.cpp:129] Top shape: 128 45 (5760)
I0601 16:21:27.637461 17415 net.cpp:137] Memory required for data: 539648
I0601 16:21:27.637471 17415 layer_factory.hpp:77] Creating layer loss
I0601 16:21:27.637482 17415 net.cpp:84] Creating Layer loss
I0601 16:21:27.637486 17415 net.cpp:406] loss <- fc3
I0601 16:21:27.637491 17415 net.cpp:406] loss <- label
I0601 16:21:27.637497 17415 net.cpp:380] loss -> loss
I0601 16:21:27.637511 17415 layer_factory.hpp:77] Creating layer loss
…
I0601 16:21:27.638234 17415 solver.cpp:173] Creating test net (#0) specified by test_net file: /home/work/qinhuan/mywork/license_plate/cascadeCNN_license_plate_detection/train_net/jobs/license_4cal/test.prototxt
I0601 16:21:27.638366 17415 net.cpp:51] Initializing net from parameters: 
name: "license_4cal_test"
state {
  phase: TEST
}
layer {
  name: "data"
  type: "Data"
  top: "data"
  top: "label"
  transform_param {
    mean_file: "/home/work/qinhuan/mywork/license_plate/data/lmdb/license_train_4cal_imagenet_mean.binaryproto"
  }
  data_param {
    source: "/home/work/qinhuan/mywork/license_plate/data/lmdb/license_val_4cal_lmdb"
    batch_size: 50
    backend: LMDB
  }
}
layer {
  name: "conv1"
  type: "Convolution"
  bottom: "data"
  top: "conv1"
  param {
    lr_mult: 1
  }
  param {
    lr_mult: 2
  }
  convolution_param {
    num_output: 16
    kernel_size: 3
    weight_filler {
      type: "gaussian"
      std: 0.0001
    }
    bias_filler {
      type: "constant"
    }
  }
}
layer {
  name: "pool1"
  type: "Pooling"
  bottom: "conv1"
  top: "pool1"
  pooling_param {
    pool: MAX
    kernel_size: 3
    stride: 2
  }
}
layer {
  name: "relu1"
  type: "ReLU"
  bottom: "pool1"
  top: "pool1"
}
layer {
  name: "fc2"
  type: "InnerProduct"
  bottom: "pool1"
  top: "fc2"
  param {
    lr_mult: 1
    decay_mult: 1
  }
  param {
    lr_mult: 2
    decay_mult: 0
  }
  inner_product_param {
    num_output: 128
    weight_filler {
      type: "gaussian"
      std: 0.005
    }
    bias_filler {
      type: "constant"
    }
  }
}
layer {
  name: "relu2"
  type: "ReLU"
  bottom: "fc2"
  top: "fc2"
}
layer {
  name: "drop2"
  type: "Dropout"
  bottom: "fc2"
  top: "fc2"
  dropout_param {
    dropout_ratio: 0.5
  }
}
layer {
  name: "fc3"
  type: "InnerProduct"
  bottom: "fc2"
  top: "fc3"
  param {
    lr_mult: 1
    decay_mult: 100
  }
  param {
    lr_mult: 2
    decay_mult: 0
  }
  inner_product_param {
    num_output: 45
    weight_filler {
      type: "gaussian"
      std: 0.01
    }
    bias_filler {
      type: "constant"
      value: 0
    }
  }
}
layer {
  name: "accuracy"
  type: "Accuracy"
  bottom: "fc3"
  bottom: "label"
  top: "accuracy"
}
I0601 16:21:27.638414 17415 layer_factory.hpp:77] Creating layer data
I0601 16:21:27.638475 17415 db_lmdb.cpp:35] Opened lmdb /home/work/qinhuan/mywork/license_plate/data/lmdb/license_val_4cal_lmdb
I0601 16:21:27.638491 17415 net.cpp:84] Creating Layer data
I0601 16:21:27.638497 17415 net.cpp:380] data -> data
I0601 16:21:27.638507 17415 net.cpp:380] data -> label
I0601 16:21:27.638515 17415 data_transformer.cpp:25] Loading mean file from: /home/work/qinhuan/mywork/license_plate/data/lmdb/license_train_4cal_imagenet_mean.binaryproto
I0601 16:21:27.638742 17415 data_layer.cpp:45] output data size: 50,3,4,12
I0601 16:21:27.639291 17415 net.cpp:122] Setting up data
I0601 16:21:27.639302 17415 net.cpp:129] Top shape: 50 3 4 12 (7200)
I0601 16:21:27.639308 17415 net.cpp:129] Top shape: 50 (50)
I0601 16:21:27.639312 17415 net.cpp:137] Memory required for data: 29000
I0601 16:21:27.639317 17415 layer_factory.hpp:77] Creating layer conv1
I0601 16:21:27.639334 17415 net.cpp:84] Creating Layer conv1
I0601 16:21:27.639339 17415 net.cpp:406] conv1 <- data
I0601 16:21:27.639346 17415 net.cpp:380] conv1 -> conv1
I0601 16:21:27.642063 17415 net.cpp:122] Setting up conv1
I0601 16:21:27.642084 17415 net.cpp:129] Top shape: 50 16 2 10 (16000)
I0601 16:21:27.642089 17415 net.cpp:137] Memory required for data: 93000
I0601 16:21:27.642102 17415 layer_factory.hpp:77] Creating layer pool1
I0601 16:21:27.642110 17415 net.cpp:84] Creating Layer pool1
I0601 16:21:27.642115 17415 net.cpp:406] pool1 <- conv1
I0601 16:21:27.642124 17415 net.cpp:380] pool1 -> pool1
I0601 16:21:27.642204 17415 net.cpp:122] Setting up pool1
I0601 16:21:27.642211 17415 net.cpp:129] Top shape: 50 16 1 5 (4000)
I0601 16:21:27.642217 17415 net.cpp:137] Memory required for data: 109000
I0601 16:21:27.642230 17415 layer_factory.hpp:77] Creating layer relu1
I0601 16:21:27.642237 17415 net.cpp:84] Creating Layer relu1
I0601 16:21:27.642246 17415 net.cpp:406] relu1 <- pool1
I0601 16:21:27.642251 17415 net.cpp:367] relu1 -> pool1 (in-place)
I0601 16:21:27.642490 17415 net.cpp:122] Setting up relu1
I0601 16:21:27.642499 17415 net.cpp:129] Top shape: 50 16 1 5 (4000)
I0601 16:21:27.642503 17415 net.cpp:137] Memory required for data: 125000
I0601 16:21:27.642508 17415 layer_factory.hpp:77] Creating layer fc2
I0601 16:21:27.642518 17415 net.cpp:84] Creating Layer fc2
I0601 16:21:27.642523 17415 net.cpp:406] fc2 <- pool1
I0601 16:21:27.642531 17415 net.cpp:380] fc2 -> fc2
I0601 16:21:27.643081 17415 net.cpp:122] Setting up fc2
I0601 16:21:27.643095 17415 net.cpp:129] Top shape: 50 128 (6400)
I0601 16:21:27.643098 17415 net.cpp:137] Memory required for data: 150600
I0601 16:21:27.643108 17415 layer_factory.hpp:77] Creating layer relu2
I0601 16:21:27.643115 17415 net.cpp:84] Creating Layer relu2
I0601 16:21:27.643118 17415 net.cpp:406] relu2 <- fc2
I0601 16:21:27.643126 17415 net.cpp:367] relu2 -> fc2 (in-place)
I0601 16:21:27.643328 17415 net.cpp:122] Setting up relu2
I0601 16:21:27.643337 17415 net.cpp:129] Top shape: 50 128 (6400)
I0601 16:21:27.643342 17415 net.cpp:137] Memory required for data: 176200
I0601 16:21:27.643345 17415 layer_factory.hpp:77] Creating layer drop2
I0601 16:21:27.643352 17415 net.cpp:84] Creating Layer drop2
I0601 16:21:27.643355 17415 net.cpp:406] drop2 <- fc2
I0601 16:21:27.643362 17415 net.cpp:367] drop2 -> fc2 (in-place)
I0601 16:21:27.643402 17415 net.cpp:122] Setting up drop2
I0601 16:21:27.643409 17415 net.cpp:129] Top shape: 50 128 (6400)
I0601 16:21:27.643412 17415 net.cpp:137] Memory required for data: 201800
I0601 16:21:27.643415 17415 layer_factory.hpp:77] Creating layer fc3
I0601 16:21:27.643424 17415 net.cpp:84] Creating Layer fc3
I0601 16:21:27.643429 17415 net.cpp:406] fc3 <- fc2
I0601 16:21:27.643434 17415 net.cpp:380] fc3 -> fc3
I0601 16:21:27.643805 17415 net.cpp:122] Setting up fc3
I0601 16:21:27.643816 17415 net.cpp:129] Top shape: 50 45 (2250)
I0601 16:21:27.643821 17415 net.cpp:137] Memory required for data: 210800
I0601 16:21:27.643829 17415 layer_factory.hpp:77] Creating layer accuracy
I0601 16:21:27.643843 17415 net.cpp:84] Creating Layer accuracy
I0601 16:21:27.643848 17415 net.cpp:406] accuracy <- fc3
I0601 16:21:27.643853 17415 net.cpp:406] accuracy <- label
I0601 16:21:27.643858 17415 net.cpp:380] accuracy -> accuracy
…
