…
I0511 11:25:58.877061  6148 solver.cpp:77] Creating training net from train_net file: /home/work/qinhuan/mywork/license_plate/cascadeCNN_license_plate_detection/train_net/jobs/license_12cal/train.prototxt
I0511 11:25:58.877254  6148 net.cpp:51] Initializing net from parameters: 
name: "license_12cal_train"
state {
  phase: TRAIN
}
layer {
  name: "data"
  type: "Data"
  top: "data"
  top: "label"
  transform_param {
    mirror: false
    mean_file: "/home/work/qinhuan/mywork/license_plate/data/lmdb/license_train_12cal_imagenet_mean.binaryproto"
  }
  data_param {
    source: "/home/work/qinhuan/mywork/license_plate/data/lmdb/license_train_12cal_lmdb"
    batch_size: 128
    backend: LMDB
  }
}
layer {
  name: "conv1"
  type: "Convolution"
  bottom: "data"
  top: "conv1"
  param {
    lr_mult: 1
  }
  param {
    lr_mult: 2
  }
  convolution_param {
    num_output: 16
    kernel_size: 3
    weight_filler {
      type: "gaussian"
      std: 0.0001
    }
    bias_filler {
      type: "constant"
    }
  }
}
layer {
  name: "pool1"
  type: "Pooling"
  bottom: "conv1"
  top: "pool1"
  pooling_param {
    pool: MAX
    kernel_size: 3
    stride: 2
  }
}
layer {
  name: "relu1"
  type: "ReLU"
  bottom: "pool1"
  top: "pool1"
}
layer {
  name: "fc2"
  type: "InnerProduct"
  bottom: "pool1"
  top: "fc2"
  param {
    lr_mult: 1
    decay_mult: 1
  }
  param {
    lr_mult: 2
    decay_mult: 0
  }
  inner_product_param {
    num_output: 128
    weight_filler {
      type: "gaussian"
      std: 0.005
    }
    bias_filler {
      type: "constant"
    }
  }
}
layer {
  name: "relu2"
  type: "ReLU"
  bottom: "fc2"
  top: "fc2"
}
layer {
  name: "drop2"
  type: "Dropout"
  bottom: "fc2"
  top: "fc2"
  dropout_param {
    dropout_ratio: 0.5
  }
}
layer {
  name: "fc3"
  type: "InnerProduct"
  bottom: "fc2"
  top: "fc3"
  param {
    lr_mult: 1
    decay_mult: 100
  }
  param {
    lr_mult: 2
    decay_mult: 0
  }
  inner_product_param {
    num_output: 45
    weight_filler {
      type: "gaussian"
      std: 0.01
    }
    bias_filler {
      type: "constant"
      value: 0
    }
  }
}
layer {
  name: "loss"
  type: "SoftmaxWithLoss"
  bottom: "fc3"
  bottom: "label"
  top: "loss"
}
I0511 11:25:58.877284  6148 layer_factory.hpp:77] Creating layer data
I0511 11:25:58.877318  6148 db_lmdb.cpp:35] Opened lmdb /home/work/qinhuan/mywork/license_plate/data/lmdb/license_train_12cal_lmdb
I0511 11:25:58.877331  6148 net.cpp:84] Creating Layer data
I0511 11:25:58.877336  6148 net.cpp:380] data -> data
I0511 11:25:58.877341  6148 net.cpp:380] data -> label
I0511 11:25:58.877347  6148 data_transformer.cpp:25] Loading mean file from: /home/work/qinhuan/mywork/license_plate/data/lmdb/license_train_12cal_imagenet_mean.binaryproto
I0511 11:25:58.878887  6148 data_layer.cpp:45] output data size: 128,3,12,36
I0511 11:25:58.883298  6148 net.cpp:122] Setting up data
I0511 11:25:58.883311  6148 net.cpp:129] Top shape: 128 3 12 36 (165888)
I0511 11:25:58.883314  6148 net.cpp:129] Top shape: 128 (128)
I0511 11:25:58.883316  6148 net.cpp:137] Memory required for data: 664064
I0511 11:25:58.883321  6148 layer_factory.hpp:77] Creating layer conv1
I0511 11:25:58.883332  6148 net.cpp:84] Creating Layer conv1
I0511 11:25:58.883334  6148 net.cpp:406] conv1 <- data
I0511 11:25:58.883340  6148 net.cpp:380] conv1 -> conv1
I0511 11:25:59.046180  6148 net.cpp:122] Setting up conv1
I0511 11:25:59.046207  6148 net.cpp:129] Top shape: 128 16 10 34 (696320)
I0511 11:25:59.046211  6148 net.cpp:137] Memory required for data: 3449344
I0511 11:25:59.046221  6148 layer_factory.hpp:77] Creating layer pool1
I0511 11:25:59.046229  6148 net.cpp:84] Creating Layer pool1
I0511 11:25:59.046232  6148 net.cpp:406] pool1 <- conv1
I0511 11:25:59.046237  6148 net.cpp:380] pool1 -> pool1
I0511 11:25:59.046275  6148 net.cpp:122] Setting up pool1
I0511 11:25:59.046279  6148 net.cpp:129] Top shape: 128 16 5 17 (174080)
I0511 11:25:59.046283  6148 net.cpp:137] Memory required for data: 4145664
I0511 11:25:59.046284  6148 layer_factory.hpp:77] Creating layer relu1
I0511 11:25:59.046289  6148 net.cpp:84] Creating Layer relu1
I0511 11:25:59.046291  6148 net.cpp:406] relu1 <- pool1
I0511 11:25:59.046295  6148 net.cpp:367] relu1 -> pool1 (in-place)
I0511 11:25:59.046392  6148 net.cpp:122] Setting up relu1
I0511 11:25:59.046397  6148 net.cpp:129] Top shape: 128 16 5 17 (174080)
I0511 11:25:59.046401  6148 net.cpp:137] Memory required for data: 4841984
I0511 11:25:59.046402  6148 layer_factory.hpp:77] Creating layer fc2
I0511 11:25:59.046408  6148 net.cpp:84] Creating Layer fc2
I0511 11:25:59.046411  6148 net.cpp:406] fc2 <- pool1
I0511 11:25:59.046416  6148 net.cpp:380] fc2 -> fc2
I0511 11:25:59.049365  6148 net.cpp:122] Setting up fc2
I0511 11:25:59.049372  6148 net.cpp:129] Top shape: 128 128 (16384)
I0511 11:25:59.049376  6148 net.cpp:137] Memory required for data: 4907520
I0511 11:25:59.049381  6148 layer_factory.hpp:77] Creating layer relu2
I0511 11:25:59.049384  6148 net.cpp:84] Creating Layer relu2
I0511 11:25:59.049387  6148 net.cpp:406] relu2 <- fc2
I0511 11:25:59.049391  6148 net.cpp:367] relu2 -> fc2 (in-place)
I0511 11:25:59.049901  6148 net.cpp:122] Setting up relu2
I0511 11:25:59.049908  6148 net.cpp:129] Top shape: 128 128 (16384)
I0511 11:25:59.049911  6148 net.cpp:137] Memory required for data: 4973056
I0511 11:25:59.049914  6148 layer_factory.hpp:77] Creating layer drop2
I0511 11:25:59.049918  6148 net.cpp:84] Creating Layer drop2
I0511 11:25:59.049921  6148 net.cpp:406] drop2 <- fc2
I0511 11:25:59.049926  6148 net.cpp:367] drop2 -> fc2 (in-place)
I0511 11:25:59.049943  6148 net.cpp:122] Setting up drop2
I0511 11:25:59.049947  6148 net.cpp:129] Top shape: 128 128 (16384)
I0511 11:25:59.049950  6148 net.cpp:137] Memory required for data: 5038592
I0511 11:25:59.049952  6148 layer_factory.hpp:77] Creating layer fc3
I0511 11:25:59.049957  6148 net.cpp:84] Creating Layer fc3
I0511 11:25:59.049959  6148 net.cpp:406] fc3 <- fc2
I0511 11:25:59.049963  6148 net.cpp:380] fc3 -> fc3
I0511 11:25:59.050846  6148 net.cpp:122] Setting up fc3
I0511 11:25:59.050854  6148 net.cpp:129] Top shape: 128 45 (5760)
I0511 11:25:59.050858  6148 net.cpp:137] Memory required for data: 5061632
I0511 11:25:59.050863  6148 layer_factory.hpp:77] Creating layer loss
I0511 11:25:59.050868  6148 net.cpp:84] Creating Layer loss
I0511 11:25:59.050871  6148 net.cpp:406] loss <- fc3
I0511 11:25:59.050875  6148 net.cpp:406] loss <- label
I0511 11:25:59.050879  6148 net.cpp:380] loss -> loss
I0511 11:25:59.050884  6148 layer_factory.hpp:77] Creating layer loss
…
I0511 11:25:59.051251  6148 solver.cpp:172] Creating test net (#0) specified by test_net file: /home/work/qinhuan/mywork/license_plate/cascadeCNN_license_plate_detection/train_net/jobs/license_12cal/test.prototxt
I0511 11:25:59.051311  6148 net.cpp:51] Initializing net from parameters: 
name: "license_12cal_test"
state {
  phase: TEST
}
layer {
  name: "data"
  type: "Data"
  top: "data"
  top: "label"
  transform_param {
    mean_file: "/home/work/qinhuan/mywork/license_plate/data/lmdb/license_train_12cal_imagenet_mean.binaryproto"
  }
  data_param {
    source: "/home/work/qinhuan/mywork/license_plate/data/lmdb/license_val_12cal_lmdb"
    batch_size: 50
    backend: LMDB
  }
}
layer {
  name: "conv1"
  type: "Convolution"
  bottom: "data"
  top: "conv1"
  param {
    lr_mult: 1
  }
  param {
    lr_mult: 2
  }
  convolution_param {
    num_output: 16
    kernel_size: 3
    weight_filler {
      type: "gaussian"
      std: 0.0001
    }
    bias_filler {
      type: "constant"
    }
  }
}
layer {
  name: "pool1"
  type: "Pooling"
  bottom: "conv1"
  top: "pool1"
  pooling_param {
    pool: MAX
    kernel_size: 3
    stride: 2
  }
}
layer {
  name: "relu1"
  type: "ReLU"
  bottom: "pool1"
  top: "pool1"
}
layer {
  name: "fc2"
  type: "InnerProduct"
  bottom: "pool1"
  top: "fc2"
  param {
    lr_mult: 1
    decay_mult: 1
  }
  param {
    lr_mult: 2
    decay_mult: 0
  }
  inner_product_param {
    num_output: 128
    weight_filler {
      type: "gaussian"
      std: 0.005
    }
    bias_filler {
      type: "constant"
    }
  }
}
layer {
  name: "relu2"
  type: "ReLU"
  bottom: "fc2"
  top: "fc2"
}
layer {
  name: "drop2"
  type: "Dropout"
  bottom: "fc2"
  top: "fc2"
  dropout_param {
    dropout_ratio: 0.5
  }
}
layer {
  name: "fc3"
  type: "InnerProduct"
  bottom: "fc2"
  top: "fc3"
  param {
    lr_mult: 1
    decay_mult: 100
  }
  param {
    lr_mult: 2
    decay_mult: 0
  }
  inner_product_param {
    num_output: 45
    weight_filler {
      type: "gaussian"
      std: 0.01
    }
    bias_filler {
      type: "constant"
      value: 0
    }
  }
}
layer {
  name: "accuracy"
  type: "Accuracy"
  bottom: "fc3"
  bottom: "label"
  top: "accuracy"
}
I0511 11:25:59.051337  6148 layer_factory.hpp:77] Creating layer data
I0511 11:25:59.051367  6148 db_lmdb.cpp:35] Opened lmdb /home/work/qinhuan/mywork/license_plate/data/lmdb/license_val_12cal_lmdb
I0511 11:25:59.051378  6148 net.cpp:84] Creating Layer data
I0511 11:25:59.051381  6148 net.cpp:380] data -> data
I0511 11:25:59.051386  6148 net.cpp:380] data -> label
I0511 11:25:59.051391  6148 data_transformer.cpp:25] Loading mean file from: /home/work/qinhuan/mywork/license_plate/data/lmdb/license_train_12cal_imagenet_mean.binaryproto
I0511 11:25:59.051517  6148 data_layer.cpp:45] output data size: 50,3,12,36
I0511 11:25:59.053571  6148 net.cpp:122] Setting up data
I0511 11:25:59.053581  6148 net.cpp:129] Top shape: 50 3 12 36 (64800)
I0511 11:25:59.053586  6148 net.cpp:129] Top shape: 50 (50)
I0511 11:25:59.053587  6148 net.cpp:137] Memory required for data: 259400
I0511 11:25:59.053591  6148 layer_factory.hpp:77] Creating layer conv1
I0511 11:25:59.053597  6148 net.cpp:84] Creating Layer conv1
I0511 11:25:59.053601  6148 net.cpp:406] conv1 <- data
I0511 11:25:59.053611  6148 net.cpp:380] conv1 -> conv1
I0511 11:25:59.054939  6148 net.cpp:122] Setting up conv1
I0511 11:25:59.054952  6148 net.cpp:129] Top shape: 50 16 10 34 (272000)
I0511 11:25:59.054957  6148 net.cpp:137] Memory required for data: 1347400
I0511 11:25:59.054965  6148 layer_factory.hpp:77] Creating layer pool1
I0511 11:25:59.054970  6148 net.cpp:84] Creating Layer pool1
I0511 11:25:59.054973  6148 net.cpp:406] pool1 <- conv1
I0511 11:25:59.054977  6148 net.cpp:380] pool1 -> pool1
I0511 11:25:59.055013  6148 net.cpp:122] Setting up pool1
I0511 11:25:59.055018  6148 net.cpp:129] Top shape: 50 16 5 17 (68000)
I0511 11:25:59.055021  6148 net.cpp:137] Memory required for data: 1619400
I0511 11:25:59.055025  6148 layer_factory.hpp:77] Creating layer relu1
I0511 11:25:59.055029  6148 net.cpp:84] Creating Layer relu1
I0511 11:25:59.055032  6148 net.cpp:406] relu1 <- pool1
I0511 11:25:59.055037  6148 net.cpp:367] relu1 -> pool1 (in-place)
I0511 11:25:59.055141  6148 net.cpp:122] Setting up relu1
I0511 11:25:59.055150  6148 net.cpp:129] Top shape: 50 16 5 17 (68000)
I0511 11:25:59.055152  6148 net.cpp:137] Memory required for data: 1891400
I0511 11:25:59.055155  6148 layer_factory.hpp:77] Creating layer fc2
I0511 11:25:59.055163  6148 net.cpp:84] Creating Layer fc2
I0511 11:25:59.055166  6148 net.cpp:406] fc2 <- pool1
I0511 11:25:59.055169  6148 net.cpp:380] fc2 -> fc2
I0511 11:25:59.058301  6148 net.cpp:122] Setting up fc2
I0511 11:25:59.058312  6148 net.cpp:129] Top shape: 50 128 (6400)
I0511 11:25:59.058315  6148 net.cpp:137] Memory required for data: 1917000
I0511 11:25:59.058321  6148 layer_factory.hpp:77] Creating layer relu2
I0511 11:25:59.058326  6148 net.cpp:84] Creating Layer relu2
I0511 11:25:59.058329  6148 net.cpp:406] relu2 <- fc2
I0511 11:25:59.058333  6148 net.cpp:367] relu2 -> fc2 (in-place)
I0511 11:25:59.058439  6148 net.cpp:122] Setting up relu2
I0511 11:25:59.058445  6148 net.cpp:129] Top shape: 50 128 (6400)
I0511 11:25:59.058449  6148 net.cpp:137] Memory required for data: 1942600
I0511 11:25:59.058451  6148 layer_factory.hpp:77] Creating layer drop2
I0511 11:25:59.058454  6148 net.cpp:84] Creating Layer drop2
I0511 11:25:59.058457  6148 net.cpp:406] drop2 <- fc2
I0511 11:25:59.058461  6148 net.cpp:367] drop2 -> fc2 (in-place)
I0511 11:25:59.058483  6148 net.cpp:122] Setting up drop2
I0511 11:25:59.058487  6148 net.cpp:129] Top shape: 50 128 (6400)
I0511 11:25:59.058490  6148 net.cpp:137] Memory required for data: 1968200
I0511 11:25:59.058492  6148 layer_factory.hpp:77] Creating layer fc3
I0511 11:25:59.058497  6148 net.cpp:84] Creating Layer fc3
I0511 11:25:59.058501  6148 net.cpp:406] fc3 <- fc2
I0511 11:25:59.058503  6148 net.cpp:380] fc3 -> fc3
I0511 11:25:59.058693  6148 net.cpp:122] Setting up fc3
I0511 11:25:59.058698  6148 net.cpp:129] Top shape: 50 45 (2250)
I0511 11:25:59.058701  6148 net.cpp:137] Memory required for data: 1977200
I0511 11:25:59.058706  6148 layer_factory.hpp:77] Creating layer accuracy
I0511 11:25:59.058710  6148 net.cpp:84] Creating Layer accuracy
I0511 11:25:59.058713  6148 net.cpp:406] accuracy <- fc3
I0511 11:25:59.058717  6148 net.cpp:406] accuracy <- label
I0511 11:25:59.058720  6148 net.cpp:380] accuracy -> accuracy
…
