…
I0430 17:17:03.442986 22904 solver.cpp:77] Creating training net from train_net file: /home/work/qinhuan/mywork/license_plate/cascadeCNN_license_plate_detection/train_net/jobs/license_12cal/train.prototxt
I0430 17:17:03.443174 22904 net.cpp:51] Initializing net from parameters: 
name: "license_12cal_train"
state {
  phase: TRAIN
}
layer {
  name: "data"
  type: "Data"
  top: "data"
  top: "label"
  transform_param {
    mirror: true
    mean_file: "/home/work/qinhuan/mywork/license_plate/data/lmdb/license_train_12cal_imagenet_mean.binaryproto"
  }
  data_param {
    source: "/home/work/qinhuan/mywork/license_plate/data/lmdb/license_train_12cal_lmdb"
    batch_size: 128
    backend: LMDB
  }
}
layer {
  name: "conv1"
  type: "Convolution"
  bottom: "data"
  top: "conv1"
  param {
    lr_mult: 1
    decay_mult: 1
  }
  param {
    lr_mult: 2
    decay_mult: 0
  }
  convolution_param {
    num_output: 16
    kernel_size: 3
    weight_filler {
      type: "gaussian"
      std: 0.0001
    }
    bias_filler {
      type: "constant"
    }
  }
}
layer {
  name: "pool1"
  type: "Pooling"
  bottom: "conv1"
  top: "pool1"
  pooling_param {
    pool: MAX
    kernel_size: 3
    stride: 2
  }
}
layer {
  name: "relu1"
  type: "ReLU"
  bottom: "pool1"
  top: "pool1"
}
layer {
  name: "fc2"
  type: "InnerProduct"
  bottom: "pool1"
  top: "fc2"
  param {
    lr_mult: 1
    decay_mult: 1
  }
  param {
    lr_mult: 2
    decay_mult: 0
  }
  inner_product_param {
    num_output: 128
    weight_filler {
      type: "gaussian"
      std: 0.005
    }
    bias_filler {
      type: "constant"
    }
  }
}
layer {
  name: "relu2"
  type: "ReLU"
  bottom: "fc2"
  top: "fc2"
}
layer {
  name: "drop2"
  type: "Dropout"
  bottom: "fc2"
  top: "drop2"
  dropout_param {
    dropout_ratio: 0.5
  }
}
layer {
  name: "fc3"
  type: "InnerProduct"
  bottom: "fc2"
  top: "fc3"
  param {
    lr_mult: 1
    decay_mult: 100
  }
  param {
    lr_mult: 2
    decay_mult: 0
  }
  inner_product_param {
    num_output: 45
    weight_filler {
      type: "gaussian"
      std: 0.01
    }
    bias_filler {
      type: "constant"
      value: 0
    }
  }
}
layer {
  name: "loss"
  type: "SoftmaxWithLoss"
  bottom: "fc3"
  bottom: "label"
  top: "loss"
}
I0430 17:17:03.443210 22904 layer_factory.hpp:77] Creating layer data
I0430 17:17:03.489240 22904 db_lmdb.cpp:35] Opened lmdb /home/work/qinhuan/mywork/license_plate/data/lmdb/license_train_12cal_lmdb
I0430 17:17:03.511026 22904 net.cpp:84] Creating Layer data
I0430 17:17:03.511037 22904 net.cpp:380] data -> data
I0430 17:17:03.511049 22904 net.cpp:380] data -> label
I0430 17:17:03.511055 22904 data_transformer.cpp:25] Loading mean file from: /home/work/qinhuan/mywork/license_plate/data/lmdb/license_train_12cal_imagenet_mean.binaryproto
I0430 17:17:03.536188 22904 data_layer.cpp:45] output data size: 128,3,12,42
I0430 17:17:03.541167 22904 net.cpp:122] Setting up data
I0430 17:17:03.541182 22904 net.cpp:129] Top shape: 128 3 12 42 (193536)
I0430 17:17:03.541188 22904 net.cpp:129] Top shape: 128 (128)
I0430 17:17:03.541190 22904 net.cpp:137] Memory required for data: 774656
I0430 17:17:03.541195 22904 layer_factory.hpp:77] Creating layer conv1
I0430 17:17:03.541208 22904 net.cpp:84] Creating Layer conv1
I0430 17:17:03.541211 22904 net.cpp:406] conv1 <- data
I0430 17:17:03.541218 22904 net.cpp:380] conv1 -> conv1
I0430 17:17:03.718330 22904 net.cpp:122] Setting up conv1
I0430 17:17:03.718353 22904 net.cpp:129] Top shape: 128 16 10 40 (819200)
I0430 17:17:03.718356 22904 net.cpp:137] Memory required for data: 4051456
I0430 17:17:03.718366 22904 layer_factory.hpp:77] Creating layer pool1
I0430 17:17:03.718375 22904 net.cpp:84] Creating Layer pool1
I0430 17:17:03.718379 22904 net.cpp:406] pool1 <- conv1
I0430 17:17:03.718382 22904 net.cpp:380] pool1 -> pool1
I0430 17:17:03.718421 22904 net.cpp:122] Setting up pool1
I0430 17:17:03.718426 22904 net.cpp:129] Top shape: 128 16 5 20 (204800)
I0430 17:17:03.718430 22904 net.cpp:137] Memory required for data: 4870656
I0430 17:17:03.718431 22904 layer_factory.hpp:77] Creating layer relu1
I0430 17:17:03.718436 22904 net.cpp:84] Creating Layer relu1
I0430 17:17:03.718438 22904 net.cpp:406] relu1 <- pool1
I0430 17:17:03.718441 22904 net.cpp:367] relu1 -> pool1 (in-place)
I0430 17:17:03.718539 22904 net.cpp:122] Setting up relu1
I0430 17:17:03.718544 22904 net.cpp:129] Top shape: 128 16 5 20 (204800)
I0430 17:17:03.718547 22904 net.cpp:137] Memory required for data: 5689856
I0430 17:17:03.718550 22904 layer_factory.hpp:77] Creating layer fc2
I0430 17:17:03.718555 22904 net.cpp:84] Creating Layer fc2
I0430 17:17:03.718559 22904 net.cpp:406] fc2 <- pool1
I0430 17:17:03.718562 22904 net.cpp:380] fc2 -> fc2
I0430 17:17:03.722720 22904 net.cpp:122] Setting up fc2
I0430 17:17:03.722729 22904 net.cpp:129] Top shape: 128 128 (16384)
I0430 17:17:03.722733 22904 net.cpp:137] Memory required for data: 5755392
I0430 17:17:03.722738 22904 layer_factory.hpp:77] Creating layer relu2
I0430 17:17:03.722743 22904 net.cpp:84] Creating Layer relu2
I0430 17:17:03.722745 22904 net.cpp:406] relu2 <- fc2
I0430 17:17:03.722749 22904 net.cpp:367] relu2 -> fc2 (in-place)
I0430 17:17:03.723255 22904 net.cpp:122] Setting up relu2
I0430 17:17:03.723263 22904 net.cpp:129] Top shape: 128 128 (16384)
I0430 17:17:03.723266 22904 net.cpp:137] Memory required for data: 5820928
I0430 17:17:03.723269 22904 layer_factory.hpp:77] Creating layer fc2_relu2_0_split
I0430 17:17:03.723273 22904 net.cpp:84] Creating Layer fc2_relu2_0_split
I0430 17:17:03.723276 22904 net.cpp:406] fc2_relu2_0_split <- fc2
I0430 17:17:03.723279 22904 net.cpp:380] fc2_relu2_0_split -> fc2_relu2_0_split_0
I0430 17:17:03.723284 22904 net.cpp:380] fc2_relu2_0_split -> fc2_relu2_0_split_1
I0430 17:17:03.723314 22904 net.cpp:122] Setting up fc2_relu2_0_split
I0430 17:17:03.723317 22904 net.cpp:129] Top shape: 128 128 (16384)
I0430 17:17:03.723320 22904 net.cpp:129] Top shape: 128 128 (16384)
I0430 17:17:03.723322 22904 net.cpp:137] Memory required for data: 5952000
I0430 17:17:03.723325 22904 layer_factory.hpp:77] Creating layer drop2
I0430 17:17:03.723330 22904 net.cpp:84] Creating Layer drop2
I0430 17:17:03.723331 22904 net.cpp:406] drop2 <- fc2_relu2_0_split_0
I0430 17:17:03.723335 22904 net.cpp:380] drop2 -> drop2
I0430 17:17:03.723363 22904 net.cpp:122] Setting up drop2
I0430 17:17:03.723367 22904 net.cpp:129] Top shape: 128 128 (16384)
I0430 17:17:03.723369 22904 net.cpp:137] Memory required for data: 6017536
I0430 17:17:03.723372 22904 layer_factory.hpp:77] Creating layer fc3
I0430 17:17:03.723377 22904 net.cpp:84] Creating Layer fc3
I0430 17:17:03.723379 22904 net.cpp:406] fc3 <- fc2_relu2_0_split_1
I0430 17:17:03.723383 22904 net.cpp:380] fc3 -> fc3
I0430 17:17:03.724308 22904 net.cpp:122] Setting up fc3
I0430 17:17:03.724316 22904 net.cpp:129] Top shape: 128 45 (5760)
I0430 17:17:03.724319 22904 net.cpp:137] Memory required for data: 6040576
I0430 17:17:03.724325 22904 layer_factory.hpp:77] Creating layer loss
I0430 17:17:03.724329 22904 net.cpp:84] Creating Layer loss
I0430 17:17:03.724333 22904 net.cpp:406] loss <- fc3
I0430 17:17:03.724335 22904 net.cpp:406] loss <- label
I0430 17:17:03.724339 22904 net.cpp:380] loss -> loss
I0430 17:17:03.724344 22904 layer_factory.hpp:77] Creating layer loss
…
I0430 17:17:03.724726 22904 solver.cpp:172] Creating test net (#0) specified by test_net file: /home/work/qinhuan/mywork/license_plate/cascadeCNN_license_plate_detection/train_net/jobs/license_12cal/test.prototxt
I0430 17:17:03.724786 22904 net.cpp:51] Initializing net from parameters: 
name: "license_12cal_test"
state {
  phase: TEST
}
layer {
  name: "data"
  type: "Data"
  top: "data"
  top: "label"
  transform_param {
    mean_file: "/home/work/qinhuan/mywork/license_plate/data/lmdb/license_train_12cal_imagenet_mean.binaryproto"
  }
  data_param {
    source: "/home/work/qinhuan/mywork/license_plate/data/lmdb/license_val_12cal_lmdb"
    batch_size: 50
    backend: LMDB
  }
}
layer {
  name: "conv1"
  type: "Convolution"
  bottom: "data"
  top: "conv1"
  param {
    lr_mult: 1
    decay_mult: 1
  }
  param {
    lr_mult: 2
    decay_mult: 0
  }
  convolution_param {
    num_output: 16
    kernel_size: 3
    weight_filler {
      type: "gaussian"
      std: 0.0001
    }
    bias_filler {
      type: "constant"
    }
  }
}
layer {
  name: "pool1"
  type: "Pooling"
  bottom: "conv1"
  top: "pool1"
  pooling_param {
    pool: MAX
    kernel_size: 3
    stride: 2
  }
}
layer {
  name: "relu1"
  type: "ReLU"
  bottom: "pool1"
  top: "pool1"
}
layer {
  name: "fc2"
  type: "InnerProduct"
  bottom: "pool1"
  top: "fc2"
  param {
    lr_mult: 1
    decay_mult: 1
  }
  param {
    lr_mult: 2
    decay_mult: 0
  }
  inner_product_param {
    num_output: 128
    weight_filler {
      type: "gaussian"
      std: 0.005
    }
    bias_filler {
      type: "constant"
    }
  }
}
layer {
  name: "relu2"
  type: "ReLU"
  bottom: "fc2"
  top: "fc2"
}
layer {
  name: "drop2"
  type: "Dropout"
  bottom: "fc2"
  top: "drop2"
  dropout_param {
    dropout_ratio: 0.5
  }
}
layer {
  name: "fc3"
  type: "InnerProduct"
  bottom: "fc2"
  top: "fc3"
  param {
    lr_mult: 1
    decay_mult: 100
  }
  param {
    lr_mult: 2
    decay_mult: 0
  }
  inner_product_param {
    num_output: 45
    weight_filler {
      type: "gaussian"
      std: 0.01
    }
    bias_filler {
      type: "constant"
      value: 0
    }
  }
}
layer {
  name: "accuracy"
  type: "Accuracy"
  bottom: "fc3"
  bottom: "label"
  top: "accuracy"
}
I0430 17:17:03.724815 22904 layer_factory.hpp:77] Creating layer data
I0430 17:17:03.769704 22904 db_lmdb.cpp:35] Opened lmdb /home/work/qinhuan/mywork/license_plate/data/lmdb/license_val_12cal_lmdb
I0430 17:17:03.776005 22904 net.cpp:84] Creating Layer data
I0430 17:17:03.776016 22904 net.cpp:380] data -> data
I0430 17:17:03.776023 22904 net.cpp:380] data -> label
I0430 17:17:03.776028 22904 data_transformer.cpp:25] Loading mean file from: /home/work/qinhuan/mywork/license_plate/data/lmdb/license_train_12cal_imagenet_mean.binaryproto
I0430 17:17:03.776165 22904 data_layer.cpp:45] output data size: 50,3,12,42
I0430 17:17:03.777812 22904 net.cpp:122] Setting up data
I0430 17:17:03.777822 22904 net.cpp:129] Top shape: 50 3 12 42 (75600)
I0430 17:17:03.777827 22904 net.cpp:129] Top shape: 50 (50)
I0430 17:17:03.777832 22904 net.cpp:137] Memory required for data: 302600
I0430 17:17:03.777835 22904 layer_factory.hpp:77] Creating layer conv1
I0430 17:17:03.777842 22904 net.cpp:84] Creating Layer conv1
I0430 17:17:03.777845 22904 net.cpp:406] conv1 <- data
I0430 17:17:03.777849 22904 net.cpp:380] conv1 -> conv1
I0430 17:17:03.779234 22904 net.cpp:122] Setting up conv1
I0430 17:17:03.779247 22904 net.cpp:129] Top shape: 50 16 10 40 (320000)
I0430 17:17:03.779253 22904 net.cpp:137] Memory required for data: 1582600
I0430 17:17:03.779259 22904 layer_factory.hpp:77] Creating layer pool1
I0430 17:17:03.779265 22904 net.cpp:84] Creating Layer pool1
I0430 17:17:03.779268 22904 net.cpp:406] pool1 <- conv1
I0430 17:17:03.779273 22904 net.cpp:380] pool1 -> pool1
I0430 17:17:03.779307 22904 net.cpp:122] Setting up pool1
I0430 17:17:03.779312 22904 net.cpp:129] Top shape: 50 16 5 20 (80000)
I0430 17:17:03.779314 22904 net.cpp:137] Memory required for data: 1902600
I0430 17:17:03.779317 22904 layer_factory.hpp:77] Creating layer relu1
I0430 17:17:03.779320 22904 net.cpp:84] Creating Layer relu1
I0430 17:17:03.779323 22904 net.cpp:406] relu1 <- pool1
I0430 17:17:03.779327 22904 net.cpp:367] relu1 -> pool1 (in-place)
I0430 17:17:03.779429 22904 net.cpp:122] Setting up relu1
I0430 17:17:03.779435 22904 net.cpp:129] Top shape: 50 16 5 20 (80000)
I0430 17:17:03.779438 22904 net.cpp:137] Memory required for data: 2222600
I0430 17:17:03.779440 22904 layer_factory.hpp:77] Creating layer fc2
I0430 17:17:03.779445 22904 net.cpp:84] Creating Layer fc2
I0430 17:17:03.779448 22904 net.cpp:406] fc2 <- pool1
I0430 17:17:03.779453 22904 net.cpp:380] fc2 -> fc2
I0430 17:17:03.784040 22904 net.cpp:122] Setting up fc2
I0430 17:17:03.784050 22904 net.cpp:129] Top shape: 50 128 (6400)
I0430 17:17:03.784054 22904 net.cpp:137] Memory required for data: 2248200
I0430 17:17:03.784060 22904 layer_factory.hpp:77] Creating layer relu2
I0430 17:17:03.784065 22904 net.cpp:84] Creating Layer relu2
I0430 17:17:03.784067 22904 net.cpp:406] relu2 <- fc2
I0430 17:17:03.784070 22904 net.cpp:367] relu2 -> fc2 (in-place)
I0430 17:17:03.784178 22904 net.cpp:122] Setting up relu2
I0430 17:17:03.784183 22904 net.cpp:129] Top shape: 50 128 (6400)
I0430 17:17:03.784185 22904 net.cpp:137] Memory required for data: 2273800
I0430 17:17:03.784188 22904 layer_factory.hpp:77] Creating layer fc2_relu2_0_split
I0430 17:17:03.784191 22904 net.cpp:84] Creating Layer fc2_relu2_0_split
I0430 17:17:03.784194 22904 net.cpp:406] fc2_relu2_0_split <- fc2
I0430 17:17:03.784198 22904 net.cpp:380] fc2_relu2_0_split -> fc2_relu2_0_split_0
I0430 17:17:03.784202 22904 net.cpp:380] fc2_relu2_0_split -> fc2_relu2_0_split_1
I0430 17:17:03.784236 22904 net.cpp:122] Setting up fc2_relu2_0_split
I0430 17:17:03.784241 22904 net.cpp:129] Top shape: 50 128 (6400)
I0430 17:17:03.784245 22904 net.cpp:129] Top shape: 50 128 (6400)
I0430 17:17:03.784246 22904 net.cpp:137] Memory required for data: 2325000
I0430 17:17:03.784250 22904 layer_factory.hpp:77] Creating layer drop2
I0430 17:17:03.784253 22904 net.cpp:84] Creating Layer drop2
I0430 17:17:03.784255 22904 net.cpp:406] drop2 <- fc2_relu2_0_split_0
I0430 17:17:03.784260 22904 net.cpp:380] drop2 -> drop2
I0430 17:17:03.784289 22904 net.cpp:122] Setting up drop2
I0430 17:17:03.784293 22904 net.cpp:129] Top shape: 50 128 (6400)
I0430 17:17:03.784296 22904 net.cpp:137] Memory required for data: 2350600
I0430 17:17:03.784298 22904 layer_factory.hpp:77] Creating layer fc3
I0430 17:17:03.784303 22904 net.cpp:84] Creating Layer fc3
I0430 17:17:03.784307 22904 net.cpp:406] fc3 <- fc2_relu2_0_split_1
I0430 17:17:03.784310 22904 net.cpp:380] fc3 -> fc3
I0430 17:17:03.784541 22904 net.cpp:122] Setting up fc3
I0430 17:17:03.784550 22904 net.cpp:129] Top shape: 50 45 (2250)
I0430 17:17:03.784557 22904 net.cpp:137] Memory required for data: 2359600
I0430 17:17:03.784569 22904 layer_factory.hpp:77] Creating layer accuracy
I0430 17:17:03.784574 22904 net.cpp:84] Creating Layer accuracy
I0430 17:17:03.784579 22904 net.cpp:406] accuracy <- fc3
I0430 17:17:03.784587 22904 net.cpp:406] accuracy <- label
I0430 17:17:03.784592 22904 net.cpp:380] accuracy -> accuracy
…
